notebook/model/lstm_12_step_Ia.onnx (onnx, 212392 bytes, 9 tensors)

fc1.weight f4 [16, 64]
0	0x3d23c9b4	0.03998728
1	0x3d887ae6	0.06664066
2	0xbeab0e1c	-0.33409202
3	0xbe4a51a0	-0.197577
4	0x3c8d2b72	0.01723263
5	0x3e8fa907	0.28058645
6	0xbe79d1a2	-0.24396375
7	0xbe5d95e0	-0.21639204
8	0x3d378476	0.04480406
9	0xbc967485	-0.018366108
10	0x3cf0b097	0.02938108
11	0x3df892d9	0.12137384
12	0xbe5d8c1f	-0.21635483
13	0xbc4a2622	-0.012338193
14	0xbdf32830	-0.118728995
15	0x3dec6108	0.11541945
16	0x3e484b4a	0.1955997
17	0x3c7e2dad	0.01551382
18	0xbd563e46	-0.052305482
19	0x3e43e1a8	0.1912905
20	0x3b676c71	0.003531244
21	0xbe3d8a75	-0.18509848
22	0x3e7cbc95	0.24681313
23	0xbeb4c94a	-0.3530982
24	0x3e32c9f6	0.17459854
25	0x39ed2b20	0.00045236293
26	0x3e4de7fa	0.20108023
27	0xbe1b7e9f	-0.15185021
28	0xbe3ffa36	-0.18747792
29	0x3e0d6c52	0.13810852
30	0x3d3d71fc	0.046251282
31	0x3edc50bd	0.43030348
32	0xbd85c896	-0.06532399
33	0x3dfd80f4	0.123781115
34	0xbd0eac54	-0.034832314
35	0x3de55819	0.11198444
36	0xbc83bbc4	-0.016080745
37	0xbe04fcb6	-0.12987027
38	0x3ebe91e4	0.3722068
39	0x3e169fd8	0.14709413
40	0x3deb8b8e	0.11501227
41	0x3de31530	0.110880256
42	0x3d8e713c	0.069551915
43	0x3e21dc65	0.1580673
44	0x3e549691	0.20760562
45	0x3e88127d	0.26576605
46	0x3dd7fa9e	0.10545848
47	0xbdf96631	-0.121776946
48	0x3c673ec7	0.014114088
49	0x3d8abd60	0.06774402
50	0xbe9d67fa	-0.3074339
51	0x3eaa418d	0.33253136
52	0x3eae5ec5	0.34056678
53	0x3d988c8d	0.07448683
54	0xbd663ae2	-0.0562085
55	0xbd8e5a0e	-0.0695077
56	0x3dc4a5f6	0.09601967
57	0x3e5ffa95	0.21872933
58	0x3d892d06	0.06698041
59	0xbe5f0dff	-0.21782683
60	0xbd6add99	-0.05734024
61	0x3dd97352	0.10617699
62	0xbdcda342	-0.100409046
63	0x3de472e4	0.11154726
64	0x3d51941e	0.051166646
65	0x3dec84e9	0.11548788
66	0xbe59060a	-0.2119371
67	0xbd5f87c6	-0.054572843
68	0xbd22302f	-0.039596733
69	0x3e57f959	0.21091212
70	0xbe666ad4	-0.22501689
71	0xbe5c5111	-0.215153
72	0x3e0ed930	0.13950038
73	0xbe07c9c6	-0.13260564
74	0xbdb7f513	-0.08982291
75	0x3cc9c485	0.02462984
76	0xbe2c48af	-0.16824602
77	0x3975f99f	0.00023458012
78	0xbd647fa6	-0.055785798
79	0x3dab7f0d	0.083738424
80	0x3dd0972a	0.10185082
81	0xbdc8b1c1	-0.09799529
82	0xbe8e6385	-0.27810302
83	0x3d80f364	0.06296423
84	0xbd953a87	-0.07286554
85	0x3b6e8a5e	0.0036398391
86	0x3e81198d	0.25214806
87	0xbe45123c	-0.19245237
88	0x3e475033	0.19464187
89	0xbde58e7a	-0.11208816
90	0x3d9e69b2	0.077350035
91	0xbe21c64c	-0.157983
92	0xbe3df565	-0.18550642
93	0x3e21efbb	0.15814106
94	0x3e4103b7	0.18849073
95	0x3f149b1b	0.5804917
96	0xbd64c1f6	-0.055849038
97	0x3c1ecbd7	0.009692154
98	0xbd8a6a83	-0.06758597
99	0x3e20ba58	0.15696084
100	0xbe0eff55	-0.13964589
101	0xbe82f9c0	-0.2558117
102	0x3e54fa0e	0.20798513
103	0x3dcac50c	0.09900865
104	0x3db6382b	0.08897432
105	0xbd98e70b	-0.07465943
106	0xbdd0c82c	-0.1019443
107	0x3dbaa284	0.09113029
108	0x3e22f71f	0.15914582
109	0x3eb83c6f	0.35983607
110	0x3e0e37c8	0.13888466
111	0x3d38cc45	0.04511668
112	0x3cfd19ce	0.030896094
113	0x3e273339	0.16328134
114	0xbe943c78	-0.28952384
115	0x3e701a38	0.23447502
116	0x3ed56f16	0.41686314
117	0x3e2c357a	0.16817275
118	0x3d98b628	0.074566185
119	0xbe0edf31	-0.13952328
120	0x3d43fe8a	0.04785017
121	0x3c2bcd7a	0.010486001
122	0x3d36db92	0.044642992
123	0xbe4c2c97	-0.19938885
124	0xbc5465b8	-0.012963705
125	0x3e2da6af	0.16958116
126	0xbdd0768f	-0.10178863
127	0xbd20f382	-0.039294727
128	0xbdc6af16	-0.09701364
129	0x3e0c7cbf	0.13719462
130	0xbe9dca7c	-0.30818546
131	0xbe096271	-0.13416459
132	0xbd3a62b4	-0.045504287
133	0x3e2a1686	0.16610155
134	0xbe308f98	-0.17242277
135	0xbe735df3	-0.23766308
136	0x3e6d0893	0.23147802
137	0xbdb74d53	-0.08950295
138	0xbdbc1c65	-0.09185103
139	0x3e10eb52	0.14152268
140	0xbe6fcc64	-0.23417813
141	0x3b8a796f	0.004225902
142	0xbd275059	-0.04084811
143	0x3e03714e	0.12836191
144	0x3e369c29	0.17833008
145	0xbd9a4d67	-0.075342946
146	0xbe87ad5e	-0.26499456
147	0x3e81483b	0.2525042
148	0xbd395955	-0.04525121
149	0xbdf5798d	-0.119860746
150	0x3d4afdf5	0.0495586
151	0xbed864a1	-0.42264274
152	0xbc359576	-0.011082998
153	0xbdbed2de	-0.093175635
154	0x3e8a82e5	0.2705299
155	0x3d5d9111	0.054093424
156	0xbde28b45	-0.1106172
157	0x3e08553d	0.13313766
158	0x3e01c6fd	0.12673564
159	0x3f191497	0.5979704
160	0xbd4990c5	-0.04921033
161	0xbda1034e	-0.078619584
162	0x3d49142f	0.049091514
163	0x3e29cbd5	0.16581662
164	0xbcdcb71b	-0.02694278
165	0xbdbcd9fc	-0.09221265
166	0x3e8cb60b	0.27482638
167	0xbc2341ab	-0.009964387
168	0x3eab1d3e	0.33420748
169	0x3de1294d	0.109942056
170	0xbd492cfd	-0.04911517
171	0x3e5a5ac8	0.21323693
172	0x3dcc7959	0.09984083
173	0x3ed62972	0.41828495
174	0x3cdc0849	0.02685942
175	0xbd15ac40	-0.036541224
176	0x3e10260f	0.14077018
177	0x3dd67b32	0.104727164
178	0xbe925478	-0.2858007
179	0x3e431f3b	0.19054882
180	0x3ee93ffa	0.45556623
181	0x3db7fedc	0.089841574
182	0x3e08fc18	0.13377416
183	0xbe73ef6a	-0.23821798
184	0xbcde354a	-0.02712502
185	0x3e5e0d5d	0.21684785
186	0x3dd74477	0.105111055
187	0xbe582374	-0.21107274
188	0x3e214f39	0.15752877
189	0x3da8b6b8	0.08237976
190	0xbe230bea	-0.15922514
191	0xbdd90b32	-0.105978385
192	0x3d0fc7a5	0.035102505
193	0x3e1cd683	0.15316205
194	0xbe4715ed	-0.19441958
195	0x3b0c37a2	0.0021395464
196	0xbe42e86c	-0.19033974
197	0x3d852183	0.065005325
198	0xbe2c901e	-0.16851851
199	0xbe362905	-0.17789085
200	0x3e22c374	0.15894872
201	0xbb344941	-0.0027509483
202	0x3e1039ec	0.14084595
203	0x3e0175a4	0.12642533
204	0xbe2ae2d7	-0.16688095
205	0xbdc55644	-0.096355945
206	0xbddc9382	-0.107703224
207	0x3e0c62e7	0.13709603
208	0x3cfa180e	0.030529048
209	0x3d3dfaa4	0.046381608
210	0xbdf73b0e	-0.12071811
211	0x3e84a9fd	0.2591094
212	0xbe0c86f7	-0.1372336
213	0xbe49f183	-0.19721036
214	0x3dc9140f	0.09818279
215	0xbebbe559	-0.36698416
216	0x3d63b0d9	0.055588577
217	0xbc893672	-0.016749594
218	0x3e990d48	0.29892945
219	0xbe1694d9	-0.14705218
220	0xbe1813ac	-0.14851254
221	0x3e15c0c9	0.14624323
222	0x3d81e4fb	0.06342503
223	0x3ee548ae	0.44782013
224	0x3d26d1f1	0.04072756
225	0x3df55837	0.11979716
226	0xbc183bc5	-0.009291594
227	0x3e39abd9	0.18131961
228	0xbdd29a52	-0.102833405
229	0xbe59b66a	-0.21260992
230	0x3e172625	0.14760645
231	0x3d674c73	0.056469392
232	0x3e95b1ac	0.29237115
233	0x3d7e89f4	0.06214328
234	0xbdb29c2a	-0.08721192
235	0x3e6c92d9	0.23102893
236	0x3d8761bb	0.066104375
237	0x3ed98b49	0.4248908
238	0x3d8c972a	0.0686477
239	0xbd88b95d	-0.0667598
240	0x3d27cfe0	0.04096973
241	0x3e04bd62	0.12962869
242	0xbe0d91ef	-0.138252
243	0x3e796928	0.2435652
244	0x3f01806f	0.505866
245	0x3d8c4e41	0.06850863
246	0x3df2f90f	0.118639104
247	0xbdc154c2	-0.094399944
248	0xbb0d439c	-0.002155519
249	0x3e29be6c	0.16576546
250	0x3c24591d	0.010031012
251	0xbe409b02	-0.18809131
252	0xbd32a7f2	-0.043617196
253	0xbcb4911c	-0.02204185
254	0xbe60a274	-0.21936971
255	0x3cb3a62c	0.021929823

fc1.bias f4 [16]
0	0xbddf1c9a	-0.10894127
1	0xbd3dda82	-0.046350963
2	0xbcd0388d	-0.02541759
3	0xbe0f6066	-0.14001617
4	0xbc023e35	-0.007949402
5	0xbd19845c	-0.037479743
6	0x3dfd9afa	0.12383075
7	0xbdfcafea	-0.123382404
8	0xbd68e598	-0.056859583
9	0xbce348e6	-0.027744722
10	0xbd33f124	-0.04393114
11	0x3bd22cca	0.0064140307
12	0x3d143ffc	0.036193833
13	0x3c241c49	0.010016509
14	0xbdf72227	-0.12067061
15	0x3d951775	0.07279865

fc2.weight f4 [1, 16]
0	0x3e9f8ca1	0.3116198
1	0x3ea57914	0.32318938
2	0x3e920161	0.28516677
3	0x3e634f0b	0.22198121
4	0x3e8ac13e	0.27100557
5	0x3e587a56	0.21140417
6	0xbda788cc	-0.08180389
7	0x3dfa4aef	0.12221324
8	0x3e68a3f1	0.22718789
9	0xbdec6b4e	-0.11543904
10	0xbe251465	-0.16121061
11	0x3e8c3d8b	0.27390704
12	0x3e691d1f	0.22765015
13	0x3e6328e4	0.22183567
14	0x3e9ae10a	0.30249816
15	0xbe8d59f1	-0.27607682

onnx::LSTM_227 f4 [1, 256, 1]
0	0x3e5d0799	0.2158493
1	0x3e8e1f6a	0.27758342
2	0x3edfbd2a	0.43699008
3	0x3defcdc8	0.117091715
4	0x3f05f55e	0.52327526
5	0x3f0b3d5e	0.54390514
6	0x3eede308	0.46462274
7	0x3eea25d5	0.4573199
8	0x3e3f2fdc	0.186706
9	0x3e466231	0.19373395
10	0x3e07b22a	0.13251558
11	0x3e8e06a2	0.27739435
12	0x3e8ff50b	0.2811664
13	0xbd4112dc	-0.047137126
14	0x3ea9c0f7	0.33155033
15	0xbd8ee7a4	-0.06977776
16	0xbe6825fa	-0.22670737
17	0x3ecf445d	0.40481845
18	0x3ef6d0f9	0.48206308
19	0x3e7b08de	0.24515101
20	0x3e5b9564	0.21443707
21	0x3ef7225f	0.4826841
22	0x3de0613b	0.10956045
23	0x3e0923bf	0.13392542
24	0x3e1b4c05	0.15165718
25	0x3ec13d31	0.37741998
26	0x3d2e5fbd	0.042571772
27	0x3d682448	0.056675225
28	0x3e1a92ee	0.15095112
29	0x3dcbaaca	0.09944685
30	0x3e6d1629	0.23152985
31	0x3ed7701b	0.42077717
32	0x3eca61d4	0.39527762
33	0x3e60b29e	0.21943137
34	0xbe4529a0	-0.1925416
35	0x3f23c92a	0.63978827
36	0xbebd7f21	-0.37011054
37	0x3e39acff	0.18132399
38	0x3efb06ad	0.4902853
39	0x3e7e949c	0.24861377
40	0x3e84f6e4	0.25969613
41	0x3eceffd9	0.4042957
42	0x3dda9216	0.10672395
43	0x3ccec767	0.025241567
44	0x3e2f8ffa	0.17144766
45	0x3e8fa0f1	0.28052476
46	0x3f23514b	0.6379592
47	0x3ecd6798	0.40118098
48	0x3ec4e2b8	0.38454223
49	0x3eed4de0	0.46348476
50	0x3ee63310	0.44960833
51	0x3ec2d477	0.38052723
52	0x3f07d20a	0.5305487
53	0xbd0ac64e	-0.033880524
54	0x3f0c7970	0.548728
55	0x3e8e8ef6	0.27843446
56	0x3ef8869c	0.485402
57	0x3e017761	0.12643196
58	0x3ef8ceff	0.48595425
59	0x3eabaf05	0.33531967
60	0x3e4bcbd1	0.19901969
61	0x3e54950a	0.20759979
62	0x3d4fa4ce	0.05069428
63	0x3f072cec	0.5280292
64	0x3eafa430	0.34304953
65	0x3ef04c6f	0.46933314
66	0x3e9cd95c	0.30634582
67	0x3eb7a936	0.35871285
68	0x3f17f388	0.59355974
69	0x3f1b56e6	0.6067947
70	0x3ee7cb9f	0.45272538
71	0x3f17b4ff	0.59260553
72	0x3de82c68	0.11336595
73	0x3e9ef44a	0.31045753
74	0x3d0084d0	0.03137666
75	0x3e170c2b	0.14750735
76	0x3f10b47b	0.5652539
77	0xbe6f74b1	-0.23384358
78	0x3efb9cbc	0.49143016
79	0xbdf3c6d2	-0.11903156
80	0xbe45458c	-0.19264811
81	0x3e198a58	0.1499418
82	0x3e002079	0.12512387
83	0x3f00224e	0.50052345
84	0x3f0b544c	0.544255
85	0x3f81bfb3	1.0136627
86	0x3c03cdd9	0.008044683
87	0x3c213e58	0.009841524
88	0x3df14dcc	0.11782417
89	0x3ef0cbc8	0.47030473
90	0xbe20fa82	-0.15720561
91	0x3d128cbe	0.035778753
92	0xbea257fc	-0.31707752
93	0x3e747e86	0.2387639
94	0x3d87c39a	0.06629105
95	0x3f23af6c	0.6393955
96	0xbcfe1383	-0.031015163
97	0x3e3bd063	0.18341212
98	0xbe0ad935	-0.1355942
99	0x3f70df32	0.9409057
100	0xbe8e2ada	-0.27767068
101	0xbe9bdf27	-0.3044369
102	0x3ed1abe8	0.40951467
103	0x3e127dde	0.14305827
104	0x3e598f1b	0.21245997
105	0x3ec292dd	0.38002673
106	0x3efcc2ee	0.4936747
107	0x3e6c135e	0.23054263
108	0x3e5fece2	0.21867707
109	0x3ee7bfb4	0.45263445
110	0x3f4471f8	0.767364
111	0x3f4c2037	0.79736656
112	0x3f1158cd	0.56776124
113	0x3f0899ba	0.5335957
114	0x3e2289b0	0.15872836
115	0x3f744a72	0.95426095
116	0x3fb2de74	1.3974137
117	0xbe77b8b0	-0.24191546
118	0x3eb17b8d	0.34664574
119	0x3ea4da35	0.3219773
120	0x3f08bad9	0.53410107
121	0x3ea43c83	0.32077417
122	0x3f7f028a	0.9961325
123	0x3eb7f6e6	0.35930556
124	0x3ed3d443	0.4137288
125	0x3ebc49b0	0.3677497
126	0x3e1abd46	0.15111265
127	0x3f04da3c	0.518955
128	0xbdf44c1c	-0.11928579
129	0x3f0d7243	0.55252475
130	0xbe059924	-0.130467
131	0xbee9cb50	-0.45662928
132	0xbd2beed0	-0.041975796
133	0x3e7b513a	0.24542704
134	0x3e77e20e	0.24207327
135	0xbcbf735a	-0.023370434
136	0x3cdbb156	0.026817959
137	0xbe4be510	-0.19911599
138	0x3e95fa6f	0.29292628
139	0xbf24e223	-0.6440756
140	0x3ddf5f51	0.10906852
141	0xbe140814	-0.14456207
142	0x3f145bfe	0.5795287
143	0x3da48856	0.080338165
144	0x3df46131	0.119326
145	0xbe871387	-0.26382086
146	0xbf22679f	-0.63439363
147	0x3d829b16	0.063772365
148	0xbdb25099	-0.08706779
149	0x3f3310a9	0.69947296
150	0x3ea4709d	0.32117167
151	0xbf1060c8	-0.56397676
152	0x3d8aa113	0.06769004
153	0x3bbb3772	0.0057133967
154	0x3f05ab51	0.52214533
155	0x3f0a1e7a	0.53952754
156	0xbeca41f6	-0.3950345
157	0x3ed1db9c	0.4098786
158	0xbf58e21c	-0.84720016
159	0x3ecd38fa	0.40082532
160	0x3f0de940	0.55434036
161	0xbf172874	-0.590461
162	0x3c81b1c7	0.015831841
163	0x3f1505b3	0.5821182
164	0x3e8c04a9	0.27347305
165	0xbd54d388	-0.051959544
166	0x3db17eb8	0.08666748
167	0x3d3558f4	0.044274285
168	0xbe81122d	-0.2520918
169	0x3d366967	0.044534113
170	0x3e09ade7	0.13445245
171	0x3e1bd657	0.15218483
172	0x3ea31490	0.31851625
173	0x3e9e92bb	0.3097132
174	0xbcc2d4b4	-0.023783065
175	0x3eaf0530	0.34183645
176	0x3ede4652	0.43413025
177	0x3cb28140	0.021790147
178	0xbef04667	-0.46928713
179	0x3ea9b4d4	0.33145773
180	0x3e8cb3cc	0.27480924
181	0x3e4c7fa2	0.19970563
182	0x3f0a8892	0.5411464
183	0xbdc1bdcf	-0.09460031
184	0x3e848e1e	0.25889677
185	0xbe5b77a0	-0.21432352
186	0x3f160c90	0.5861292
187	0xbeaeb3db	-0.34121594
188	0x3e0f81ee	0.14014408
189	0xbcc8d04b	-0.024513384
190	0x3e9d6654	0.30742133
191	0x3eb4e9af	0.35334536
192	0xbeeed7d1	-0.4664903
193	0xbe86e8e3	-0.26349553
194	0x3f1af844	0.60535073
195	0xbe87441c	-0.2641915
196	0xbec9dcdc	-0.39426315
197	0x3eba643a	0.36404592
198	0x3ea54e0b	0.32286105
199	0xbeb80976	-0.35944718
200	0xbe2b7b7c	-0.16746324
201	0x3dddfea6	0.10839586
202	0x3e35740a	0.17720047
203	0xbec3651e	-0.38163084
204	0xbe888044	-0.2666036
205	0x3e0a41e8	0.13501704
206	0x3ec48a77	0.3838689
207	0x3aa78507	0.0012780734
208	0xbcf1cbec	-0.029516183
209	0xbd329d7f	-0.04360723
210	0xbeb3baa9	-0.35103348
211	0xbf52ca92	-0.8234035
212	0x3ec53708	0.38518548
213	0x3f0d0d47	0.55098385
214	0xbd8a9857	-0.06767338
215	0xbe8c975d	-0.2745923
216	0xbda5c5a9	-0.08094341
217	0x3ee5fd37	0.4491975
218	0xbe5e7ce4	-0.2172733
219	0x3f0ecba2	0.5577947
220	0xbe0eba48	-0.13938248
221	0x3e044cb9	0.12919892
222	0xbf3ee594	-0.7456906
223	0xbeb6f885	-0.3573648
224	0xbcff0f4d	-0.031135226
225	0xbf0ee520	-0.55818367
226	0x3ddf5270	0.109043956
227	0xbf3b4016	-0.7314466
228	0x3c6f4cb0	0.014605686
229	0xbd344438	-0.04401037
230	0x3ebe9880	0.37225723
231	0x3f4f4b83	0.80974597
232	0x3f2c8497	0.67389816
233	0xbe382996	-0.17984614
234	0xbe0a17f9	-0.13485707
235	0x3d37effd	0.044906605
236	0xbee6bade	-0.45064443
237	0xbea95668	-0.33073735
238	0x3b83a3d0	0.0040173307
239	0x3e8b8db4	0.27256548
240	0xbea1a3ae	-0.3157019
241	0xbf04b5c0	-0.5183983
242	0x3f345457	0.7044119
243	0x3e8d82ea	0.27638942
244	0xbf462404	-0.77398705
245	0x3d27eb1c	0.040995702
246	0xbeccc27b	-0.39992127
247	0xbd13841d	-0.036014665
248	0xbec4c19b	-0.3842896
249	0x3ee9a7f6	0.45635957
250	0xbe9d38e3	-0.30707464
251	0xbec1b1aa	-0.3783086
252	0x3f48b305	0.7839816
253	0xbeb2ebce	-0.3494553
254	0xbe305a90	-0.17222047
255	0x3ed3770f	0.41301772

onnx::LSTM_228 f4 [1, 256, 64]
0	0x3e1a7d55	0.15086873
1	0xbe5735ad	-0.2101657
2	0xbe3b191c	-0.18271297
3	0x3ec665ea	0.3874963
4	0x3e298f3b	0.16558544
5	0x3e268872	0.16262987
6	0x3db1c1ad	0.08679519
7	0x3dd252a2	0.10269667
8	0x3ef315f4	0.47477686
9	0xbe05e0f9	-0.13074102
10	0x3d4be487	0.049778488
11	0x3efda69d	0.49541178
12	0xbdc8ec1b	-0.098106585
13	0xbe9fee78	-0.31236625
14	0x3e1ee495	0.15516885
15	0x3e8107dd	0.25201312
16	0x3e1be77b	0.15225022
17	0x3d8077db	0.062728606
18	0xbdb252eb	-0.087072216
19	0xbe4b6bed	-0.19865389
20	0x3d432515	0.047642786
21	0x3e0b45ed	0.13600893
22	0xbdddad88	-0.10824114
23	0x3f02dbad	0.5111645
24	0x3e9f6a11	0.3113561
25	0xbe93af47	-0.28844664
26	0xbec47b2d	-0.38375226
27	0xbd50b2f1	-0.0509519
28	0x3eb43144	0.35193837
29	0x3e0b1a04	0.13584143
30	0x3f38450f	0.71980375
31	0xbe1dde0a	-0.15416732
32	0xbe9bd70c	-0.30437505
33	0x3c82f832	0.01598749
34	0xbf01c6af	-0.5069379
35	0xbe3353fd	-0.17512508
36	0x3dbc0c91	0.09182084
37	0xbea2ac3a	-0.31772023
38	0x3d5457ff	0.051841732
39	0xbeae3867	-0.34027407
40	0xbeb8b030	-0.3607192
41	0xbdb14aad	-0.086568214
42	0xbe55fa7a	-0.2089633
43	0xbe97f529	-0.2967923
44	0x3d40befc	0.047057137
45	0xbeb4a580	-0.35282516
46	0xbd8cbb38	-0.06871647
47	0x3dde206e	0.10846029
48	0xbe3479af	-0.17624544
49	0xbd274448	-0.040836602
50	0xbf102790	-0.5631037
51	0x3df142e6	0.11780338
52	0xbe56fffd	-0.2099609
53	0xbe8b8d7d	-0.27256384
54	0xbdc59b7c	-0.09648797
55	0x3e25e62a	0.16201082
56	0xbdb12382	-0.08649351
57	0xbc7cedcf	-0.015437557
58	0xbe69b1b8	-0.228217
59	0x3e6b2cb6	0.22966275
60	0x3e1263e4	0.14295918
61	0xbe99f6b8	-0.30071044
62	0x3da3d4a5	0.07999543
63	0xbdcaa80a	-0.09895332
64	0x3dfab728	0.122419655
65	0xbd14a98c	-0.036294505
66	0xbd2090e0	-0.039200664
67	0x3da15167	0.078768544
68	0x3be49ba1	0.00697656
69	0xbdba852a	-0.0910743
70	0xbd785b21	-0.060633782
71	0x3c6db22f	0.014507814
72	0x3df9400e	0.121704206
73	0x3e62b5c6	0.22139654
74	0xbdf91045	-0.12161306
75	0x3e33a9a1	0.17545177
76	0x3e61f3fc	0.22065729
77	0xbe36dce8	-0.17857707
78	0x3dffe4ed	0.12494836
79	0x3db8b01a	0.09017964
80	0xbd711c72	-0.05886502
81	0xbdb53e31	-0.08849753
82	0xbe0ea955	-0.13931783
83	0x3c64d205	0.013966088
84	0x3d9f1a50	0.077686906
85	0x3e2b8a2a	0.16751924
86	0x3e07b718	0.13253438
87	0x3deeb673	0.11655893
88	0x3bb1f415	0.005430708
89	0xbcd54450	-0.02603355
90	0x3c0440d9	0.0080721015
91	0x3d2611da	0.04054437
92	0xbd8f3112	-0.06991781
93	0xbcf42b09	-0.029805677
94	0x3da5fc91	0.08104814
95	0x3e6b99ae	0.23007843
96	0x3c1541f8	0.009109966
97	0xb99965a1	-0.00029258154
98	0xbda6f370	-0.08151901
99	0xbe238876	-0.15970024
100	0xbca4bb66	-0.02010889
101	0xbe2a292f	-0.16617273
102	0xbe49d780	-0.19711113
103	0x3e834e4d	0.25645676
104	0xbd5d038a	-0.053958453
105	0x3e396878	0.18106258
106	0xbe95bbe2	-0.29244906
107	0x3c82d56f	0.015970914
108	0x3dc56b63	0.09639623
109	0x3c92e279	0.017930256
110	0xbd66e9c6	-0.056375287
111	0x3e2cdf55	0.1688207
112	0x3d2de3e7	0.042453673
113	0xbc176b60	-0.009241909
114	0x3dc298f8	0.09501833
115	0x3dba8610	0.09107602
116	0xbdb694b7	-0.08915084
117	0x3ca66953	0.020313894
118	0xbd8b7c92	-0.06810869
119	0x3e7dc56e	0.24782345
120	0x3d9b96f2	0.0759715
121	0xbcb54602	-0.022128109
122	0xbd8a0fe1	-0.0674131
123	0x3d5f6d80	0.054547787
124	0x3e247b3d	0.16062637
125	0x3c14cdb0	0.009082243
126	0x3eaf78a9	0.34271744
127	0xbdf0787d	-0.11741731
128	0x3cdc8616	0.026919406
129	0x3daa7248	0.08322579
130	0xbda67038	-0.08126873
131	0x3e49888e	0.19680998
132	0x3d8cd641	0.06876803
133	0xbd8559b9	-0.06511254
134	0xbe289701	-0.16463853
135	0x3e6eb557	0.23311363
136	0x3e6bb010	0.23016381
137	0x3daf58d8	0.085618675
138	0xbd0afe60	-0.033933997
139	0x3e835fe7	0.25659105
140	0xbe043d40	-0.1291399
141	0xbe3008d2	-0.17190865
142	0x3b106b32	0.002203655
143	0xbd3e4237	-0.046449866
144	0xbddf521b	-0.10904332
145	0xbd486683	-0.048925888
146	0x3ce7ed1d	0.028311307
147	0x3e8990ea	0.26868373
148	0xbe4d33ce	-0.20039293
149	0xbba51ebb	-0.0050390637
150	0xbb5497c4	-0.0032439092
151	0x3c87dbef	0.016584365
152	0x3d2b6dd8	0.041852802
153	0xbe7d5c7e	-0.24742314
154	0xbdeb5b60	-0.11492038
155	0x3c05eb0d	0.008173716
156	0x3e1d6955	0.15372212
157	0xbd0252ec	-0.03181736
158	0x3e887a28	0.26655698
159	0x3e1ca789	0.15298285
160	0xbe3ef0dc	-0.18646568
161	0x3e32d8ab	0.17465465
162	0xbe21fc77	-0.15818964
163	0xbe0d2c43	-0.13786416
164	0xbe279e3d	-0.16368957
165	0x3cb3d8d8	0.021953985
166	0xbd5f40d5	-0.054505188
167	0xbbbc198f	-0.0057403515
168	0xbd008620	-0.03137791
169	0xbb00ce76	-0.001965431
170	0x3c286282	0.010277392
171	0xbd6a6b4e	-0.05723124
172	0x3cca7a2b	0.024716457
173	0xbdeaacdd	-0.11458752
174	0xbda66abc	-0.08125827
175	0xbd9f64a4	-0.077828676
176	0xbdb6b3d1	-0.08921016
177	0x3df07eee	0.1174296
178	0xbe751c2f	-0.23936532
179	0xbca1ee63	-0.019766992
180	0xbe0f6510	-0.14003396
181	0xbe3bc586	-0.18337068
182	0x3daf1574	0.08549014
183	0x3e5edf1c	0.21764797
184	0x3dc0510e	0.0939046
185	0x3d1a7a9a	0.03771458
186	0xbd8c4bb5	-0.068503775
187	0x3e20f194	0.15717155
188	0xbe6b078b	-0.22952096
189	0x3d1feb09	0.039042506
190	0xbc2a8bf4	-0.010409344
191	0x3cc25252	0.023720894
192	0xbe72f843	-0.23727517
193	0x3c90f2e9	0.017693954
194	0x3db82d19	0.08992977
195	0xbd9fc101	-0.078004844
196	0xbd3cfe48	-0.04614094
197	0x3caa2313	0.020768678
198	0x3d354c84	0.044262424
199	0xbd728076	-0.05920454
200	0x3ce060fc	0.027389996
201	0x3e8f4b79	0.2798727
202	0x3daf33b8	0.085547864
203	0xbe329533	-0.17439727
204	0x3df7118f	0.12063896
205	0xbcab38f1	-0.020901175
206	0x3d834285	0.06409172
207	0x3df8a418	0.121406734
208	0x3e0f0775	0.13967688
209	0xbd3e9143	-0.04652525
210	0xbd919044	-0.071075946
211	0xbdfea855	-0.124344505
212	0xbe480295	-0.19532235
213	0xbd671a79	-0.05642173
214	0xbd313b7a	-0.043269612
215	0xbdd8c757	-0.10584896
216	0x3d234deb	0.03986923
217	0x3e2c3b98	0.16819608
218	0xbd8fb3c4	-0.070167094
219	0x3dace4a7	0.084420495
220	0x3d98e1e3	0.074649595
221	0x3dc6145a	0.096718505
222	0x3d88a77f	0.06672572
223	0xbda8d961	-0.08244587
224	0xbbf6c342	-0.0075306008
225	0xbd6bf8d8	-0.057610363
226	0xbcd63f74	-0.026153304
227	0x3e44a227	0.19202481
228	0x3d0db438	0.034595698
229	0xbe105ca5	-0.14097841
230	0x3d613309	0.05498031
231	0xb9910736	-0.00027661928
232	0x3ced5633	0.028971767
233	0xbe0b014f	-0.13574718
234	0xbd3af6fe	-0.045645706
235	0xbbddde26	-0.006770867
236	0xbdeed4bf	-0.11661672
237	0x3c8bf6fc	0.017085545
238	0x3d8cbb5c	0.068716735
239	0x3e070e47	0.1318904
240	0xbd819b98	-0.06328505
241	0xbe08e95e	-0.13370273
242	0x3decfb46	0.11571364
243	0x3e0d7699	0.13814773
244	0x3debd1f9	0.115146585
245	0xbdd133ec	-0.102149814
246	0x3a2af6fd	0.00065217895
247	0x3df31b12	0.118703976
248	0xbda7205c	-0.08160469
249	0x3cb31681	0.021861317
250	0xbcd82949	-0.026386874
251	0xbe6f8ae7	-0.23392831
252	0x3da07f04	0.07836726
253	0xbbd51d09	-0.0065037054
254	0xbe7986bf	-0.24367808
255	0x3d009e75	0.031401116

onnx::LSTM_229 f4 [1, 512]
0	0x3ece6ebe	0.40318865
1	0xbcb8065e	-0.022463974
2	0x3deba5bf	0.11506223
3	0x3d99e5a1	0.07514501
4	0xbd0027c1	-0.031287912
5	0xbe3ec108	-0.18628323
6	0xbe47fa6a	-0.19529119
7	0xbe2040e8	-0.1564976
8	0xbb8205ed	-0.0039679916
9	0x3ee5c1e6	0.44874495
10	0xbda946be	-0.08265446
11	0x3e6d3fe7	0.23168908
12	0xbcbee9f5	-0.023304919
13	0xbdd2ec3f	-0.102989666
14	0xbe056010	-0.13024926
15	0x3d3ed6f6	0.04659172
16	0x3d1916b1	0.037375156
17	0x3e5c4b95	0.21513207
18	0x3e50c2dc	0.20386833
19	0x3eb55c2b	0.3542188
20	0xbc4ab2b8	-0.012371711
21	0x3e25defe	0.16198346
22	0xbe41c73f	-0.18923663
23	0x3f10b904	0.5653231
24	0x3cc8b7ec	0.024501763
25	0x3d418ea2	0.047255166
26	0x3e2c6e2f	0.16838907
27	0x3df50772	0.11964311
28	0xbd5186fe	-0.05115413
29	0xbe75349b	-0.23945849
30	0x3e0c5d22	0.13707402
31	0x3d6d6719	0.05795965
32	0xbc4cd7e3	-0.012502643
33	0x3e50eddb	0.20403235
34	0xbd70bc22	-0.058773167
35	0x3ebeb429	0.37246826
36	0x3e0515ba	0.1299657
37	0xbd4bca05	-0.049753208
38	0xbe28f3a5	-0.16499193
39	0x3ea6931e	0.32534117
40	0x3e03dd33	0.1287735
41	0xbe240d42	-0.16020682
42	0x3e99efcf	0.30065772
43	0xbdf81dd9	-0.12115068
44	0x3db95ac5	0.09050516
45	0x3d8f0d09	0.06984908
46	0x3e9b6a04	0.3035432
47	0x3c91c635	0.017794708
48	0x3bf6405b	0.007514996
49	0x3d547a91	0.0518747
50	0x3d0524a8	0.03250566
51	0x3e61d5a7	0.22054158
52	0x3e08e51e	0.13368651
53	0xbdb94778	-0.09046835
54	0xbe189c22	-0.1490331
55	0x3da79b06	0.08183865
56	0xbe2b3a2f	-0.16721414
57	0x3e381e6d	0.17980357
58	0x3dfbc039	0.12292523
59	0x3e90cf23	0.28283033
60	0x3f2c202b	0.67236584
61	0xbe07933f	-0.13239764
62	0xbdcbf61b	-0.0995905
63	0x3be6b9e3	0.0070412024
64	0x3e973d05	0.29538742
65	0x3e23bb1b	0.15989344
66	0x3e68b7ef	0.22726415
67	0x3d6a8fb9	0.05726597
68	0xbe065030	-0.13116527
69	0xbd9536b4	-0.072858244
70	0x3a4932c2	0.0007675105
71	0xbd0aaf8e	-0.03385883
72	0xbd8ccc6c	-0.06874928
73	0x3f14c0ee	0.5810689
74	0xbe2d2d5a	-0.16911831
75	0x3eb85c9d	0.36008158
76	0x3d0e7a97	0.03478488
77	0xbe1182b3	-0.14210014
78	0x3dcd4291	0.10022462
79	0x3e31eafe	0.17374799
80	0x3df93ebb	0.12170168
81	0x3d8f2af7	0.06990617
82	0x3d8d6ecc	0.069058985
83	0x3ea3f2ae	0.32021087
84	0x3da4c4c5	0.08045343
85	0x3dce47ae	0.100722656
86	0xbdca1ca2	-0.098687425
87	0x3f23ffc7	0.6406216
88	0xbe0a4b32	-0.13505247
89	0xbd31d16f	-0.043412622
90	0x3d766e4e	0.06016379
91	0x3cab74ee	0.02092978
92	0x3e374d1d	0.1790051
93	0xbe88cab7	-0.2671716
94	0x3ecabf97	0.39599296
95	0xbb543bd2	-0.0032384288
96	0xbdf07b42	-0.117422596
97	0x3ed08897	0.4072921
98	0xbdac879f	-0.08424305
99	0x3e38d682	0.18050578
100	0xbca41d98	-0.020033643
101	0xbb7ef561	-0.0038903581
102	0x3da1d245	0.07901434
103	0x3e930c65	0.28720394
104	0x3e71519e	0.2356629
105	0xbd92406e	-0.07141195
106	0x3ea5c2df	0.32375237
107	0x3c2856ef	0.010274633
108	0xbd810eef	-0.063016765
109	0x3c86489c	0.016392045
110	0x3ed88cc7	0.42294905
111	0xbdb334a0	-0.08750272
112	0xbe18e368	-0.14930499
113	0xbc72357e	-0.014783261
114	0x3c5eedcd	0.013606501
115	0x3cfd5106	0.030922424
116	0xbd6c6a30	-0.057718456
117	0xbe29bc40	-0.16575718
118	0xbe22ea80	-0.15909767
119	0x3e8e0631	0.277391
120	0x3bd82698	0.0065963976
121	0x3e984969	0.29743508
122	0x3d88d065	0.06680373
123	0x3ec5c616	0.3862769
124	0x3ecda247	0.4016287
125	0x3e7f40cf	0.24927066
126	0xbd2b0f2f	-0.041762527
127	0xbe146ee5	-0.14495428
128	0xbe47e759	-0.19521846
129	0x3d5d6dcd	0.054059792
130	0x3cc117b3	0.023570871
131	0x3e19dacc	0.1502487
132	0xbe18ba3b	-0.14914791
133	0xbe3f05e1	-0.18654586
134	0x3c6af3e4	0.014340375
135	0xbe5969e2	-0.21231797
136	0xbc8a5ba4	-0.0168894
137	0x3e0f2090	0.13977265
138	0xbd2dba8c	-0.042414233
139	0x3df40705	0.11915401
140	0x3dbdd831	0.09269751
141	0xbdbb6a35	-0.09151117
142	0xbce54182	-0.027985338
143	0x3e91bcc4	0.2846433
144	0xbd966386	-0.07343201
145	0x3da57adb	0.080800734
146	0x3e74b4b2	0.23897055
147	0x3d8e9d4b	0.06963595
148	0x3cae2d85	0.02126194
149	0xbe12f66b	-0.14351813
150	0xbe1d0b70	-0.15336394
151	0xbd82b93f	-0.06382989
152	0xbd9c9358	-0.07645291
153	0xbe024b28	-0.12723982
154	0x3de5b87d	0.11216829
155	0xbcf63ba9	-0.030057745
156	0x3d727331	0.059191886
157	0x3d927f84	0.07153228
158	0x3d4e676c	0.0503916
159	0x3d9ce707	0.076612525
160	0x3df95ce1	0.12175918
161	0xbdf0fb9d	-0.117667414
162	0x3e0cc45e	0.13746783
163	0x3db11b36	0.08647768
164	0x3e0bf504	0.13667685
165	0x3d2bab60	0.041911483
166	0xbe23c87b	-0.15994446
167	0x3e6e8fca	0.23297039
168	0xbd1bfc77	-0.038082566
169	0x3dce195e	0.10063432
170	0x3d86d2d3	0.0658318
171	0xbd01e890	-0.03171593
172	0xbd0c0c3a	-0.034191348
173	0x3dcc7cbb	0.09984728
174	0xbdf79b20	-0.120901346
175	0xbc2570bf	-0.010097682
176	0xbda9d8ad	-0.08293281
177	0xbe130322	-0.14356664
178	0xbd8713c0	-0.06595564
179	0x3da0d028	0.07852203
180	0xba65ce91	-0.00087664375
181	0x3daa0a04	0.083026916
182	0xbd30f8a9	-0.04320589
183	0x3dcb3931	0.09923018
184	0xbd4eb11e	-0.05046188
185	0x3c68af70	0.014201984
186	0x3de23168	0.1104458
187	0x3c41570d	0.01180054
188	0xbd9793c1	-0.07401229
189	0x3dabdb67	0.08391457
190	0xbd6b81a2	-0.057496674
191	0x3d1523e4	0.03641118
192	0xbe2d08a9	-0.16897835
193	0xbdfcd986	-0.12346177
194	0x3dc9a37d	0.09845636
195	0x3d008dfe	0.031385414
196	0x3e0a7dde	0.13524577
197	0x3d70b92f	0.058770355
198	0x3c7dbee1	0.015487404
199	0x3ce3b2b8	0.02779518
200	0x3d512818	0.051063627
201	0x3dd01fce	0.10162316
202	0x3d35557e	0.044270985
203	0x3cbc2c4e	0.022970345
204	0xbc735ad9	-0.014853203
205	0x3c6bb366	0.014386034
206	0x3ce89490	0.028391153
207	0xbd209086	-0.03920033
208	0xbcddff12	-0.027099166
209	0x3dfc1559	0.12308759
210	0xbded4dd2	-0.11587109
211	0xbdb31b81	-0.0874548
212	0xbd8557a9	-0.065108605
213	0x3d985fb8	0.07440132
214	0x3d22168e	0.03957229
215	0xbd2ac57f	-0.041692253
216	0x3d89e5de	0.06733297
217	0x3d45e1c2	0.048311003
218	0xbc928e2a	-0.017890055
219	0x3e30b869	0.17257847
220	0x3e01c7db	0.12673895
221	0x3da7434f	0.08167135
222	0xbde4fc9e	-0.111809954
223	0xbdc1da91	-0.09465516
224	0xbdceb9ac	-0.10094008
225	0xbd5bb4bb	-0.053639155
226	0xbe1f3edf	-0.15551327
227	0xbd673a35	-0.056451995
228	0x3d068886	0.032845043
229	0xbd892584	-0.06696609
230	0xb979661e	-0.00023784532
231	0x3dd7e196	0.10541074
232	0xbcb299e4	-0.021801896
233	0x3d389a05	0.04506876
234	0xbe149750	-0.14510846
235	0x3d3d69dc	0.046243533
236	0xbdee4a80	-0.116353035
237	0xbe32acb3	-0.17448692
238	0x3e02f49c	0.12788624
239	0x3e2eda1d	0.17075391
240	0xbd668246	-0.056276582
241	0xbce79026	-0.028266978
242	0x3cecce83	0.028907066
243	0x3d37f868	0.044914633
244	0xbe0d4ef8	-0.13799655
245	0xbd84dbd0	-0.064872384
246	0xbe0a7753	-0.13522081
247	0xbbe9c71d	-0.007134332
248	0xbd95335c	-0.07285187
249	0x3c8fe33f	0.017564414
250	0xbe033dc5	-0.12816532
251	0x3bf13ab2	0.0073617334
252	0x3e4453db	0.19172613
253	0xbc2a0304	-0.010376696
254	0x3d1802ca	0.037112035
255	0xbd1c5805	-0.03816988

onnx::LSTM_251 f4 [1, 256, 64]
0	0xbdfa7593	-0.12229457
1	0xbe03f346	-0.1288577
2	0xbd8926fc	-0.06696889
3	0x3e452a03	0.19254307
4	0x3dcb8113	0.09936728
5	0xbe1aa873	-0.15103321
6	0xbe19fb4c	-0.15037268
7	0x3dd5d839	0.10441632
8	0x3e167c65	0.1469589
9	0xbd7cdf31	-0.06173629
10	0x3e669024	0.22515923
11	0xbde0370a	-0.10947998
12	0x3e935e8e	0.28783077
13	0xbe22b186	-0.15888032
14	0x3dceeaa8	0.10103351
15	0x3ec5ffa7	0.3867161
16	0x3ecd17c3	0.4005719
17	0x3e9289f7	0.28620884
18	0xbe218559	-0.15773524
19	0xbf149569	-0.5804048
20	0xbd95dc00	-0.07317352
21	0x3e0950da	0.13409749
22	0xbea0b537	-0.31388256
23	0xbd0015eb	-0.031270903
24	0xbd5a43c7	-0.053287294
25	0xbe89c4c0	-0.2690792
26	0xbed6e1dc	-0.41969192
27	0x3e2e217c	0.17004961
28	0x3e18c111	0.14917399
29	0x3e07acd1	0.13249518
30	0x3e5cb834	0.21554643
31	0x3de5b894	0.11216846
32	0xbe32177f	-0.17391776
33	0xbe685f3e	-0.22692582
34	0xbe8178a2	-0.25287348
35	0xbe61d797	-0.22054897
36	0x3e6eef5e	0.23333499
37	0xbed37054	-0.41296637
38	0x3e382ecd	0.17986603
39	0x3e8a6620	0.2703104
40	0xbd9ff8ab	-0.078111015
41	0xbe7f69ec	-0.2494275
42	0xbe908ab0	-0.2823081
43	0xbe471e5c	-0.19445175
44	0xbec3883c	-0.38189876
45	0xbefda231	-0.49537805
46	0x3d7446d9	0.059637878
47	0x3f078f1e	0.52952754
48	0xbdd5e249	-0.10443551
49	0xbbe47946	-0.0069724647
50	0xbe078603	-0.13234715
51	0x3ec5d449	0.38638523
52	0xbc1a67ba	-0.009424144
53	0xbe29c711	-0.16579844
54	0xbe10eb8f	-0.14152358
55	0xbca559dc	-0.02018445
56	0x3e12816d	0.14307185
57	0x3e83fcf3	0.25778922
58	0xbe36794b	-0.17819707
59	0xbe7ff790	-0.24996781
60	0x3e4691f8	0.1939162
61	0xbea36bf8	-0.3191831
62	0xbbeb0a92	-0.007172891
63	0x3e0d54f8	0.13801944
64	0xbdf50815	-0.11964432
65	0x3db4e236	0.08832209
66	0x3ec47c58	0.38376117
67	0x3ecc562a	0.39909488
68	0xbc25d508	-0.010121591
69	0xbe52f812	-0.20602444
70	0xbea1439e	-0.314969
71	0x3ded8463	0.115975164
72	0x3e090552	0.13380936
73	0xbd7c8aa0	-0.06165564
74	0x3de66ac7	0.11250835
75	0x3eaeb016	0.34118718
76	0xbc882d9b	-0.016623309
77	0xbec5ddfc	-0.38645923
78	0x3e3d4eac	0.18487042
79	0x3eae0665	0.33989254
80	0x3ec21384	0.37905514
81	0x3de261cd	0.1105381
82	0xbdb39418	-0.08768481
83	0xbef8e957	-0.48615524
84	0xbd755133	-0.05989189
85	0x3ed3a1ca	0.41334373
86	0xbecadf78	-0.39623618
87	0x3e91be4a	0.28465492
88	0x3e9710e4	0.29505074
89	0xbde77aa7	-0.11302691
90	0xbf15e59f	-0.585535
91	0x3ef03c4f	0.46921012
92	0x3db9cfb9	0.09072823
93	0x3e68470b	0.2268335
94	0x3eefc58b	0.468304
95	0x3d40ebd2	0.047099896
96	0xbf052f27	-0.52025074
97	0xba15c4ee	-0.0005713244
98	0xbef72a36	-0.48274392
99	0xbe4516dc	-0.19247001
100	0x3f414218	0.75491476
101	0xbef83578	-0.48478293
102	0x3d27f979	0.0410094
103	0x3d88aa2a	0.06673081
104	0x3cd84430	0.026399702
105	0xbe6eca95	-0.23319466
106	0xbea588c1	-0.32330897
107	0xbec6629b	-0.38747105
108	0xbf25912a	-0.6467463
109	0xbe879914	-0.26483977
110	0x3d1fc556	0.039006554
111	0x3e3321e4	0.17493397
112	0x3d1c04af	0.038090404
113	0x3e149722	0.14510778
114	0xbd986997	-0.07442015
115	0x3ec5a127	0.38599512
116	0x3b11fcd3	0.002227594
117	0xbf373c82	-0.715767
118	0xbd308521	-0.04309571
119	0xbe10c5a1	-0.1413789
120	0xbe53886c	-0.2065751
121	0x3e69e366	0.22840652
122	0xbecee353	-0.4040781
123	0xbd81371b	-0.06309339
124	0x3f059e98	0.5219512
125	0xbe52ee8f	-0.20598815
126	0xbf162390	-0.58648014
127	0x3dc498bf	0.095994465
128	0x3c20be51	0.009811
129	0xbdb5fc8f	-0.08886062
130	0xbce9cef3	-0.028541064
131	0xbde0d640	-0.10978365
132	0xbd6e947d	-0.05824708
133	0xbd94a79f	-0.07258534
134	0xbe6af0f9	-0.22943486
135	0xbc5a7a06	-0.013334757
136	0x3b9e55d4	0.004832009
137	0xbe23dd33	-0.1600235
138	0x3d0bbbd6	0.03411468
139	0xbd9124f0	-0.070871234
140	0x3d38e128	0.0451366
141	0xbcfcd467	-0.030863
142	0xbe00bb8a	-0.1257154
143	0x3e585d34	0.21129304
144	0x3e6a4e03	0.22881322
145	0x3dec3f19	0.115354724
146	0xbe495a97	-0.19663464
147	0xbd121e64	-0.035673514
148	0xbd656ee2	-0.05601395
149	0x3dcee17b	0.10101601
150	0xbe39c7f2	-0.1814268
151	0x3dbf2a5b	0.093342505
152	0x3d8179e1	0.06322075
153	0xbd31e2b9	-0.04342911
154	0xbccdd0b7	-0.025123937
155	0x3ea72df8	0.3265226
156	0xbc83e6d6	-0.016101282
157	0x3ce077b5	0.02740083
158	0xbd8ac77f	-0.06776332
159	0xbdce9336	-0.10086672
160	0x3d0b6986	0.034036182
161	0xbe24f18e	-0.16107771
162	0xbd2ff9d0	-0.04296285
163	0xbdcf2261	-0.10113979
164	0x3e0b528f	0.13605712
165	0xbe1d0fe5	-0.15338095
166	0x3e545d07	0.20738612
167	0x3e9fb749	0.31194523
168	0x3e3b087a	0.18264952
169	0xbe7e70ba	-0.2484769
170	0x3e3c8288	0.18409169
171	0x3e10f27c	0.14155
172	0xbe98c1b1	-0.29835275
173	0xbdefa178	-0.117007196
174	0x3e7e0183	0.24805264
175	0xbd32d84d	-0.04366331
176	0xbbe941cb	-0.007118439
177	0xbe58907a	-0.21148863
178	0x3e5e93e2	0.217361
179	0x3c9ba28e	0.01899841
180	0x3df0dd59	0.11760969
181	0xbcb9411b	-0.022614053
182	0x3d3e740c	0.04649739
183	0xbdc8b4d9	-0.09800119
184	0x3e487b24	0.19578224
185	0x3b203726	0.0024446934
186	0xbdd713be	-0.105018124
187	0xbd265c87	-0.040615585
188	0x3e12db63	0.14341502
189	0xbd7c45da	-0.061590053
190	0xbe0254cc	-0.1272766
191	0x3c7e7a0c	0.015532028
192	0x3f1af72e	0.60533416
193	0x3e3050c5	0.17218311
194	0x3e9b5b8c	0.30343282
195	0xbd96b198	-0.07358092
196	0x3e2b07c2	0.16702178
197	0xbdf73917	-0.12071436
198	0xbda19cc9	-0.078912325
199	0xbc5737f7	-0.013135902
200	0x3e2ae947	0.1669055
201	0xbe8624d5	-0.26199976
202	0x3dfea149	0.124331065
203	0x3d93477d	0.0719137
204	0xbe9b2aa7	-0.3030598
205	0xbdb03525	-0.086038865
206	0xbe86e459	-0.2634609
207	0xbe1144a4	-0.1418634
208	0x3e887acb	0.26656184
209	0xbda14ecb	-0.07876357
210	0xbe1fbad8	-0.15598619
211	0x3e9f4c6b	0.3111299
212	0x3e4636c1	0.19356824
213	0xbe97db54	-0.29659522
214	0xbed9cfbe	-0.42541307
215	0x3eee671d	0.46563044
216	0x3db44558	0.08802289
217	0xbde27e20	-0.11059213
218	0xbec0d5b9	-0.37663057
219	0x3f02a463	0.51032084
220	0x3ed41459	0.41421774
221	0xbc6a50b5	-0.014301469
222	0xbe419307	-0.18903743
223	0xbd2b18cc	-0.041771695
224	0xbda751d0	-0.08169901
225	0xbe0308d7	-0.12796341
226	0xbdc93223	-0.09824016
227	0x3e533c90	0.20628572
228	0x3ea2aa97	0.31770775
229	0x3d90c2eb	0.07068428
230	0xbdbd8ca5	-0.092553414
231	0x3e9cda95	0.30635515
232	0x3e89e681	0.26933673
233	0xbdd5508e	-0.10415755
234	0x3edc76b2	0.43059307
235	0x3cac3b55	0.021024385
236	0xbe5cdccc	-0.21568602
237	0x3e5da269	0.21643986
238	0x3e87bc48	0.26510835
239	0xbd8ead51	-0.06966651
240	0x3e313090	0.17303681
241	0x3eb213df	0.34780785
242	0x3e2c50fa	0.16827765
243	0xbeb81e71	-0.35960725
244	0xbea4b013	-0.32165584
245	0xbe8c54a0	-0.27408314
246	0x3e08940c	0.13337725
247	0xbe999082	-0.29993063
248	0xbe467280	-0.19379616
249	0x3da89f51	0.08233512
250	0xbcbb3b3a	-0.02285539
251	0x3e24eed4	0.1610673
252	0x3df8641f	0.121284716
253	0xbdacaabd	-0.08431003
254	0xbeebec17	-0.4607856
255	0xbe3495c5	-0.17635258

onnx::LSTM_252 f4 [1, 256, 64]
0	0x3e91073e	0.28325838
1	0xbda803d1	-0.08203853
2	0x3e50fe5d	0.20409532
3	0xbdbb4de2	-0.09145714
4	0x3eae358f	0.34025237
5	0xbe0b555c	-0.13606781
6	0x3e21c151	0.157964
7	0x3e6fa4c9	0.23402704
8	0xbe5dd655	-0.21663792
9	0x3e3e977d	0.18612476
10	0xbe63f19e	-0.22260138
11	0xbe4b5518	-0.1985668
12	0x3c608626	0.0137038585
13	0x3e5b5153	0.21417741
14	0xbf31c69b	-0.6944367
15	0xbd93eb41	-0.072226055
16	0xbe066ce3	-0.13127474
17	0x3e355290	0.17707276
18	0x3dd795a3	0.10526588
19	0xbe0ffe34	-0.14061815
20	0xbdc66e27	-0.09688979
21	0xbdf545e2	-0.1197622
22	0xbe565952	-0.2093251
23	0x3c90b312	0.017663512
24	0x3cd7575a	0.02628677
25	0x3e9e0a99	0.3086746
26	0xbd2ba3a3	-0.041904103
27	0x3df30bcb	0.11867484
28	0x3e66771f	0.22506379
29	0xbdb7e499	-0.089791484
30	0xbd8e3620	-0.06943917
31	0xbead766b	-0.33879408
32	0x3df73b36	0.120718405
33	0x3e1f72fb	0.15571205
34	0x3d942ffc	0.07235715
35	0xbdece0aa	-0.11566289
36	0x3d47c632	0.048773
37	0xbc401103	-0.011722806
38	0xbce6df6d	-0.02818271
39	0xbe1c097d	-0.15237994
40	0xbccac518	-0.024752185
41	0x3e0ba6ab	0.13637798
42	0xbb52c8d8	-0.003216317
43	0xbd4550b3	-0.048172664
44	0x3dabd226	0.08389692
45	0xbe5d14f7	-0.21590029
46	0xbe8a469b	-0.27006993
47	0xbe800090	-0.2500043
48	0xbea02c88	-0.31283975
49	0xbe8510d2	-0.25989395
50	0xbe08ac68	-0.13347018
51	0xbe287e5e	-0.16454455
52	0xbf05628f	-0.52103513
53	0xbe55e4e6	-0.20888099
54	0x3e461194	0.19342643
55	0x3e006d6e	0.12541744
56	0xbe9a53b9	-0.30142
57	0x3e7f34d9	0.24922504
58	0xbeab9e3f	-0.3351917
59	0x3cc51340	0.02405703
60	0xba3399c6	-0.0006851222
61	0xbd3f168e	-0.04665237
62	0xbe27d125	-0.16388376
63	0xbdaf795c	-0.08568069
64	0xbe0f2f46	-0.13982877
65	0xbd94ac3e	-0.07259415
66	0x3e98baeb	0.29830107
67	0x3d87131d	0.065954424
68	0x3eaacd10	0.33359575
69	0xbebfd50c	-0.3746723
70	0x3eb3306b	0.34997877
71	0x3e49fb6a	0.19724813
72	0xbb822962	-0.0039722184
73	0x3e198e5c	0.14995712
74	0xbec2866c	-0.3799318
75	0xbe56b26d	-0.20966502
76	0x3e50bd01	0.203846
77	0x3ee0ddbc	0.4391917
78	0xbdcd0fdb	-0.1001279
79	0xbe28acec	-0.16472214
80	0xbeb7279e	-0.35772413
81	0xbcb85b3d	-0.022504443
82	0x3ea6f2f5	0.32607237
83	0xbebf4fb9	-0.3736551
84	0x3d6966b4	0.05698271
85	0x3e1aacf1	0.15105034
86	0xbe6b04da	-0.2295107
87	0x3ee6ef9a	0.45104676
88	0xbe8172af	-0.2528281
89	0x3d6e721a	0.058214284
90	0x3d3dc06c	0.046326086
91	0x3ece34d6	0.40274686
92	0x3eda40d3	0.42627582
93	0xbe96425b	-0.293475
94	0xbea98eea	-0.33116847
95	0xbe9f80b8	-0.31152892
96	0x3ef6dca7	0.4821522
97	0xbcc2b13f	-0.023766158
98	0x3eb73b96	0.35787648
99	0xbe880f1e	-0.26574033
100	0x3e37b5a5	0.17940386
101	0x3e563d10	0.20921731
102	0xbe3c212d	-0.1837203
103	0xbe20ecb3	-0.15715294
104	0xbe5b93e1	-0.2144313
105	0x3e65d46c	0.22444314
106	0x3d7a1d00	0.061062813
107	0xbeb35ad9	-0.3503025
108	0xbe4c543c	-0.19954008
109	0xbeb8a3dd	-0.36062518
110	0xbecd003d	-0.40039244
111	0x3e069f1f	0.13146637
112	0x3c5242a4	0.012833271
113	0xbd85e53b	-0.06537863
114	0x3ede6920	0.4343958
115	0xbe9ba4b5	-0.303991
116	0xbee4899e	-0.44636244
117	0xbeb4e622	-0.35331827
118	0xbddc058b	-0.10743245
119	0x3e58a4bb	0.2115659
120	0xbe1005ec	-0.14064759
121	0xbdbde296	-0.092717335
122	0xbc97d9e9	-0.018536525
123	0x3e48b0fb	0.19598763
124	0xbdd3333b	-0.10312506
125	0xbda3718b	-0.07980641
126	0x3c8ebbf1	0.017423602
127	0xbe64eda0	-0.22356272
128	0x3db93ce8	0.0904482
129	0x3e825b91	0.25460485
130	0x3d6a743d	0.05723976
131	0xbe193f22	-0.1496549
132	0xbaa9572a	-0.0012919654
133	0xbe3142f9	-0.17310704
134	0xbe222c97	-0.15837322
135	0xbdc48d1e	-0.095972285
136	0x3e2c7018	0.16839635
137	0xbd890966	-0.06691246
138	0x3c991967	0.01868887
139	0xbc295082	-0.010334136
140	0xbe9592bf	-0.2921352
141	0x3ebda6bc	0.3704127
142	0x3bdd52b9	0.006754246
143	0x3e3a4c31	0.18193127
144	0x3e1a0000	0.15039062
145	0xbe363c0c	-0.17796344
146	0xbb570a5a	-0.0032812566
147	0x3e8cf248	0.27528596
148	0xbe6e491d	-0.23270078
149	0xbbb00870	-0.0053720996
150	0x3e376926	0.17911205
151	0xbcd0102f	-0.025398342
152	0x3d109239	0.0352957
153	0xbc5d8ed1	-0.01352282
154	0x3e2806f4	0.16408902
155	0x3d960606	0.07325368
156	0x3dfd65bd	0.12372921
157	0xbc1139cb	-0.008863877
158	0xbc8ce88d	-0.017200733
159	0xbd148b73	-0.0362658
160	0x3e120283	0.1425877
161	0x3dc38261	0.09546352
162	0xbd1b3182	-0.03788901
163	0x3e507ccb	0.20360105
164	0xbe2c6480	-0.16835213
165	0xbe62ce23	-0.22148947
166	0x3e06735f	0.13129948
167	0x3dd1785d	0.102280356
168	0x3d5d6870	0.054054677
169	0x3d516039	0.051117156
170	0xbe141eba	-0.14464846
171	0x3d473a7f	0.04863977
172	0xbe7f497d	-0.24930377
173	0xbcc2fe91	-0.023803027
174	0x3e6c7395	0.23090966
175	0xbe72ccce	-0.2371094
176	0xbe2ccc9c	-0.16874927
177	0x3eaf0cfe	0.341896
178	0xbe3d9e60	-0.18517447
179	0x3decbe3c	0.11559722
180	0xbe0c6259	-0.13709392
181	0xbc966f9e	-0.01836377
182	0xbdc4ffc5	-0.09619097
183	0xbdecd72a	-0.11564477
184	0xbd5937d5	-0.05303176
185	0x3ecf22cb	0.40456232
186	0xbbca0946	-0.0061656563
187	0xbd9a3bf0	-0.075309634
188	0xbe036f36	-0.12835392
189	0x3df64d73	0.12026491
190	0xbe4bb86d	-0.19894572
191	0x3eb540cd	0.35401002
192	0x3e032a1f	0.12809037
193	0xbea6a34d	-0.32546464
194	0x3e89ec19	0.2693794
195	0x3e40bda3	0.1882234
196	0x3f09b1df	0.53787035
197	0xbd15cff5	-0.036575276
198	0xbca2b141	-0.019859912
199	0xbdc48222	-0.09595133
200	0xbdf198bb	-0.11796709
201	0x3e2ac1aa	0.1667544
202	0x3e58274e	0.21108744
203	0xbda13836	-0.078720495
204	0x3e4d1643	0.20028023
205	0x3eaeb5af	0.3412299
206	0x3ea1afae	0.31579345
207	0xbde2cbf2	-0.11074056
208	0xbda99698	-0.082806766
209	0x3e4c20c1	0.1993437
210	0x3dd8314f	0.1055628
211	0x3c3f53f2	0.011677729
212	0x3de9320a	0.11386497
213	0x3ef6ccec	0.48203218
214	0xbe343db6	-0.17601666
215	0x3eb51592	0.3536802
216	0xbe5b5d11	-0.21422221
217	0x3eb70d97	0.35752556
218	0xbd9fabd1	-0.07796443
219	0x3e6ac8d7	0.22928177
220	0x3ec2b815	0.38031068
221	0xbec9a3b3	-0.39382705
222	0x3ca3bfa3	0.01998884
223	0xbeaf16c2	-0.3419705
224	0x3f4354ac	0.76301074
225	0x3e141c35	0.14463885
226	0x3e807c7b	0.2509497
227	0xbcdbb9cf	-0.026821999
228	0x3ca3acd6	0.019979876
229	0x3e1ec2ad	0.1550395
230	0xbcfc1c9e	-0.030775364
231	0xbe7e15ea	-0.24813047
232	0xbea724db	-0.32645306
233	0x3eb98bef	0.36239573
234	0xbf0cf099	-0.5505462
235	0xbe33907d	-0.17535587
236	0xbe0dc985	-0.13846405
237	0x3e3ba064	0.18322903
238	0x3e0809a6	0.1328493
239	0xbc094fc8	-0.008380838
240	0xbda890a8	-0.08230716
241	0xbde1650e	-0.11005603
242	0x3e280a88	0.16410267
243	0xbe884319	-0.2661369
244	0xbf10e831	-0.56604296
245	0xbcb3e007	-0.02195741
246	0xbef7ee9d	-0.48424235
247	0x3e6252f0	0.2210195
248	0xbe47de75	-0.19518454
249	0xbd703e6e	-0.058653288
250	0xbe2b0877	-0.16702448
251	0x3ccc7c7c	0.024961703
252	0xbea44565	-0.32084194
253	0xbe25526f	-0.16144727
254	0x3de197cf	0.11015283
255	0x3e83e175	0.25757948

onnx::LSTM_253 f4 [1, 512]
0	0x3e15b7d3	0.14620905
1	0x3eb812d3	0.35951862
2	0xbb036ad7	-0.0020052695
3	0xbd063e61	-0.032774333
4	0x3ce45018	0.027870223
5	0xbd2ffce8	-0.0429658
6	0x3e0c61b5	0.13709147
7	0xbcd50a7c	-0.026005976
8	0xbd99d4c2	-0.075112835
9	0x3c80307d	0.015648121
10	0xbd321303	-0.043475162
11	0x3dc613eb	0.09671768
12	0xbd476a51	-0.048685376
13	0x3d5d2955	0.053994495
14	0x3e0dfd75	0.13866217
15	0xbdce7f3d	-0.100828625
16	0xbd0dc74e	-0.0346139
17	0xbc8eff72	-0.01745579
18	0x3d8ebc7e	0.06969546
19	0x3d87a83b	0.06623884
20	0x3de6358d	0.11240683
21	0x3dcdf796	0.10056989
22	0x3dd04d7c	0.10171029
23	0xbcaee721	-0.021350445
24	0x3e26f641	0.16304876
25	0x3e10cb93	0.14140157
26	0x3c976e20	0.018485129
27	0xbdaf1bb1	-0.085502036
28	0x3d444029	0.04791275
29	0xbe0b686c	-0.13614053
30	0x3e001bde	0.1251063
31	0xbba2da1c	-0.0049698483
32	0xbdeedbca	-0.11663015
33	0x3dc9861f	0.09840035
34	0x3c28e1de	0.010307757
35	0x3e2be9f6	0.16788468
36	0x3ca4cf67	0.020118428
37	0x3d0ac489	0.033878837
38	0x3a0b74b9	0.0005319822
39	0xbcf4b736	-0.029872518
40	0x3e46a82e	0.19400093
41	0xbd482265	-0.048860926
42	0xbb91cd38	-0.004449513
43	0xbdaa2466	-0.08307724
44	0xbdf3fd48	-0.11913544
45	0x3daada04	0.083423644
46	0xbd84dea8	-0.06487781
47	0x3e240fac	0.16021603
48	0x3e4dbd3e	0.20091721
49	0xbddb265b	-0.10700675
50	0x3d9186e4	0.071058065
51	0x3d7d3d22	0.06182588
52	0x3c05a13c	0.008156117
53	0x3d9ec00c	0.07751474
54	0xbe35ad1d	-0.17741819
55	0x3d0381ce	0.032106213
56	0xbdec4af8	-0.11537737
57	0x3e38aeca	0.18035427
58	0x3ed06473	0.40701637
59	0x3d635ab5	0.055506427
60	0xbd86cd1d	-0.06582091
61	0x3e0ddc13	0.13853483
62	0x3d5cb775	0.053885896
63	0x3e8a498c	0.27009237
64	0x3e1f0ff1	0.15533425
65	0xbdf0e273	-0.11761942
66	0xbdb15a9a	-0.08659859
67	0xbe17722e	-0.1478965
68	0x3d07da27	0.03316703
69	0xbdae52dc	-0.08511898
70	0xbd8395df	-0.0642507
71	0x3cb7bcb5	0.02242885
72	0x3dd70d8f	0.10500633
73	0xbd9f5b23	-0.07781055
74	0xbc860696	-0.016360562
75	0x3ca72aec	0.020406209
76	0xbc7271da	-0.014797652
77	0x3e04ef39	0.12981881
78	0x39da2361	0.0004160656
79	0xbd484763	-0.048896205
80	0xbd9658f4	-0.07341185
81	0xbdba04df	-0.0908296
82	0xbe2fe0af	-0.17175554
83	0xbc9a82e5	-0.018861244
84	0xbc634186	-0.0138706025
85	0xbe226785	-0.15859802
86	0xbe0db7e3	-0.13839678
87	0xbd20a7a1	-0.039222363
88	0xbaddc8d4	-0.0016920813
89	0x3da61df8	0.08111185
90	0xbd206d09	-0.039166484
91	0xbd454885	-0.048164863
92	0xbe032340	-0.12806416
93	0xbdd637b9	-0.10459847
94	0x3db23416	0.08701341
95	0xbd4eccff	-0.05048847
96	0xbd9d77ee	-0.076888904
97	0x3eb9358a	0.3617366
98	0xbc8e4db6	-0.01737104
99	0x3dee9b1f	0.11650681
100	0xbc99280c	-0.018695854
101	0xbd632b31	-0.055461112
102	0xbcd2803e	-0.025695916
103	0xbd0e9653	-0.03481133
104	0x3d493ae1	0.049128417
105	0xbe10955e	-0.14119479
106	0x3ea2657c	0.3171805
107	0xbd86fb2b	-0.06590875
108	0x3ce9c2d8	0.028535292
109	0x3d4e89ed	0.050424505
110	0x3dd72182	0.10504438
111	0x3dae7a75	0.085194506
112	0xbdaf637f	-0.08563899
113	0x3d465076	0.048416577
114	0x3d484ff1	0.048904363
115	0xbd923be8	-0.071403325
116	0x3da0650b	0.078317724
117	0xbd92c4f7	-0.07166474
118	0xbe055273	-0.13019733
119	0x3c4fabc5	0.01267523
120	0x3ccd0681	0.025027515
121	0x3d780ae1	0.06055725
122	0x3edd4af9	0.43221262
123	0x3b8c3c0a	0.004279618
124	0xbda78374	-0.081793696
125	0xbd224483	-0.03961612
126	0xbceb7f80	-0.02874732
127	0x3d37e5d6	0.044896923
128	0xbe044487	-0.12916766
129	0x3d671ed4	0.056425884
130	0xbdcb02c1	-0.09912635
131	0xbda89dfe	-0.082332596
132	0xbdb182f7	-0.08667558
133	0xbd8be3d7	-0.068305664
134	0x3daf1758	0.08549374
135	0x3cc60535	0.024172405
136	0xbd025eb6	-0.031828605
137	0xbddb88d8	-0.1071946
138	0xbd5bed0e	-0.05369287
139	0xbda381a6	-0.07983713
140	0xbd635a9f	-0.055506345
141	0xbdfea74c	-0.12434253
142	0xbe743dea	-0.23851743
143	0xbde77d20	-0.113031626
144	0x3ce2ccae	0.02768549
145	0xbe1d4934	-0.15359956
146	0xbd91ad29	-0.07113106
147	0xbcb14227	-0.02163799
148	0x3d429c8f	0.047512587
149	0xbdc68c33	-0.0969471
150	0xba370cbc	-0.00069827936
151	0x3d2217b6	0.039573394
152	0xbd4a4497	-0.04938182
153	0xbc2906fd	-0.010316608
154	0xbe21ef03	-0.15813832
155	0x3e3dea69	0.18546452
156	0xbca2d483	-0.019876724
157	0xbd7b099e	-0.06128847
158	0x3da29b37	0.07939761
159	0xbe8c511c	-0.27405632
160	0xbd8c2ea5	-0.06844834
161	0x3d11f01d	0.03562938
162	0xbd3a01d5	-0.045411903
163	0xbea29534	-0.31754458
164	0xbdf3c038	-0.11901897
165	0xbdd0a437	-0.101875715
166	0x3d07d32e	0.03316038
167	0xbbce67a3	-0.0062989756
168	0xbdf23bbb	-0.11827799
169	0xbd258b06	-0.040415786
170	0x3e4647b0	0.19363284
171	0x3bdd7199	0.0067579267
172	0x3d209bf2	0.03921122
173	0xbc96f875	-0.01842902
174	0xbe18c771	-0.14919831
175	0x3e198fae	0.14996216
176	0x3d45eba1	0.048320416
177	0xbe079128	-0.13238966
178	0x3d65510a	0.055985488
179	0x3de3d53e	0.11124657
180	0xbdddc383	-0.108283065
181	0xbc370cc9	-0.011172482
182	0xbbc4adbb	-0.0060021556
183	0x3d057f3b	0.03259204
184	0x3e0c69b0	0.13712192
185	0xbe494c31	-0.19657971
186	0xbe0bdcc9	-0.13658442
187	0xbd89c96a	-0.0672787
188	0xbd81a8ec	-0.063310474
189	0x3dbf4351	0.093390115
190	0xbd823f3b	-0.063597165
191	0xbe78c329	-0.24293198
192	0xbcf863fc	-0.030321114
193	0xbd984ced	-0.074365474
194	0x3e1fa241	0.15589239
195	0x3bcb5082	0.0062046656
196	0x3e01b0b6	0.12665066
197	0xbe389a37	-0.18027578
198	0x3e12c73e	0.14333817
199	0x3e2c4fa7	0.1682726
200	0x3daa8b96	0.08327405
201	0x3e19b909	0.15011992
202	0xbdaf7341	-0.08566905
203	0xbbed4639	-0.007241037
204	0xbd85829f	-0.065190546
205	0x3df452e4	0.11929873
206	0x3ce54cdb	0.02799075
207	0xbe248c41	-0.16069128
208	0xbe0a13c5	-0.13484104
209	0xbdce3043	-0.10067799
210	0x3da5ecf1	0.081018336
211	0xbdd5c7c8	-0.10438496
212	0xbcbaeffe	-0.022819515
213	0x3dc60d68	0.09670526
214	0xbe1e5882	-0.1546345
215	0x3e323d0a	0.17406097
216	0xbd8f771f	-0.070051424
217	0x3dbc6e09	0.09200675
218	0xbe19108f	-0.14947723
219	0x3da00ca5	0.07814912
220	0x3e156c88	0.14592183
221	0xbd5271ec	-0.051378176
222	0xbe07f08f	-0.1327536
223	0xbc56b28a	-0.0131040905
224	0x3e001584	0.12508208
225	0xbd3e306f	-0.04643291
226	0x3d24fd24	0.040280476
227	0xbd296833	-0.041359138
228	0x3dcdc88b	0.10048016
229	0x3d448d41	0.047986273
230	0xbe0019dd	-0.12509866
231	0xbe229cbd	-0.15880103
232	0xbda00de6	-0.07815151
233	0x3da6f41c	0.08152029
234	0xbe08267c	-0.1329593
235	0xbe070a65	-0.13187559
236	0xbe266a12	-0.162514
237	0xbe21d31a	-0.15803185
238	0xbe36a528	-0.1783644
239	0xbdec2f3c	-0.11532447
240	0x3d06b47a	0.03288696
241	0x3d8366b7	0.06416076
242	0xbcc5d759	-0.024150537
243	0xbe0892df	-0.13337277
244	0xbe81e2be	-0.25368303
245	0xbda345bf	-0.079722874
246	0x3d2847d9	0.041084144
247	0x3e23b601	0.15987398
248	0xbdf87c99	-0.1213314
249	0xba08fa90	-0.0005225325
250	0x3d0ffb69	0.035151873
251	0x3e1def3c	0.15423292
252	0xbdc42996	-0.095782444
253	0xbdd578e8	-0.10423452
254	0x3dceabe0	0.10091376
255	0x3dd9f3b9	0.106421895
