notebook/model/lstm_12_step_Ua.onnx (onnx, 812397 bytes, 9 tensors)

fc1.weight f4 [16, 128]
-0.08362249 -0.062676616 0.06518942 0.043173805 0.04179757 -0.05511746 -0.023021095 0.01177374
0.08543394 -0.0057945 0.033479325 -0.0060024876 -0.11259762 0.020401487 -0.001906512 -0.034296606
0.0463764 0.036899846 -0.025209585 -0.0016632087 0.048437756 0.07751279 -0.049151514 -0.033139493
0.06846419 -0.027896997 -0.022418382 -0.06185275 0.047778063 -0.040438596 0.11730499 -0.010888186
0.016563473 0.09017361 0.05039337 0.09286336 -0.025514169 0.026297389 -0.06374665 -0.021544868
-0.0461187 -0.008565559 0.03654406 -0.04517654 -0.0007074462 0.08147768 -0.020934556 -0.041652415
-0.012043139 0.029388582 0.0631086 -0.03636698 -0.057903584 0.00999403 -0.026723847 0.014314828
-0.04456687 -0.013314484 0.026418682 0.06893692 -0.004832945 0.010699244 -0.07882688 -0.0048919646
-0.02287367 -0.0060317563 0.022027697 -0.0703314 -0.0188425 -0.08747856 0.018995 -0.01600364
-0.06681451 0.03430084 0.09021215 0.05130432 -0.07150531 0.07969096 -0.070967615 0.0047307513
-0.043211747 -0.10058063 -0.06250249 0.044854116 -0.068301514 0.046166003 0.07360816 -0.0074522085
0.083695106 -0.025456363 -0.03448376 0.027814632 -0.04366192 -0.027571622 -0.03267669 -0.04249446
-0.08164196 0.065231934 -0.04532119 0.003120045 -0.022602983 -0.010342993 0.0030237378 -0.07289304
0.07019583 -0.027517471 0.078744166 0.055299617 -0.028466506 -0.027672924 -0.009131783 -0.03507953
0.014693754 0.0038001745 -0.03706717 0.03730862 0.0049061542 -0.055207815 -0.040513523 -0.0655648
0.06434006 -0.030445527 0.0869142 -0.029104946 0.06004943 -0.1021895 0.061871417 0.048122752
-0.06827944 -0.028709143 0.10924629 0.009219817 -0.057912365 -0.03994258 -0.014313596 0.04027301
0.085988656 -0.013574079 0.063794956 0.0275049 -0.07148857 -0.042456087 -0.04226865 -0.08259713
-0.017480033 0.04990671 -0.0369534 0.042183466 -0.03439895 0.003427513 0.049708396 -0.03786955
0.06042324 -0.039375883 -0.015358429 0.024980057 -0.06752907 0.095572025 -0.07348445 0.0037917662
0.08691795 -0.10691494 0.00996558 0.06327973 -0.07207768 0.03196805 0.016776212 -0.089746185
0.06389076 0.078109734 -0.090438105 0.031002231 -0.05578706 0.029811434 0.00034214783 0.08161912
0.05381022 -0.04360447 0.06926413 -0.053658023 -0.0832069 0.061729927 0.039499868 -0.009566145
0.0040300135 0.061972532 0.032606207 0.057907965 0.0096268635 0.033366013 0.089479774 0.079619616
-0.06445033 0.0837465 -0.046363007 -0.035595626 -0.039551802 -0.08431709 -0.010350647 0.002590713
-0.09066347 0.09796077 -0.052067168 -0.07205691 -0.03864175 -0.071951956 0.0166796 0.07904158
-0.053399142 0.0794223 0.064634986 -0.04930706 -0.035505235 -0.05492009 -0.080247514 0.009605593
0.030068776 0.008164419 0.06699493 -0.009969018 0.04321706 -0.015617388 0.049904678 0.044085793
0.04023516 0.0063347216 0.034633182 0.027736114 -0.035741847 -0.035376787 -0.024800552 0.063145824
-0.051634263 -0.052194342 0.07276092 -0.026575148 0.04280216 -0.0052302526 0.06627407 0.08026531
-0.06024167 0.06728673 -0.031914506 0.03474484 0.008436701 -0.026744356 -0.0533589 -0.047599353
-0.013867982 0.031352658 -0.021026924 -0.020915223 0.0030807734 0.0135902865 -0.049165305 0.03338203
00000000: 4542 abbd 995c 80bd 0882 853d 04d7 303d
00000010: ee33 2b3d d9c2 61bd bc96 bcbc a5e6 403c
00000020: fdf7 ae3d cadf bdbb 9e21 093d 84b0 c4bb
00000030: 9599 e6bd 0521 a73c ede3 f9ba 997a 0cbd
00000040: 2ef5 3d3d 4b24 173d 5584 cebc 0600 daba
00000050: ab66 463d 07bf 9e3d 1953 49bd 47bd 07bd
00000060: f436 8c3d 3e88 e4bc c1a6 b7bc 4f59 7dbd
00000070: eeb2 433d f1a2 25bd 993d f03d 5d64 32bc
00000080: 1fb0 873c f1ac b83d 4769 4e3d 252f be3d
00000090: 1703 d1bc 9f6d d73c 9b8d 82bd dd7e b0bc
000000a0: f6e6 3cbd 8f56 0cbc 39af 153d 090b 39bd
000000b0: e973 39ba c5dd a63d f27e abbc b99b 2abd
000000c0: 9650 45bc 53c0 f03c 153f 813d 8bf5 14bd
000000d0: 4f2c 6dbd 00be 233c f8eb dabc be88 6a3c
000000e0: c08b 36bd fe24 5abc fe6b d83c cd2e 8d3d
000000f0: ae5d 9ebb e24b 2f3c fd6f a1bd c64c a0bb
00000100: 9061 bbbc 0aa6 c5bb 6e73 b43c e909 90bd
00000110: 965b 9abc f627 b3bd 679b 9b3c 111a 83bc
00000120: 0cd6 88bd 0a7f 0c3d 26c1 b83d 7b24 523d
00000130: 6071 92bd 0435 a33d 7857 91bd 6b04 9b3b
00000140: cdfe 30bd 38fd cdbd 4e01 80bd f3b8 373d
00000150: aae1 8bbd 9018 3d3d e0bf 963d a831 f4bb
00000160: 5768 ab3d dd89 d0bc d83e 0dbd 83db e33c
00000170: d7d6 32bd e2dd e1bc fed7 05bd ac0e 2ebd
00000180: e633 a7bd 5298 853d b6a2 39bd ab79 4c3b
00000190: e429 b9bc a875 29bc e729 463b f248 95bd
000001a0: d5c2 8f3d 526c e1bc 9f44 a13d da81 623d
000001b0: 9732 e9bc 54b2 e2bc 799d 15bc 8eaf 0fbd
000001c0: 12be 703c 590c 793b bfd3 17bd ecd0 183d
000001d0: cec3 a03b 9721 62bd 82f1 25bd d646 86bd
000001e0: b9c4 833d e668 f9bc 1200 b23d 7f6d eebc
000001f0: 64f6 753d bb48 d1bd e26c 7d3d 5d1c 453d
00000200: 17d6 8bbd 702f ebbc 85bc df3d b70e 173c
00000210: 8435 6dbd d59a 23bd 9383 6abc 50f5 243d
00000220: d21a b03d d065 5ebc eea6 823d f551 e13c
00000230: 9968 92bd 6fe6 2dbd e421 2dbd af28 a9bd
00000240: 4932 8fbc fa6a 4c3d 735c 17bd 92c8 2c3d
00000250: eae5 0cbd 20a0 603b 089b 4b3d 1a1d 1bbd
00000260: 5c7e 773d 9b48 21bd eca1 7bbc faa2 cc3c
00000270: ae4c 8abd 44bb c33d 047f 96bd 487f 783b
00000280: 0a02 b23d 38f6 dabd ac46 233c ce98 813d
00000290: 769d 93bd eef0 023d 446e 893c d9cc b7bd
000002a0: 29d9 823d fff7 9f3d 9d37 b9bd 64f8 fd3c
000002b0: f980 64bd 1c37 f43c 4e62 b339 ed27 a73d
000002c0: 1b68 5c3d 9a9a 32bd 5ada 8d3d 84c8 5bbd
000002d0: 6168 aabd 85d8 7c3d 9dca 213d 52bb 1cbc
000002e0: 340e 843b e9d6 7d3d 168e 053d e730 6d3d
000002f0: feb9 1d3c cdaa 083d 2c41 b73d 9c0f a33d
00000300: 89fe 83bd 4983 ab3d 23e7 3dbd b8cc 11bd
00000310: 1201 22bd 70ae acbd c395 29bc f4c8 293b
00000320: c5ad b9bd a89f c83d 6244 55bd 9392 93bd
00000330: d046 1ebd 8c5b 93bd a8a3 883c 8de0 a13d
00000340: 0fb9 5abd 29a8 a23d 595f 843d 33f6 49bd
00000350: f06d 11bd e3f3 60bd cf58 a4bd c760 1d3c
00000360: cb52 f63c 0ec4 053c a334 893d 1855 23bc
00000370: 5f04 313d 13e0 7fbc d968 4c3d 4e93 343d
00000380: a0cd 243d 7f93 cf3b 86db 0d3d d936 e33c
00000390: 0b66 12bd 40e7 10bd 872a cbbc 9952 813d
000003a0: 737e 53bd bcc9 55bd ad03 953d 20b4 d9bc
000003b0: 5151 2f3d 8a62 abbb b3ba 873d 2462 a43d
000003c0: f8bf 76bd a0cd 893d c9b8 02bd 9b50 0e3d
000003d0: 173a 0a3c fb16 dbbc dd8e 5abd 8af7 42bd
000003e0: 8836 63bc a56b 003d a840 acbc 6756 abbc
000003f0: cde6 493b cba9 5e3c 8f61 49bd 98bb 083d

fc1.bias f4 [16]
0.39367095 -0.25453272 -0.32824105 0.09639167 -0.1588391 -0.34624884 0.2420568 0.31222618
0.10877003 0.28475952 -0.20504184 -0.31044698 -0.2650981 0.33647084 -0.27325583 0.30155566
00000000: 3d8f c93e 1d52 82be 360f a8be ff68 c53d
00000010: b8a6 22be 8747 b1be bddd 773e 1cdc 9f3e
00000020: d2c2 de3d 00cc 913e 7df6 51be e8f2 9ebe
00000030: f0ba 87be e845 ac3e 30e8 8bbe 8165 9a3e

fc2.weight f4 [1, 16]
0.16819057 -0.22455283 -0.31275904 0.044084623 -0.06827991 -0.23324826 0.1770519 0.13337173
0.067957275 0.26279414 -0.18929006 -0.30730113 -0.15711266 0.3287633 -0.18276139 0.13793741
00000000: 263a 2c3e 2df1 65be f421 a0be 1492 343d
00000010: 56d6 8bbd a2d8 6ebe 184d 353e 9992 083e
00000020: 2f2d 8b3d f48c 863e 41d5 41be 9356 9dbe
00000030: 24e2 20be aa53 a83e cd25 3bbe 773f 0d3e

onnx::LSTM_226 f4 [1, 512, 1]
-0.0014765887 -0.080971554 0.23744233 0.33572865 0.12008759 0.38341153 -0.9120749 -0.54667974
0.1948575 -0.33930627 0.23589696 0.10702733 0.41516045 0.20306782 0.038052797 -0.17797452
0.2927546 0.07679901 -0.16327251 0.15665111 0.4092905 0.12531821 0.39825043 0.12852445
0.089750625 0.40154177 -0.026483791 0.23900881 -0.46635327 -0.19065452 0.1542089 0.046004348
0.22366177 -0.13817021 -0.14401828 0.1638635 0.13246071 0.18140769 0.2860832 0.451569
0.3044639 0.24151072 0.2030521 0.08480257 0.20685413 0.22304568 0.2484931 0.24266042
0.19370511 0.30249292 0.2983969 0.37704986 0.1645058 -0.040819157 0.14964975 0.0673846
0.26554364 -0.0120966025 0.0039387764 0.21995641 0.2453094 0.08265888 0.08887584 0.263682
0.043130897 0.25324854 -0.012853538 -0.017643737 -0.10492346 -0.3754226 -0.21699284 0.13144045
0.26469183 -0.20771684 0.06063241 0.07999688 -0.02651125 0.22829486 0.13269909 0.26064903
0.14118965 0.18522613 -0.2572479 0.08615869 0.186887 0.1139663 -0.39201984 -0.04077494
0.19165327 -0.07178302 0.34285557 -0.10984559 0.028082611 0.26346743 0.07700925 0.18463886
0.17997962 0.047294915 0.23206352 -0.93270326 0.2518802 0.24157798 -0.14927492 0.1559978
0.012603276 0.32553482 -0.71548426 0.305251 0.1721191 0.311124 0.05805268 -0.11628605
0.1408768 0.19550517 0.0058223405 0.22063382 -0.037673347 0.3136423 0.13203418 0.022554861
0.36636984 0.18281154 0.16906625 0.31960288 0.22739193 -0.0659048 0.30786106 0.10939166
-0.040067676 -0.025813645 0.15541923 0.3474352 0.26223943 0.478163 -0.64825594 -0.1314857
0.26007077 -0.3961828 0.26821274 0.035160184 0.21157107 0.11628004 0.26889315 0.07918741
0.32632884 0.2069386 0.04351976 0.03454433 0.39025244 0.25454614 0.3271984 0.23356183
0.21864885 0.21160923 0.0027380998 0.23867464 -0.5931071 0.16153543 0.37692198 0.2941614
0.34530732 -0.12778486 -0.5588951 0.22325362 0.062099498 0.26843894 0.1391997 0.17573108
0.06174134 0.32313156 0.18691492 0.18832085 0.081656106 0.053020973 0.1513869 0.2784837
0.12978157 0.14776458 0.22261511 0.15533957 0.12440205 0.08129027 0.32275948 0.25312138
0.43819684 0.45629343 0.00786436 0.1437225 -0.048850518 0.13328677 0.32038012 0.19626124
0.17513041 0.27497253 0.07330979 0.089216426 -0.13402276 -0.25677577 -0.1854057 0.111021146
0.20330963 0.00025255774 0.067443125 0.20955372 0.10711676 -0.0016285529 0.14563634 0.3537965
0.19262491 0.14782079 -0.031832106 0.25189453 0.15265882 0.34948087 -0.24625662 0.2044213
0.004299186 -0.04736381 0.35657665 0.020150721 0.10060964 0.4208134 0.17726776 0.4601157
0.12592074 -0.030590529 0.27438468 -0.9098297 0.15419641 0.15277822 -0.6269283 0.19993827
0.18346375 0.3340167 0.07105259 0.32077014 0.13577305 0.29537153 0.22530752 -0.053526625
0.21063527 0.14356749 0.00248996 0.2648915 0.09553683 0.18498112 0.033453327 0.08455631
0.13478628 0.14346501 0.26269087 0.14409456 0.22148316 -0.01949976 0.37086654 0.2373792
00000000: 188a c1ba 6ad4 a5bd 1524 733e a0e4 ab3e
00000010: 7bf0 f53d 844e c43e be7d 69bf 34f3 0bbf
00000020: b988 473e 8db9 adbe f98e 713e 2531 db3d
00000030: e98f d43e 03f1 4f3e 40dd 1b3d f43e 36be
00000040: eee3 953e cd48 9d3d e930 27be 2669 203e
00000050: 868e d13e 6b53 003e 7be7 cb3e ea9b 033e
00000060: 2dcf b73d e296 cd3e 89f4 d8bc babe 743e
00000070: dbc5 eebe f03a 43be f0e8 1d3e 0e6f 3c3d
00000080: 9707 653e 7e7c 0dbe 8779 13be d5cb 273e
00000090: c8a3 073e f0c2 393e 7f79 923e 0d34 e73e
000000a0: b1e2 9b3e 964e 773e e4ec 4f3e f8ac ad3d
000000b0: 92d1 533e 1666 643e fa74 7e3e f97b 783e
000000c0: a25a 463e 5ae0 9a3e 7ac7 983e ae0c c13e
000000d0: 3574 283e fd31 27bd c93d 193e f000 8a3d
000000e0: 56f5 873e d430 46bc da10 813b 413c 613e
000000f0: 6332 7b3e 0f49 a93d 8904 b63d 5401 873e
00000100: 06aa 303d cba9 813e a597 52bc 9989 90bc
00000110: 1ce2 d6bd 6437 c0be 5f33 5ebe 5398 063e
00000120: b085 873e b9b3 54be b159 783d 67d5 a33d
00000130: 1f2e d9bc 21c6 693e 45e2 073e ca73 853e
00000140: 0594 103e ebab 3d3e ffb5 83be f873 b03d
00000150: 4e5f 3f3e 2a67 e93d d3b6 c8be a003 27bd
00000160: c140 443e fa02 93bd c48a af3e baf6 e0bd
00000170: 810d e63c 34e5 863e 07b7 9d3d f811 3d3e
00000180: 944c 383e 50b8 413d 0fa2 6d3e a4c5 6ebf
00000190: 71f6 803e 3860 773e 86db 18be e3bd 1f3e
000001a0: f97d 4e3c 80ac a63e fa29 37bf dc49 9c3e
000001b0: fd3f 303e a54b 9f3e a6c8 6d3d 6127 eebd
000001c0: 0242 103e 8232 483e 55c9 be3b d5ed 613e
000001d0: 5e4f 1abd b995 a03e f833 073e f9c4 b83c
000001e0: d494 bb3e f332 3b3e b41f 2d3e fda2 a33e
000001f0: 6ed9 683e 19f9 86bd f79f 9d3e bc08 e03d
00000200: 011e 24bd 2377 d3bc 3826 1f3e 07e3 b13e
00000210: 3f44 863e c8d1 f43e 1af4 25bf 30a4 06be
00000220: ff27 853e 79d8 cabe 2e53 893e 2004 103d
00000230: 16a6 583e 3b24 ee3d 5dac 893e 022d a23d
00000240: 9314 a73e b6e7 533e c741 323d 5b7e 0d3d
00000250: 2bcf c73e df53 823e 8c86 a73e d52a 6f3e
00000260: 7ce5 5f3e 17b0 583e b171 333b 2067 743e
00000270: ded5 17bf 8b69 253e ebfb c03e 539c 963e
00000280: 1fcc b03e 09da 02be c013 0fbf 999c 643e
00000290: 0b5c 7e3d d470 893e 5e8a 0e3e d9f2 333e
000002a0: 7de4 7c3d 8071 a53e a066 3f3e 2ed7 403e
000002b0: 513b a73d 852c 593d 2b05 1b3e 6a95 8e3e
000002c0: 76e5 043e 994f 173e 37f5 633e 5611 1f3e
000002d0: 81c6 fe3d 837b a63d bb40 a53e 2099 813e
000002e0: 565b e03e 4b9f e93e 84d9 003c fe2b 133e
000002f0: 7b17 48bd 547c 083e dd08 a43e b5f8 483e
00000300: 6355 333e 33c9 8c3e 7123 963d 1ab7 b63d
00000310: 433d 09be 1d78 83be feda 3dbe 0e5f e33d
00000320: 6630 503e ba69 8439 9f1f 8a3d 4095 563e
00000330: 0860 db3d 2b75 d5ba b121 153e d124 b53e
00000340: 773f 453e 555e 173e 6262 02bd 52f8 803e
00000350: 9852 1c3e 28ef b23e b22a 7cbe d153 513e
00000360: 30e0 8c3b 8e00 42bd 3791 b63e 2013 a53c
00000370: 6d0c ce3d db74 d73e ae85 353e 4994 eb3e
00000380: 5ef1 003e fd98 fabc 267c 8c3e 99ea 68bf
00000390: aae5 1d3e e571 1c3e 607e 20bf 9ebc 4c3e
000003a0: ecdd 3b3e 3d04 ab3e 0584 913d fc3b a43e
000003b0: 1708 0b3e f03a 973e 04b7 663e bc3e 5bbd
000003c0: c6b0 573e 5b03 133e 992e 233b dc9f 873e
000003d0: d0a8 c33d b16b 3d3e 5b06 093d dc2b ad3d
000003e0: 6a05 0a3e 7ee8 123e 6b7f 863e 868d 133e
000003f0: 7bcc 623e f6bd 9fbc 38e2 bd3e 8813 733e

onnx::LSTM_227 f4 [1, 512, 128]
0.10834496 -0.20419806 -0.10772844 0.07834258 -0.1634273 0.12919064 0.0765652 0.38394803
0.11592469 0.09887428 0.056318745 0.22881986 -0.01240315 0.071741834 -0.12489046 0.030398253
-0.21490249 0.109385654 0.23887548 0.05450683 0.001685923 -0.048071 -0.13256115 0.08403844
0.08648598 -0.13560274 -0.124596395 0.082221955 -0.18309905 0.21248767 -0.20743397 0.017238362
-0.19518536 0.19238397 0.17666268 -0.09681248 -0.09942193 0.022533495 0.06655747 -0.09620171
0.045270886 -0.054523952 -0.02852349 0.026438026 0.13961853 0.0034231467 -0.013448468 -0.10090364
0.016363844 0.0438795 0.17266566 0.018140327 -0.012865592 0.13570449 0.019577269 0.090288796
0.017557459 -0.17023183 0.17673086 -0.13752322 -0.037888262 -0.013822379 -0.04825764 -0.0240849
-0.152756 0.14983076 0.055893157 -0.094572835 -0.07280649 0.21504886 0.5094141 -0.0065290146
0.032412957 -0.28239927 -0.12989141 0.0311324 -0.26697513 -0.22171518 0.06366647 -0.13214722
0.1480628 0.01256606 -0.07925781 0.007656185 0.00640106 -0.0055400063 0.3473395 0.077372625
0.150716 -0.17681593 0.0491648 0.4182682 0.087229595 0.34025037 -0.07576671 -0.32763356
-0.13402803 -0.16966076 -0.03231848 0.28156087 0.19883633 -0.062947534 -0.18952563 -0.12763314
-0.14399134 -0.026616292 -0.24817991 -0.1135164 -0.10895347 0.082167394 -0.1921435 -0.1927327
0.059061952 0.15271154 -0.08832612 -0.07879953 0.11371941 -0.044110917 -0.14204594 -0.02833389
-0.09188074 0.0994259 -0.15179178 -0.09766383 -0.0074997135 0.04546465 0.0020506082 0.021137517
0.18934678 -0.25355536 -0.24604365 -0.1693932 -0.40108362 -0.14968169 -0.694422 0.50684667
0.2534684 0.7269913 -0.089154795 0.26329318 -0.13061786 -0.21705836 -0.05529007 -0.104514554
0.18596496 -0.36063653 0.36420956 0.5657531 -0.21229166 -0.5324432 0.16058226 0.42612553
0.013443348 -0.23452999 -0.47075832 0.0607298 -0.51451397 0.36697882 0.20768926 -0.28662992
0.26660556 0.21408002 0.5601874 -0.3375192 -0.34757116 0.3902312 -0.37425122 0.5405799
0.1338351 0.41964653 -0.002484933 0.39991206 -0.08903162 -0.30551824 -0.021116894 -0.28720033
-0.32852635 0.2392705 0.39156955 -0.37637413 -0.1451431 0.46804163 -0.37357154 0.1424372
-0.33398443 0.39082164 0.03557812 0.16467416 -0.013555117 0.011559493 0.17819819 0.20634106
-0.06495869 -0.14142767 0.046697523 -0.29021627 0.018685829 -0.009374258 0.39949507 -0.027493577
-0.06498619 -0.30577573 -0.64611435 0.34187818 -0.47267962 0.14320688 -0.116572574 0.3777248
0.13733642 0.068915755 -0.11134841 0.413977 -0.035070438 -0.21531494 0.42415464 0.05376786
0.36707452 -0.38218218 -0.24568786 0.43589118 0.052397612 -0.11387939 -0.30447975 0.049441528
-0.2125541 -0.6917307 -0.32211733 -0.40463597 -0.31335008 0.060719673 -0.6129649 0.23048523
-0.2874438 0.51384085 -0.45284343 0.047850918 -0.46499276 -0.5123169 0.19920729 0.2110579
-0.15235321 0.21934494 -0.15326872 -0.16391857 -0.11643563 -0.3784415 0.06009976 -0.25731558
-0.31126466 -0.09476552 -0.004652454 -0.4156697 0.059902553 0.028104188 0.3967705 -0.019899508
00000000: f6e3 dd3d 4c19 51be baa0 dcbd 1372 a03d
00000010: 7c59 27be 8d4a 043e 37ce 9c3d d694 c43e
00000020: ed69 ed3d 997e ca3d 7cae 663d c14f 6a3e
00000030: 9536 4bbc 62ed 923d 92c6 ffbd c205 f93c
00000040: 660f 5cbe 9605 e03d c69b 743e 8e42 5f3d
00000050: 30fa dc3a 19e6 44bd 1cbe 07be 581c ac3d
00000060: 901f b13d 72db 0abe 652c ffbd fc63 a83d
00000070: 517e 3bbe 5e96 593e 9269 54be 7737 8d3c
00000080: acde 47be 4e00 453e 10e7 343e 9f45 c6bd
00000090: ba9d cbbd 2a98 b83c 484f 883d 6705 c5bd
000000a0: f76d 393d 8254 5fbd 18aa e9bc 8f94 d83c
000000b0: 29f8 0e3e df56 603b f756 5cbc 91a6 cebd
000000c0: 780d 863c feba 333d 44cf 303e 069b 943c
000000d0: 34ca 52bc 1ef6 0a3e 8260 a03c 55e9 b83d
000000e0: a9d4 8f3c 4151 2ebe eff8 343e e3d2 0cbe
000000f0: b930 1bbd 4277 62bc cea9 45bd b24d c5bc
00000100: 126c 1cbe 3c6d 193e 39f0 643d 67af c1bd
00000110: 921b 95bd c535 5c3e f668 023f 58f1 d5bb
00000120: 73c3 043d a396 90be 4102 05be 6009 ff3c
00000130: f7b0 88be 4e09 63be 9163 823d 9a51 07be
00000140: c69d 173e e0e1 4d3c eb51 a2bd bce0 fa3b
00000150: fcbf d13b f188 b5bb 7cd6 b13e 8a75 9e3d
00000160: 4c55 1a3e 3c0f 35be 0861 493d 4027 d63e
00000170: 6ea5 b23d 4c35 ae3e 942b 9bbd 96bf a7be
00000180: a53e 09be 8dbb 2dbe 6260 04bd bf28 903e
00000190: c09b 4b3e a3ea 80bd 0213 42be 43b2 02be
000001a0: 7772 13be 690a dabc e022 7ebe 497b e8bd
000001b0: ff22 dfbd 6147 a83d 44c1 44be b95b 45be
000001c0: f2ea 713d 6a60 1c3e 53e4 b4bd a661 a1bd
000001d0: b9e5 e83d a6ad 34bd 7e74 11be 791c e8bc
000001e0: f82b bcbd ce9f cb3d 4e6f 1bbe f903 c8bd
000001f0: 28c0 f5bb 2439 3a3d 7f63 063b 9628 ad3c
00000200: 1fe4 413e 02d2 81be def2 7bbe 6975 2dbe
00000210: d55a cdbe 2846 19be a4c5 31bf b4c0 013f
00000220: 9cc6 813e 1a1c 3a3f ca96 b6bd 5dce 863e
00000230: b0c0 05be 8c44 5ebe d777 62bd ba0b d6bd
00000240: 996d 3e3e 5aa5 b8be ad79 ba3e 32d5 103f
00000250: fc62 59be 334e 08bf ad6f 243e 202d da3e
00000260: 7d41 5c3c a128 70be 3c07 f1be d0bf 783d
00000270: 30b7 03bf a6e4 bb3e 7eac 543e 28c1 92be
00000280: 8680 883e cb37 5b3e 7168 0f3f 51cf acbe
00000290: d9f4 b1be 62cc c73e db9d bfbe 7263 0a3f
000002a0: 120c 093e e9db d63e 42da 22bb 46c1 cc3e
000002b0: 3656 b6bd e36c 9cbe 56fd acbc ec0b 93be
000002c0: 9b34 a8be 5303 753e ce7b c83e 1cb4 c0be
000002d0: 65a0 14be 27a3 ef3e c544 bfbe 0fdb 113e
000002e0: 0200 abbe c619 c83e 5dba 113d 58a0 283e
000002f0: 4816 5ebc 0764 3d3c 9679 363e 124b 533e
00000300: 1009 85bd 6ad2 10be e745 3f3d 3a97 94be
00000310: 0613 993c 7d96 19bc 9e8a cc3e 363a e1bc
00000320: 7b17 85bd a38e 9cbe c067 25bf a80a af3e
00000330: 1003 f2be d3a4 123e 9abd eebd 2565 c13e
00000340: eba1 0c3e b423 8d3d a30a e4bd cbf4 d33e
00000350: 05a6 0fbd 857b 5cbe cc2a d93e b03b 5c3d
00000360: 31f1 bb3e 62ad c3be 9995 7bbe 212d df3e
00000370: e19e 563d 9939 e9bd c5e4 9bbe 3383 4a3d
00000380: c8a7 59be 4315 31bf 90ec a4be 722c cfbe
00000390: 6c6f a0be 31b5 783d 45eb 1cbf 5204 6c3e
000003a0: d52b 93be 138b 033f 18db e7be 53ff 433d
000003b0: 8813 eebe 3327 03bf fffc 4b3e 901f 583e
000003c0: 7b02 1cbe f69b 603e 7af2 1cbe 45da 27be
000003d0: ce75 eebd 16c3 c1be 2a2b 763d debe 83be
000003e0: 155e 9fbe 6d14 c2bd 9d73 98bb a9d2 d4be
000003f0: 615c 753d c13a e63c 8125 cb3e 4b04 a3bc

onnx::LSTM_228 f4 [1, 1024]
-0.2078639 -0.105992325 -0.17015718 0.18193415 0.088493004 0.24378721 -0.18856353 -0.020454438
-0.17311575 0.0732029 -0.002420207 -0.04215825 0.12576312 -0.32117093 -0.17873423 -0.049691968
0.008937856 0.074433796 -0.083419405 0.2846458 -0.039139625 0.27584717 0.21907806 0.11378423
-0.05294536 0.16188091 -0.08851251 -0.23416643 -0.047632303 0.025575088 0.26482368 0.13025148
0.2018943 -0.25890628 -0.079767056 -0.19518298 -0.0905337 0.10793509 0.21323864 0.41690326
-0.1438642 0.24762042 -0.13846242 -0.037715096 -0.18021716 -0.0529692 -0.3198251 0.0027913458
0.0027092618 -0.4296139 -0.258456 0.09583538 -0.2508557 -0.084602 0.2971451 0.027382517
-0.0029989223 0.2026747 -0.3018835 -0.14361171 -0.31063423 -0.21604583 0.17058308 -0.045932658
-0.2552311 0.085545965 -0.089292444 -0.10344088 -0.34376934 -0.26802665 0.07025091 -0.14722262
-0.04256416 -0.23922366 -0.07424825 0.19049145 -0.102906354 0.30249822 0.21519566 0.30036968
-0.14189993 -0.13771929 -0.3061702 0.34563297 -0.23289569 0.22237174 -0.17263958 -0.1528528
0.09159854 -0.07704332 0.12093117 0.029641068 -0.49485815 0.28864208 0.116696626 0.17680663
-0.07023512 0.2681704 0.19568002 0.048873413 0.12546441 -0.33144364 -0.11935375 0.026075354
0.12692754 0.060554057 -0.082779296 0.025334617 -0.10666995 0.24646653 0.052900214 0.108860224
0.07386373 -0.1697565 -0.18172558 0.05006302 -0.12050395 0.3112349 -0.51401013 0.036640562
-0.10091098 -0.120572254 -0.028775534 0.37159023 -0.16493551 -0.07543675 0.3701257 -0.18211713
-0.25955284 0.037068054 -0.24145475 0.25411952 0.18326186 0.22064333 -0.13242437 -0.055465464
-0.07831786 0.08626725 0.024368342 -0.059438057 0.07333192 -0.16695005 -0.07332992 -0.158792
0.007585042 -0.0937313 0.046333387 0.14187507 0.04116375 0.19586447 0.12732328 0.19567412
-0.09548241 0.19810617 -0.091127284 -0.12737043 -0.03387931 0.0004902507 0.24038717 0.09049931
0.3159708 -0.24287984 -0.24435453 -0.18790522 0.02793095 0.06604939 0.296812 0.4574707
-0.11749742 0.14830036 -0.098576106 -0.022692949 0.015549079 -0.07602185 -0.23195662 0.005474539
-0.070216395 -0.32919204 -0.15140337 0.13544732 -0.2678714 -0.10915283 0.29862285 -0.04348647
-0.011607301 0.118920855 -0.297827 -0.0921883 -0.31052524 -0.1079014 0.2626848 -0.009021621
-0.14608565 0.0744215 -0.13483047 0.017785229 -0.4133155 -0.2593444 0.35080954 -0.13701151
-0.0551357 -0.02827365 -0.11436663 0.22840196 -0.08286419 0.19308266 0.12912662 0.27056345
-0.14408498 -0.120758854 -0.29188144 0.29189816 -0.13425091 0.09883727 0.039468657 -0.11967208
0.21345502 0.1009414 0.16518748 0.07777677 -0.5021079 0.36172616 0.1786999 0.16823931
-0.07179539 0.2656879 0.2005557 0.038091484 0.19668745 -0.3208118 -0.24552521 -0.09611835
0.07369266 0.15070717 0.006049581 0.02345445 0.008255558 0.23533785 0.002365898 0.29767594
0.05358037 -0.31207526 -0.26377967 -0.112308085 -0.16368216 0.2506405 -0.45764917 0.025352644
-0.09570206 -0.10086995 -0.16363904 0.23822513 -0.1701539 -0.13135831 0.36891064 -0.13869852
00000000: 46da 54be 8112 d9bd af3d 2ebe f24c 3a3e
00000010: d23b b53d 5ba3 793e cc16 41be 1190 a7bc
00000020: 4145 31be 67eb 953d 569c 1ebb 21ae 2cbd
00000030: 0cc8 003e 8470 a4be 1b06 37be ce89 4bbd
00000040: 1670 123c bf70 983d cbd7 aabd 18bd 913e
00000050: df50 20bd d73b 8d3e 0056 603e b507 e93d
00000060: 3cdd 58bd 1cc4 253e 0c46 b5bd 53c9 6fbe
00000070: 171a 43bd d982 d13c f896 873e a560 053e
00000080: 61bd 4e3e 5d8f 84be e95c a3bd 0cde 47be
00000090: bc69 b9bd 130d dd3d 3b5b 5a3e 5874 d53e
000000a0: 2351 13be 3590 7d3e 18c9 0dbe 257b 1abd
000000b0: d98a 38be 3bf6 58bd 1ec0 a3be 03ef 363b
000000c0: df8d 313b 5af6 dbbe 5854 84be 5745 c43d
000000d0: 2970 80be d043 adbd 6723 983e 4d51 e03c
000000e0: 9189 44bb f589 4f3e 7990 9abe f30e 13be
000000f0: 730b 9fbe 1e3b 5dbe 55ad 2e3e e223 3cbd
00000100: a7ad 82be b932 af3d f5de b6bd d0d8 d3bd
00000110: 8902 b0be ca3a 89be b6df 8f3d 87c1 16be
00000120: c257 2ebd 0cf7 74be 770f 98bd 3110 433e
00000130: 91c0 d2bd 0ce1 9a3e 405c 5c3e 0eca 993e
00000140: 374e 11be 4906 0dbe 57c2 9cbe cef6 b03e
00000150: 357c 6ebe 6bb5 633e 6ec8 30be 7285 1cbe
00000160: 0498 bb3d e3c8 9dbd c3aa f73d d3d1 f23c
00000170: 0c5e fdbe e5c8 933e a4fe ee3d cc0c 353e
00000180: 6ed7 8fbd a14d 893e 5860 483e 7d2f 483d
00000190: be79 003e fbb2 a9be bd6f f4bd fb9b d53c
000001a0: 4bf9 013e 8807 783d 3188 a9bd 8b8a cf3c
000001b0: c675 dabd b961 7c3e e5ad 583d 1cf2 de3d
000001c0: de45 973d a6d4 2dbe 4516 3abe e20e 4d3d
000001d0: c6ca f6bd 2e5a 9f3e 2b96 03bf 6a14 163d
000001e0: 6aaa cebd 96ee f6bd abba ebbc 1341 be3e
000001f0: dbe4 28be 957e 9abd 1e81 bd3e ea7c 3abe
00000200: 1ce4 84be acd4 173d ea3f 77be f41b 823e
00000210: ffa8 3b3e 53f0 613e 419a 07be c12f 63bd
00000220: 1d65 a0bd e2ac b03d 1ea0 c73c 5275 73bd
00000230: 0c2f 963d f4f4 2abe ff2d 96bd 5f9a 22be
00000240: f28b f83b 32f6 bfbd 14c8 3d3d b347 113e
00000250: 529b 283d b290 483e 0961 023e cc5e 483e
00000260: 488c c3bd 58dc 4a3e f1a0 babd 656d 02be
00000270: 08c5 0abd 2b84 003a 0e28 763e b457 b93d
00000280: edc6 a13e 7eb5 78be 1338 7abe 3a6a 40be
00000290: 73cf e43c e744 873d bef7 973e 9939 ea3e
000002a0: 7da2 f0bd 0ddc 173e 45e2 c9bd 90e6 b9bc
000002b0: 90c1 7e3c 58b1 9bbd 0986 6dbe c363 b33b
000002c0: 9dcd 8fbd dc8b a8be 7c09 1bbe b4b2 0a3e
000002d0: 7126 89be 858b dfbd 18e5 983e de1e 32bd
000002e0: 8d2c 3ebc c78c f33d c87c 98be 38cd bcbd
000002f0: 2afd 9ebe 69fb dcbd 9f7e 863e 6ccf 13bc
00000300: 7a97 15be 4d6a 983d 0011 0abe 54b2 913c
00000310: 179e d3be cac8 84be 4f9d b33e bf4c 0cbe
00000320: f9d5 61bd 249e e7bc 0d39 eabd 34e2 693e
00000330: b3b4 a9bd 76b7 453e c539 043e 4b87 8a3e
00000340: 038b 13be 6b50 f7bd 7c71 95be ad73 953e
00000350: 1279 09be 326b ca3d e3a9 213d a316 f5bd
00000360: f493 5a3e 5dba ce3d e826 293e 6d49 9f3d
00000370: 258a 00bf 2c34 b93e 1bfd 363e ed46 2c3e
00000380: 7609 93bd 3f08 883e 795e 4d3e d105 1c3d
00000390: 6f68 493e 7241 a4be f66a 7bbe b3d9 c4bd
000003a0: 2dec 963d fb52 1a3e 903b c63b 8c23 c03c
000003b0: 5242 073c 68fc 703e 2f0d 1b3b fb68 983e
000003c0: 1777 5b3d 54c8 9fbe 210e 87be c801 e6bd
000003d0: 4c9c 27be f453 803e fe50 eabe 59b0 cf3c
000003e0: 71ff c3bd e894 cebd fe90 27be 4af1 733e
000003f0: d33c 2ebe cb82 06be dbe1 bc3e fc06 0ebe

onnx::LSTM_250 f4 [1, 512, 128]
0.24351944 -0.11115906 -0.032138083 -0.008903995 -0.15858628 -0.04390846 -0.25470072 0.18375452
0.06933084 0.19137923 0.045114726 0.10811781 -0.16085388 0.16908279 0.15509279 0.14623402
0.08684639 -0.04022084 0.07601009 0.050656203 0.0043779304 -0.22453776 -0.14233527 0.11393595
-0.22327165 0.2287857 -0.06599813 -0.015667092 -0.015788954 0.24370396 -0.02348413 -0.20319596
0.043650288 0.102201276 0.14207985 0.3357152 -0.23528995 0.0006317288 -0.13454683 0.12763652
0.10394304 0.0721891 0.04457679 0.029294154 0.349426 -0.08456699 -0.1294298 -0.007785489
0.17623799 0.13610399 -0.3172731 -0.11185717 -0.078939304 0.060530815 -0.05944421 0.18405505
-0.01825152 0.14689654 0.05426685 -0.18398283 0.36321363 0.1930763 0.048254184 -0.19756725
-0.19195226 -0.15557371 0.11317777 0.28957534 -0.15490101 0.111102104 0.24272183 -0.05615751
-0.014347204 -0.12929465 0.20690548 -0.6548898 -0.019247664 -0.054155238 0.16279487 0.11405052
0.11644631 0.053458326 -0.108735666 0.010001567 0.06726006 -0.104715675 0.08854334 -0.05437024
0.18681821 -0.19518392 -0.13183312 0.10433634 0.18390004 0.022984048 -0.19314823 -0.03571191
-0.08580443 -0.09907463 -0.2618737 -0.18728961 0.22868614 0.15985559 -0.17004266 0.18021613
-0.063114285 -0.3403332 -0.10225167 -0.18812554 0.37999618 -0.08687395 0.050675835 -0.33336967
-0.035721947 0.20055443 -0.13640985 0.0062118126 0.12408332 -0.10029361 -0.27654797 0.102875255
-0.14704701 0.2197511 -0.14644021 -0.04302133 -0.2017581 -0.008260526 0.09081676 0.14626679
0.18545578 -0.34420756 -0.16425568 -0.106487006 -0.17490064 -0.07041279 -0.410428 0.46075672
0.05141054 0.40761563 0.20247255 0.27247214 -0.12103592 0.21158826 0.13109028 0.054271422
0.04377546 -0.020059235 0.14363691 -0.020279093 -0.070124075 -0.0801234 -0.32066634 0.020930402
-0.049216654 0.0033272414 -0.26036906 0.0034054334 -0.031922646 0.19521552 0.026649855 -0.1329962
0.12746055 0.16235673 0.17245129 0.19826117 -0.12660672 0.011955446 -0.08496918 -0.012343158
0.08994487 -0.036862895 0.13247241 0.07999487 0.16427486 -0.100090474 0.0055168397 -0.12281802
0.29356194 -0.025862318 -0.18197452 -0.008292324 -0.10157364 0.14099209 -0.035081286 0.14280081
0.10102993 0.07915847 0.09223134 -0.058672108 0.0064693065 0.035102084 0.018393751 -0.118865356
-0.24473661 -0.08647074 0.11075274 0.17145589 -0.055466633 -0.027974147 0.68794996 -0.10820199
-0.1495298 -0.18782496 0.22445144 -0.3586042 -0.096942894 -0.36732286 0.19390845 0.045512047
0.19328588 0.16100235 -0.17837118 -0.09226684 0.133986 -0.07231936 0.22910082 -0.09141487
0.1934282 -0.38267955 -0.05606055 0.27373624 0.013957377 0.044802956 -0.17110263 -0.14509125
-0.03201639 -0.20757556 -0.12553933 0.100247264 0.3155619 0.10473252 -0.14033936 0.07860763
-0.10475762 -0.21431144 -0.275862 -0.3110812 0.43839747 0.028642094 -0.1505868 -0.2321094
-0.13078475 0.13744366 -0.13934647 -0.3226139 0.09244153 -0.040542215 0.02218573 0.12837902
-0.012681109 0.2634201 -0.21266718 0.06560872 -0.27918622 0.019143384 0.20118102 0.039039697
00000000: 295d 793e 5ca7 e3bd 39a3 03bd 10e2 11bc
00000010: 7164 22be 5bd9 33bd 2268 82be 252a 3c3e
00000020: 54fd 8d3d ebf8 433e 38ca 383d df6c dd3d
00000030: e1b6 24be 0a24 2d3e a5d0 1e3e 5fbe 153e
00000040: 85dc b13d 9cbe 24bd 2eab 9b3d e17c 4f3d
00000050: be74 8f3b 3aed 65be 56c0 11be 4057 e93d
00000060: 53a1 64be cc46 6a3e 072a 87bd 4658 80bc
00000070: d657 81bc 888d 793e ca61 c0bc 9a12 50be
00000080: a5ca 323d e74e d13d 617d 113e dde2 ab3e
00000090: d9ef 70be 9a9a 253a a5c6 09be 26b3 023e
000000a0: 17e0 d43d e1d7 933d 2796 363d 4bfa ef3c
000000b0: f7e7 b23e 7531 adbd 3f89 04be 6a1d ffbb
000000c0: bb77 343e d85e 0b3e 9f71 a2be 5f15 e5bd
000000d0: eeaa a1bd 29ef 773d c67b 73bd ed78 3c3e
000000e0: 3684 95bc 0c6c 163e eb46 5e3d ff65 3cbe
000000f0: 23f7 b93e cbb5 453e 2ea6 453d 124f 4abe
00000100: 228f 44be b74e 1fbe bfc9 e73d 3843 943e
00000110: 5f9e 1ebe 8089 e33d 128c 783e 6b05 66bd
00000120: 8910 6bbc d165 04be 08df 533e dca6 27bf
00000130: 47ad 9dbc e2d1 5dbd b3b3 263e 5293 e93d
00000140: 677b ee3d 1ef7 5a3d ceb0 debd 9ddd 233c
00000150: a4bf 893d 2c75 d6bd 3656 b53d 54b3 5ebd
00000160: 464d 3f3e 4bde 47be 43ff 06be 4bae d53d
00000170: 4b50 3c3e 0b49 bc3c a6c8 45be a746 12bd
00000180: 3cba afbd a4e7 cabd 4f14 86be d9c8 3fbe
00000190: b32c 6a3e 2fb1 233e aa1f 2ebe 948a 383e
000001a0: 1042 81bd 2740 aebe 5369 d1bd fba3 40be
000001b0: dc8e c23e f8ea b1bd 7791 4f3d 6eaf aabe
000001c0: 2d51 12bd 245e 4d3e 06af 0bbe 768c cb3b
000001d0: 651f fe3d bc66 cdbd b297 8dbe 43b0 d23d
000001e0: 7e93 16be 6f06 613e 6cf4 15be 2237 30bd
000001f0: ad99 4ebe 2857 07bc 23fe b93d f6c6 153e
00000200: 1fe8 3d3e f93b b0be a432 28be dc15 dabd
00000210: 2719 33be 9534 90bd 9e23 d2be 4ee8 eb3e
00000220: dc93 523d ffb2 d03e f754 4f3e 7881 8b3e
00000230: aee1 f7bd 98aa 583e 883c 063e b64b 5e3d
00000240: e64d 333d 4453 a4bc 8e15 133e 5720 a6bc
00000250: 369d 8fbd bd17 a4bd 612e a4be 3c76 ab3c
00000260: 6797 49bd d90d 5a3b 184f 85be b12d 5f3b
00000270: 52c1 02bd 94e6 473e cc50 da3c 2830 08be
00000280: 0585 023e d840 263e 1297 303e fa04 4b3e
00000290: 31a5 01be c6e0 433c 5204 aebd f53a 4abc
000002a0: 0435 b83d 8cfd 16bd d9a6 073e 5ad4 a33d
000002b0: ab37 283e 3cfc ccbd 9bc6 b43b 0488 fbbd
000002c0: c04d 963e 36dd d3bc 8757 3abe 87dc 07bc
000002d0: d705 d0bd 3b60 103e 65b1 0fbd 603a 123e
000002e0: c8e8 ce3d d61d a23d c9e3 bc3d 2a52 70bd
000002f0: 7afc d33b 34c7 0f3d 7eae 963c ae6f f3bd
00000300: 3c9c 7abe 9217 b1bd 55d2 e23d 2292 2f3e
00000310: fb30 63bd 0a2a e5bc 7d1d 303f 0199 ddbd
00000320: 571e 19be 3055 40be 99d6 653e f89a b7be
00000330: ff89 c6bd be11 bcbe f08f 463e d76a 3a3d
00000340: bcec 453e cddd 243e efa6 36be 66f6 bcbd
00000350: a033 093e 2c1c 94bd 6899 6a3e b837 bbbd
00000360: 0b12 463e 93ee c3be bf9f 65bd 2827 8c3e
00000370: 7bad 643c 4e83 373d 8735 2fbe cd92 14be
00000380: 9e23 03bd b08e 54be 628d 00be 704e cd3d
00000390: 5491 a13e 017e d63d 1fb5 0fbe 0afd a03d
000003a0: 2a8b d6bd 7574 5bbe c93d 8dbe 0946 9fbe
000003b0: a275 e03e d3a2 ea3c 6d33 1abe 16ae 6dbe
000003c0: 70ec 05be 08be 0c3e d7b0 0ebe a62d a5be
000003d0: fc51 bd3d 980f 26bd d9be b53c ca75 033e
000003e0: 6dc4 4fbc 00df 863e 6dc5 59be dd5d 863d
000003f0: 7ff1 8ebe 96d2 9c3c 6602 4e3e 17e8 1f3d

onnx::LSTM_251 f4 [1, 512, 128]
-0.17419203 -0.037249096 0.17848437 -0.14487511 -0.14269243 -0.083687685 0.13406603 0.025994644
0.0912175 -0.20927987 0.15828131 0.17911395 -0.07435349 0.15150335 -0.010520534 -0.25754142
-0.02692462 -0.16659401 0.21121474 0.08737438 -0.15752926 0.09876329 -0.16979875 0.1710698
0.05836354 -0.29454482 -0.14063492 -0.021483893 -0.17141703 0.17270312 0.10565186 0.094879285
0.10796623 -0.055406675 0.13229422 0.029417912 0.07589407 0.07556452 -0.16413462 -0.1871429
0.14104968 0.05091517 -0.10430223 0.08687281 0.060655206 -0.04973287 0.008672578 0.31596854
0.054076426 -0.12300341 -0.021535736 0.0019931728 -0.2383444 0.010917803 0.10092007 -0.0781242
-0.09507759 0.12042943 0.27477327 0.026394695 0.12698093 -0.05284737 0.20001327 0.05755138
-0.014871266 0.085721396 0.21936819 -0.088937506 -0.18114369 -0.032306254 0.0016524163 -0.120334424
0.028600285 -0.034540895 -0.058229182 -0.036758974 0.050520487 -0.08606899 0.24795313 -0.0018618939
-0.029561238 -0.003267149 0.03556238 -0.07681937 -0.012424206 -0.1715473 -0.0005693945 0.048584454
0.035170346 -0.056458987 -0.062257223 -0.049772732 0.22245085 0.24759972 -0.00847051 0.122978784
0.09003689 -0.04116737 0.13146669 0.053972367 0.022066712 -0.093788184 -0.07321786 0.05849526
0.071610324 0.1697613 0.06280343 -0.16902643 0.010032543 -0.076435365 0.025140382 0.15199955
0.110470325 0.060721807 0.022700071 0.07017797 -0.13506612 -0.1318385 -0.12632683 0.11363429
-0.11404261 0.31411693 -0.04499779 -0.11681657 0.052772 -0.058484696 -0.08746827 -0.008544384
-0.009474166 -0.077207915 0.09874321 -0.011332994 -0.12979743 0.0453424 0.17825288 0.060078233
0.027319286 -0.12215364 0.08265579 0.043185588 -0.05953999 0.095770314 0.03899259 -0.21436748
0.063079946 -0.19799219 0.14253977 -0.014497018 -0.110106476 0.05114252 -0.05951025 0.090242
0.13741122 -0.12102608 -0.14384834 0.07689264 -0.1394261 0.17853826 0.09276399 0.0038956648
-0.04492375 -0.13425028 0.14066501 -0.021906607 -0.02785899 0.124420896 -0.038114015 -0.14731348
0.1355986 0.005889985 -0.003844499 -0.031711847 0.018175669 -0.031468857 -0.012332911 0.1563009
0.10232071 -0.059387404 -0.027297564 0.006615682 -0.08983221 0.08784925 0.079000026 0.029386505
-0.079335384 0.13559711 0.15399964 0.09391378 0.018300632 -0.08491648 0.120390356 0.14643994
-0.11813286 0.08839457 0.0073541244 -0.041910455 -0.035729907 -0.018724512 0.039034203 -0.010133914
-0.1356758 -0.001878944 -0.050516512 -0.102501824 -0.026248965 0.006006544 0.1437689 0.096572965
-0.04399922 -0.03893253 0.11194565 -0.061429955 -0.04524804 -0.15149534 -0.052739847 -0.04734742
-0.02424725 0.0016201797 -0.11079012 -0.06419285 0.09795657 0.15367031 -0.13927302 -0.020050589
0.015723858 -0.056837916 0.033253074 0.02074695 -0.017581487 -0.0044154595 -0.048617326 0.0033863836
0.032673143 0.007694265 0.00042852826 -0.026104795 0.08082879 -0.050179485 0.102491915 0.042101685
0.03430524 -0.03511573 -0.011769392 0.121719375 0.019213961 -0.017065605 -0.10230685 0.1136631
-0.09497095 0.16224489 -0.12486512 -0.014960103 -0.0015690625 0.024501942 -0.01781929 0.15232208
00000000: 655f 32be 8292 18bd 9bc4 363e 245a 14be
00000010: f71d 12be 7364 abbd 9b48 093e b8f2 d43c
00000020: 3ed0 ba3d 764d 56be 7f14 223e a669 373e
00000030: a446 98bd b223 1b3e 515e 2cbc 78dc 83be
00000040: 0591 dcbc 9f97 2abe ad48 583e 57f1 b23d
00000050: 5a4f 21be 6844 ca3d b9df 2dbe ec2c 2f3e
00000060: 9b0e 6f3d 94ce 96be 9a02 10be fdfe afbc
00000070: f287 2fbe 16d9 303e 0160 d83d 1250 c23d
00000080: 661d dd3d 1cf2 62bd 2378 073e d5fd f03c
00000090: 5a6e 9b3d 92c1 9a3d e812 28be 63a2 3fbe
000000a0: 546f 103e 6d8c 503d 689c d5bd 5fea b13d
000000b0: 9871 783d b2b4 4bbd 6e17 0e3c a1c6 a13e
000000c0: 3e7f 5d3d 36e9 fbbd b66b b0bc e49f 023b
000000d0: 8e10 74be 96e0 323c 2faf ce3d 95ff 9fbd
000000e0: 0ab8 c2bd b4a3 f63d 15af 8c3e b039 d83c
000000f0: 4a07 023e 7c76 58bd 47d0 4c3e ffba 6b3d
00000100: 9ca6 73bc b38e af3d 0ea2 603e de24 b6bd
00000110: bb7d 39be 9053 04bd e495 d83a e571 f6bd
00000120: 254b ea3c c17a 0dbd b981 6ebd 9490 16bd
00000130: 92ee 4e3d f044 b0bd 6de7 7d3e cb0a f4ba
00000140: 692a f2bc aa1d 56bb dca9 113d 7953 9dbd
00000150: e68e 4bbc 18aa 2fbe 6b43 15ba 7e00 473d
00000160: c80e 103d 8a41 67bd 6e01 7fbd 7ede 4bbd
00000170: 28ca 633e c88a 7d3e e5c7 0abc 4ddc fb3d
00000180: 4365 b83d 1e9f 28bd 349f 063e 2112 5d3d
00000190: 40c5 b43c 0514 c0bd 3ff3 95bd ba98 6f3d
000001a0: 6fa8 923d e8d5 2d3e 169f 803d 4415 2dbe
000001b0: 895f 243c 258a 9cbd 34f3 cd3c c5a5 1b3e
000001c0: 443e e23d 6eb7 783d 80f5 b93c 78b9 8f3d
000001d0: c64e 0abe ac00 07be d25b 01be 18b9 e83d
000001e0: 2c8f e9bd efd3 a03e 9a4f 38bd 873d efbd
000001f0: 7427 583d a68d 6fbd 9022 b3bd befd 0bbc
00000200: 8839 1bbc 2f1f 9ebd e139 ca3d 06ae 39bc
00000210: 9ee9 04be f4b8 393d ec87 363e 9814 763d
00000220: b2cc df3c b02b fabd 7047 a93d 5fe3 303d
00000230: 34e0 73bd 3a23 c43d b2b6 1f3d 2683 5bbe
00000240: 0f30 813d 77be 4abe f2f5 113e e784 6dbc
00000250: 817f e1bd d27a 513d 05c1 73bd ccd0 b83d
00000260: 87b5 0c3e 85dc f7bd fb4c 13be e379 9d3d
00000270: b7c5 0ebe bcd2 363e 0cfb bd3d 694e 7f3b
00000280: f701 38bd e878 09be 7d0a 103e 7c75 b3bc
00000290: 8938 e4bc 62d0 fe3d 711d 1cbd 58d9 16be
000002a0: 5cda 0a3e c600 c13b fdf3 7bbb 48e4 01bd
000002b0: 24e5 943c 7de5 00bd fa0f 4abc 580d 203e
000002c0: 858d d13d 3540 73bd 249f dfbc 5dc8 d83b
000002d0: f3f9 b7bd 4fea b33d c4ca a13d f8bb f03c
000002e0: 977a a2bd f8d9 0a3e 15b2 1d3e de55 c03d
000002f0: 35eb 953c b1e8 adbd 388f f63d 5af4 153e
00000300: a4ef f1bd 3608 b53d defa f03b 4caa 2bbd
00000310: 8659 12bd 2664 99bc 54e2 1f3d b708 26bc
00000320: 99ee 0abe e646 f6ba 67ea 4ebd 7aec d1bd
00000330: 1208 d7bc 8bd2 c43b 2838 133e 0cc8 c53d
00000340: 8738 34bd b777 1fbd c343 e53d fa9d 7bbd
00000350: 0256 39bd 9821 1bbe bd05 58bd 5eef 41bd
00000360: 2ba2 c6bc 365c d43a eee5 e2bd 8a77 83bd
00000370: 749d c83d c05b 1d3e 969d 0ebe 2241 a4bc
00000380: 52cf 803c e0ce 68bd 6034 083d 82f5 a93c
00000390: 0d07 90bc 8faf 90bb f622 47bd 17ee 5d3b
000003a0: 46d4 053d 2c20 fc3b 17ac e039 b9d9 d5bc
000003b0: 9189 a53d 0189 4dbd 48e7 d13d d172 2c3d
000003c0: a783 0c3d 83d5 0fbd 68d4 40bc 0248 f93d
000003d0: 9966 9d3c 2bcd 8bbc 4186 d1bd 33c8 e83d
000003e0: 2180 c2bd 8623 263e 49b9 ffbd 381b 75bc
000003f0: 00a9 cdba 4cb8 c83c c2f9 91bc 52fa 1b3e

onnx::LSTM_252 f4 [1, 1024]
-0.36567503 -0.60275114 -0.5121024 -0.40332407 -0.57215524 -0.32493243 -0.5096479 -0.52706975
-0.6035591 -0.3302161 -0.48753893 -0.45952946 -0.5944706 -0.21314766 -0.47442293 -0.36422458
-0.3171871 -0.40623972 -0.45901045 -0.4153247 -0.31585312 -0.36791378 -0.42436206 -0.42027923
-0.52077067 -0.2732516 -0.44875908 -0.4172766 -0.4109697 -0.4388659 -0.33804703 -0.60462034
-0.38174883 -0.40672064 -0.42814448 -0.4924059 -0.43188167 -0.36554533 -0.40325454 -0.42817092
-0.49178493 -0.5438387 -0.3356747 -0.24063234 -0.48094583 -0.33337718 -0.42753685 -0.40519604
-0.36757514 -0.32301557 -0.44740257 -0.59282535 -0.300912 -0.21427712 -0.46315277 -0.36798096
-0.55675405 -0.4215701 -0.32433048 -0.5068383 -0.47418037 -0.474724 -0.22538033 -0.40718397
-0.38289604 -0.4656372 -0.27525043 -0.41189858 -0.42104438 -0.47843206 -0.30871674 -0.44844145
-0.42136848 -0.5983486 -0.3255187 -0.3827847 -0.460188 -0.3779359 -0.34810624 -0.5490963
-0.5049621 -0.5707051 -0.39589888 -0.41956702 -0.4707865 -0.2659478 -0.25172094 -0.4344918
-0.58286715 -0.48557848 -0.61736494 -0.3460433 -0.3144475 -0.44098872 -0.3311139 -0.31937143
-0.50175464 -0.47857562 -0.31167734 -0.45175672 -0.58570033 -0.63395846 -0.3660274 -0.5082442
-0.48664406 -0.5077749 -0.33932018 -0.42656857 -0.5925358 -0.5363659 -0.34063092 -0.21051408
-0.4369311 -0.60288274 -0.45977655 -0.3143504 -0.52144873 -0.42070013 -0.3363686 -0.36645666
-0.5336025 -0.2708966 -0.39126697 -0.7005335 -0.6853467 -0.5382145 -0.3770963 -0.35899445
-0.46983004 -0.51854616 -0.54150015 -0.39110735 -0.5165697 -0.3502833 -0.43233526 -0.40807077
-0.6240488 -0.42677736 -0.36404386 -0.43520296 -0.56729597 -0.36022186 -0.48500103 -0.41042334
-0.2792595 -0.4471063 -0.44450578 -0.45782974 -0.4040605 -0.3132791 -0.3799067 -0.44435835
-0.5735357 -0.25051484 -0.46533373 -0.33833486 -0.44681653 -0.45289013 -0.401281 -0.5825174
-0.3773927 -0.37862942 -0.35151997 -0.52494663 -0.2903071 -0.3588274 -0.36633065 -0.35198793
-0.5104039 -0.44150737 -0.28385997 -0.26026487 -0.57007045 -0.400676 -0.4186613 -0.26558506
-0.31991383 -0.41929597 -0.38032624 -0.4284632 -0.2606871 -0.3246158 -0.51600075 -0.31715205
-0.49630415 -0.4823879 -0.34047264 -0.39103842 -0.5859334 -0.49854064 -0.28501132 -0.388575
-0.41274837 -0.41915846 -0.33894894 -0.45615497 -0.5014601 -0.512556 -0.32228768 -0.46414554
-0.37082714 -0.57031775 -0.22063096 -0.4570772 -0.5334285 -0.28821737 -0.330936 -0.561374
-0.6154097 -0.5103224 -0.34566647 -0.50224674 -0.31118575 -0.37782466 -0.24068953 -0.5382838
-0.50119567 -0.5156975 -0.5260314 -0.3611007 -0.37471384 -0.44439277 -0.3747149 -0.2133019
-0.4051704 -0.44868645 -0.30312088 -0.5537043 -0.5738478 -0.65109324 -0.19000447 -0.54502654
-0.41535658 -0.43387952 -0.40276697 -0.43768254 -0.4908643 -0.6285969 -0.34358835 -0.25773996
-0.3544876 -0.5898323 -0.50013995 -0.39296317 -0.4822534 -0.4437464 -0.39952505 -0.24233137
-0.3981488 -0.31146458 -0.43295652 -0.56188047 -0.6621255 -0.39877662 -0.3479084 -0.41735497
00000000: c239 bbbe e64d 1abf 2519 03bf 7e80 cebe
00000010: c478 12bf 8b5d a6be 4978 02bf 0bee 06bf
00000020: d982 1abf 1612 a9be b49e f9be 7247 ebbe
00000030: 3a2f 18bf 6143 5abe 90e7 f2be a57b babe
00000040: 5966 a2be a7fe cfbe 6b03 ebbe 70a5 d4be
00000050: 80b7 a1be 325f bcbe fc45 d9be d72e d7be
00000060: 3a51 05bf a2e7 8bbe c0c3 e5be 47a5 d5be
00000070: 9f6a d2be 08b3 e0be 8014 adbe 66c8 1abf
00000080: 9574 c3be b03d d0be c135 dbbe a01c fcbe
00000090: 981f ddbe c228 bbbe 6177 cebe 3839 dbbe
000000a0: 3ccb fbbe 0339 0bbf 8edd abbe 5368 76be
000000b0: 883e f6be 6ab0 aabe 1ce6 dabe db75 cfbe
000000c0: cf32 bcbe 4c62 a5be f311 e5be 67c3 17bf
000000d0: 2311 9abe 766b 5bbe 5c22 edbe 0068 bcbe
000000e0: 6f87 0ebf 09d8 d7be a50e a6be 28c0 01bf
000000f0: c5c7 f2be 060f f3be 1aca 66be 6b7a d0be
00000100: f30a c4be 0068 eebe a0ed 8cbe 5fe4 d2be
00000110: 2193 d7be 0cf5 f4be 1f10 9ebe 1e9a e5be
00000120: 9cbd d7be 602d 19bf 63aa a6be 5bfc c3be
00000130: c39d ebbe d080 c1be fb3a b2be 9391 0cbf
00000140: 3245 01bf bb19 12bf 42b3 cabe 7dd1 d6be
00000150: ee0a f1be 4f2a 88be 91e1 80be b675 debe
00000160: c836 15bf be9d f8be a10b 1ebf 962c b1be
00000170: 43ff a0be 46c9 e1be c387 a9be a784 a3be
00000180: fe72 00bf dd07 f5be 2c94 9fbe a84c e7be
00000190: 75f0 15bf 1a4b 22bf f267 bbbe 4b1c 02bf
000001a0: 6929 f9be 89fd 01bf 60bb adbe 3267 dabe
000001b0: 6db0 17bf 474f 09bf 2d67 aebe 0191 57be
000001c0: 6fb5 dfbe 8656 1abf d567 ebbe 89f2 a0be
000001d0: aa7d 05bf 0266 d7be 8138 acbe 35a0 bbbe
000001e0: 2c9a 08bf f6b2 8abe 2554 c8be 2a56 33bf
000001f0: e272 2fbf 6dc8 09bf c412 c1be 1fce b7be
00000200: 908d f0be 71bf 04bf c19f 0abf 393f c8be
00000210: e93d 04bf 5558 b3be 0c5b ddbe a7ee d0be
00000220: aac1 1fbf 9082 dabe f563 babe ecd2 debe
00000230: 4f3a 11bf 006f b8be 0e52 f8be 0223 d2be
00000240: 1afb 8ebe 1eeb e4be 4396 e3be a968 eabe
00000250: 05e1 cebe 1e66 a0be 2283 c2be f082 e3be
00000260: 3cd3 12bf 7b43 80be 3940 eebe 3a3a adbe
00000270: 23c5 e4be 37e1 e7be b474 cdbe dc1f 15bf
00000280: 9e39 c1be b7db c1be 6dfa b3be e762 06bf
00000290: 22a3 94be 3ab8 b7be b18f bbbe c337 b4be
000002a0: d4a9 02bf 410d e2be 1856 91be 7041 85be
000002b0: 23f0 11bf 6825 cdbe c65a d6be c4fa 87be
000002c0: bfcb a3be f6ad d6be 1fba c2be 875f dbbe
000002d0: c878 85be 0b34 a6be a018 04bf c161 a2be
000002e0: 941b febe 8cfb f6be 6e52 aebe 3036 c8be
000002f0: bbff 15bf b840 ffbe 01ed 91be 4df3 c6be
00000300: c153 d3be f09b d6be b78a adbe 258d e9be
00000310: b05f 00bf df36 03bf e402 a5be 7ca4 edbe
00000320: 0edd bdbe 5800 12bf 15ed 61be 0606 eabe
00000330: c58e 08bf 3a91 93be 7270 a9be 35b6 0fbf
00000340: 7d8b 1dbf 7da4 02bf 32fb b0be 3e93 00bf
00000350: bd53 9fbe 3c72 c1be 5177 76be f8cc 09bf
00000360: 5c4e 00bf c004 04bf fea9 06bf 31e2 b8be
00000370: 7eda bfbe 7387 e3be a2da bfbe d06b 5abe
00000380: 7f72 cfbe 3bba e5be a932 9bbe 91bf 0dbf
00000390: b0e7 12bf 0cae 26bf 8890 42be dc86 0bbf
000003a0: 9ea9 d4be 7525 debe 7937 cebe ed17 e0be
000003b0: 9152 fbbe baeb 20bf d0ea afbe 7ef6 83be
000003c0: 667f b5be 40ff 16bf 2c09 00bf 7832 c9be
000003d0: ebe9 f6be ba32 e3be 8c8e ccbe b725 78be
000003e0: 29da cbbe 4978 9fbe 7aac ddbe 66d7 0fbf
000003f0: 0f81 29bf 732c ccbe 0d21 b2be 8daf d5be
