notebook/model/lstm_12_step_Ua.onnx (onnx, 348292 bytes, 12 tensors)

fc1.weight f4 [16, 64]
0.097175084 0.12736154 0.12012501 -0.03423038 -0.053897172 -0.14463529 -0.056640986 0.024851479
-0.08281052 -0.037995577 0.008342493 -0.10984951 0.106607154 0.06969022 0.058977935 0.07172432
0.05580057 0.016119398 -0.080591895 -0.11009377 0.1510565 0.12576455 0.15292501 -0.08531739
-0.0946533 -0.05776651 0.09345151 0.0329982 -0.01775415 -0.09764732 0.038295105 -0.06149452
-0.17240539 -0.09454006 -0.13593002 -0.195451 0.0974963 -0.17673169 -0.0893041 0.08390709
0.06396299 0.0018166564 -0.046197847 0.017579447 0.0092533175 -0.14210351 -0.035974093 0.009444022
0.122522995 0.15604927 -0.07200849 -0.13022827 -0.0916069 0.035398316 0.018710773 0.031182567
0.043300677 0.0131365005 -0.009494758 0.061727744 -0.035638653 0.035982043 0.03950248 -0.050056357
0.08571234 0.0179497 -0.1748841 0.07312226 -0.0561061 0.098317176 0.029706592 -0.10801023
-0.09260907 0.060905352 0.034389753 0.0648826 -0.093193464 -0.16285999 -0.04601685 0.12441653
0.03870482 -0.09535089 -0.03384405 -0.04347502 0.031794015 -0.0339583 -0.14830546 -0.06438574
-0.065991975 0.027789492 -0.1356336 -0.1194428 0.13642 0.14396097 -0.08120005 0.032603938
0.13026403 0.053640883 -0.044597954 -0.029175917 0.109976895 0.008356487 0.12307951 -0.018005269
-0.039693177 -0.015074398 -0.027408922 0.015613251 0.11124055 -0.06518986 0.13828512 0.05577443
-0.017097909 0.037945487 0.18784416 0.118882224 0.07222223 0.016748836 0.026840786 -0.13195066
-0.033806596 -0.10878311 -0.13340555 0.081711434 -0.040290724 0.08810719 -0.017379703 0.013448155
-0.035063986 0.17514402 -0.07304878 -0.045449644 -0.06777752 -0.19742948 -0.0041135037 0.24532658
0.117431484 -0.12910819 0.12780035 -0.090655856 0.15135944 0.10310025 0.037958033 -0.019970423
-0.026728582 0.061392143 0.06805067 -0.040433735 0.09363972 0.17012718 0.20463113 -0.04948148
0.07193963 -0.04053844 -0.046069354 0.02994865 -0.088322185 0.13132577 0.13416748 -0.110533886
-0.22239088 -0.10106033 0.057687636 -0.18990384 0.048766077 -0.20981994 0.06982299 0.09931391
-0.03719842 0.008693337 -0.012666566 0.09097036 0.0016541643 -0.041002396 -0.0711912 -0.18459032
-0.019185446 -0.029945683 -0.35254297 0.09232376 0.1117727 -0.108719684 -0.12860624 -0.079856955
0.120889686 -0.0041071055 -0.03387717 -0.012625747 0.17595422 -0.0029813135 -0.1069542 0.06996687
-0.0074261087 0.06793258 0.14444907 0.17067386 0.11387921 -0.022141052 0.15786083 0.12285217
-0.015485087 0.11180211 -0.11543339 -0.08327092 0.10137963 0.024549235 -0.077738546 -0.09911691
0.17743374 0.25772125 -0.00026940726 0.072751224 0.19961022 0.12791242 0.3567179 -0.11459701
0.013185604 -0.13829061 0.08611743 0.062252026 -0.037752286 -0.07053472 -0.042737607 0.019204661
-0.076376624 0.022768114 0.019210225 0.020488102 0.13478367 -0.12408252 -0.20279285 -0.022383528
-0.03728948 -0.1033018 -0.02377401 -0.18772694 -0.13844317 -0.063448325 -0.14528157 -0.03294623
0.1035144 -0.0560888 -0.18645486 -0.08513999 0.052183326 -0.034520566 -0.001238505 0.25443974
0.03321918 -0.063908555 0.12079179 -0.065964535 -0.05950286 -0.078042276 0.10768136 -0.09092223
00000000: bb03 c73d 106b 023e 1a04 f63d 2835 0cbd
00000010: 48c3 5cbd 461b 14be 6100 68bd 5495 cb3c
00000020: 9098 a9bd 40a1 1bbd f4ae 083c c8f8 e0bd
00000030: da54 da3d bfb9 8e3d d992 713d 33e4 923d
00000040: 238f 643d d40c 843c 5d0d a5bd d878 e1bd
00000050: 8eae 1a3e 6cc8 003e 6098 1c3e e2ba aebd
00000060: 97d9 c1bd 939c 6cbd 8163 bf3d 1f29 073d
00000070: 2771 91bc 51fb c7bd 54db 1c3d aee1 7bbd
00000080: 0a8b 30be 389e c1bd 3d31 0bbe 4f24 48be
00000090: 24ac c73d 27f9 34be 11e5 b6bd 7bd7 ab3d
000000a0: 07ff 823d e01c ee3a f439 3dbd c602 903c
000000b0: 3a9b 173c 9583 11be 9259 13bd 19bb 1a3c
000000c0: 56ed fa3d 61cb 1f3e 3079 93bd 8f5a 05be
000000d0: 669c bbbd d3fd 103d 5647 993c 9572 ff3c
000000e0: 0d5c 313d 7a3a 573c e78f 1bbc 3bd6 7c3d
000000f0: d6f9 11bd e861 133d 5acd 213d e507 4dbd
00000100: f489 af3d 400b 933c d114 33be 20c1 953d
00000110: 83cf 65bd 845a c93d 3d5b f33c 7834 ddbd
00000120: d3a9 bdbd e477 793d 45dc 0c3d 2be1 843d
00000130: 37dc bebd c5c4 26be 2a7c 3cbd 18ce fe3d
00000140: f288 1e3d 5447 c3bd 0fa0 0abd dd12 32bd
00000150: 713a 023d dc17 0bbd 63dd 17be acdc 83bd
00000160: cd26 87bd caa6 e33c 89e3 0abe 6d9e f4bd
00000170: afb1 0b3e 816a 133e 364c a6bd b58b 053d
00000180: ef63 053e 8bb6 5b3d 58ac 36bd 5502 efbc
00000190: 913b e13d a6e9 083c 1c11 fc3d c97f 93bc
000001a0: 5095 22bd 9cfa 76bc ad88 e0bc b9ce 7f3c
000001b0: 16d2 e33d 4382 85bd 9d9a 0d3e bb73 643d
000001c0: ea10 8cbc ba6c 1b3d 385a 403e 8678 f33d
000001d0: 40e9 933d db34 893c 35e1 db3c 131e 07be
000001e0: c978 0abd aec9 debd 779b 08be 5358 a73d
000001f0: e307 25bd 8b71 b43d e15f 8ebc a655 5c3c
00000200: 419f 0fbd f458 333e 999a 95bd 6829 3abd
00000210: f1ce 8abd f42a 4abe 92ca 86bb e436 7b3e
00000220: eb7f f03d f034 04be 18de 023e c7a9 b9bd
00000230: f8fd 1a3e 3926 d33d e279 1b3d 0399 a3bc
00000240: e6f5 dabc 5476 7b3d 265e 8b3d d89d 25bd
00000250: 2ec6 bf3d d235 2e3e d38a 513e 18ad 4abd
00000260: 1655 933d a30b 26bd 38b3 3cbd df56 f53c
00000270: 43e2 b4bd 437a 063e 3363 093e 975f e2bd
00000280: 6fba 63be b8f8 cebd df49 6c3d 2776 42be
00000290: f0be 473d 0adb 56be 5bff 8e3d 1765 cb3d
000002a0: 5f5d 18bd 806e 0e3c 6e87 4fbc ab4e ba3d
000002b0: 8bd0 d83a 21f2 27bd b1cc 91bd 3f05 3dbe
000002c0: cc2a 9dbc a650 f5bc 8380 b4be 3d14 bd3d
000002d0: 16e9 e43d 6da8 debd 5bb1 03be 0b8c a3bd
000002e0: 0395 f73d e694 86bb cac2 0abd 39dc 4ebc
000002f0: 582d 343e 2462 43bb ce0a dbbd ca4a 8f3d
00000300: b756 f3bb 3d20 8b3d 75ea 133e 21c5 2e3e
00000310: 8139 e93d 2761 b5bc 45a6 213e eb99 fb3d
00000320: 2ab5 7dbc 81f8 e43d 5768 ecbd f289 aabd
00000330: 20a0 cf3d 7a1b c93c 6335 9fbd cefd cabd
00000340: 31b1 353e 0af4 833e 3b3f 8db9 98fe 943d
00000350: 9f66 4c3e 79fb 023e bba3 b63e d6b1 eabd
00000360: 6e08 583c 0e9c 0dbe 565e b03d fbfb 7e3d
00000370: 24a2 1abd 8274 90bd a10d 2fbd 1853 9d3c
00000380: 596b 9cbd 3284 ba3c c35e 9d3c aad6 a73c
00000390: bb04 0a3e fa1e febd eea8 4fbe a95d b7bc
000003a0: dbbc 18bd e58f d3bd b6c1 c2bc 7e3b 40be
000003b0: 0cc4 0dbe 32f1 81bd b1c4 14be a0f2 06bd
000003c0: 5cff d33d 5fbd 65bd 06ee 3ebe e05d aebd
000003d0: 2fbe 553d 7065 0dbd 5555 a2ba ed45 823e
000003e0: d610 083d 7de2 82bd b061 f73d 6a18 87bd
000003f0: 45b9 73bd a1d4 9fbd 0b88 dc3d 6f35 babd

fc1.bias f4 [16]
0.2732145 -0.11897167 0.39192563 0.24697937 -0.12927337 -0.019006895 0.057165127 -0.328741
-0.14296088 -0.32268694 0.26444697 0.36590207 0.087080404 0.021503357 0.45539263 -0.0870319
00000000: c5e2 8b3e 6ba7 f3bd 7aaa c83e 29e8 7c3e
00000010: 3d60 04be 59b4 9bbc fb25 6a3d be50 a8be
00000020: 5664 12be 3937 a5be 9865 873e 8457 bb3e
00000030: 3657 b23d cf27 b03c 3929 e93e c83d b2bd

fc2.weight f4 [1, 16]
0.08985703 -0.021556983 0.22280745 0.028501304 -0.052065827 -0.0003958998 0.0044810926 -0.22081302
-0.07993765 -0.07547829 0.13548759 0.20007525 0.026881121 0.0031570029 0.31940237 -0.032536533
00000000: f606 b83d 4598 b0bc a327 643e 917b e93c
00000010: fa42 55bd c690 cfb9 21d6 923b cf1c 62be
00000020: 5ab6 a3bd 5d94 9abd 42bd 0a3e 87e0 4c3e
00000030: cc35 dc3c b8e5 4e3b b588 a33e 0745 05bd

onnx::LSTM_324 f4 [1, 256, 1]
0.41560593 -0.8689067 -0.4066854 -0.29331884 -0.06559585 0.080310285 -0.74011284 -0.106168196
-1.4526865 -1.0486305 -0.19378753 -0.41763115 -0.59157103 -0.7724548 -0.7081688 -0.5739713
-0.88594955 -0.52772605 0.051053096 -0.7162982 -1.19391 0.22091193 -0.34431428 0.5734957
-0.82579297 -0.9424506 0.042667612 -0.6302277 -0.86615527 -1.076194 -0.9817506 -0.50126225
-0.8639291 -0.12821305 -0.2634895 -0.28907254 -0.17955096 -0.012660125 -0.2806768 -0.35778183
-0.844634 -1.3965487 -0.22926155 -0.19504833 -0.9450989 -0.22492756 -0.81664544 0.10595056
-0.24928726 -1.1762105 -0.90230715 -0.33327076 -0.19318719 -0.6205378 -0.20542192 -0.038142715
-1.2040709 -0.06823293 -0.16499186 -1.3999317 -0.41791776 -0.41894802 0.28453097 -1.5558035
1.696134 -0.47614083 -1.1412331 -0.8865038 -0.15872411 0.011684655 -0.03292939 -0.14429477
-2.1110346 0.20220679 -0.26224938 -0.76262796 -0.05563182 -0.34361407 0.079664156 -0.11345513
-1.1750351 -1.2201796 -0.06645314 -1.3345692 -1.6929098 -1.067171 -0.71468467 0.21157786
-1.3134793 -0.96147734 0.32299995 -0.87308294 -1.8641725 -1.5454929 -1.2783228 -0.5429964
-1.3767115 -0.034497216 -0.19965807 -0.05182912 -0.7480331 -1.3575467 -1.2557341 -1.2521123
-0.9543409 -0.7723387 0.20110466 -1.1268605 -1.6765951 -0.5053684 -0.6532154 0.49167165
-0.44327888 -1.3550781 -1.9503947 -1.2466631 -0.14333396 0.5054773 -0.6678844 -0.00096492877
-1.0226644 -0.034121495 -0.9752634 -1.7296112 -0.10221493 0.56592906 1.4175795 -2.3459103
-0.72153705 0.7247205 -0.12239429 -0.10739084 0.20312081 -1.4326825 0.82915694 -0.12122787
-0.45417348 -0.85256326 -0.7270588 -0.13941348 -0.57280844 0.16127494 0.71285427 -0.038213607
-0.56163704 0.3578602 -0.64636236 -0.29190186 0.8627797 -0.36766946 -0.4574476 -1.5569715
0.84477794 -1.2251015 -1.6026382 0.8017381 -0.21840544 0.14253435 -0.49514112 -0.68218327
-0.046578992 0.1528856 -0.029078696 -0.9293223 -0.36823833 -0.53284985 -0.68592256 -0.6502171
-0.43254143 -0.77164674 -0.46797606 -0.54874575 -0.4861907 -0.08618323 -0.42936862 -0.8770398
-0.6158118 -0.18020904 0.49965137 -0.534393 -0.37323883 -0.79513824 -1.0391364 -0.29732162
-0.57195455 -0.083844095 -0.20065454 0.50233203 -0.40453967 -0.06764337 -1.206832 -0.022898447
-4.4514184 0.8497965 -0.6182372 -0.65265244 -0.5508048 1.7610986 -0.6080666 -1.0624944
-0.032422032 0.59289193 0.99828506 -0.34236282 1.2391577 -2.446573 0.5015555 2.3845835
0.39095503 0.5787373 1.3641772 -0.32317942 0.8714129 1.022966 -0.07474236 2.4822776
0.9526922 3.2685785 1.2225449 0.73088497 -0.35853514 -0.67481345 0.64606977 -0.63928926
-0.45977572 -2.0550122 1.7946327 1.3454256 -0.31139123 -0.16272873 0.062957585 -0.06210053
-0.437502 2.157705 1.7721219 0.19095005 1.0322245 0.5867075 0.1992734 1.8154618
-0.09708951 0.42767754 -0.31519645 0.55540156 -0.7718104 0.043592833 -0.9871278 0.5270811
0.3032192 -1.0429119 -0.5252151 0.13782108 0.8277816 -0.592377 -3.7029912 -0.61192936
00000000: 4dca d43e ab70 5ebf 1239 d0be e32d 96be
00000010: 1e57 86bd b879 a43d 0978 3dbf b66e d9bd
00000020: a2f1 b9bf 8639 86bf 3d70 46be c0d3 d5be
00000030: 3371 17bf 99bf 45bf 8d4a 35bf c8ef 12bf
00000040: 97cd 62bf 0e19 07bf 0d1d 513d 525f 37bf
00000050: 0bd2 98bf bd36 623e f649 b0be 9dd0 123f
00000060: 2b67 53bf 7144 71bf 3cc4 2e3d 9a56 21bf
00000070: 5abc 5dbf bac0 89bf 0254 7bbf b952 00bf
00000080: 752a 5dbf 484a 03be 19e8 86be 5101 94be
00000090: 35dc 37be 6a6c 4fbc dfb4 8fbe 2e2f b7be
000000a0: ef39 58bf 1cc2 b2bf 8ac3 6abe c0ba 47be
000000b0: 00f2 71bf 6953 66be ad0f 51bf 9bfc d83d
000000c0: 2945 7fbe 118e 96bf 9afd 66bf 77a2 aabe
000000d0: ddd2 45be 91db 1ebf 205a 52be 893b 1cbd
000000e0: ff1e 9abf b5bd 8bbd a0f3 28be f630 b3bf
000000f0: 51f9 d5be 5b80 d6be 0bae 913e 9224 c7bf
00000100: eb1a d93f bbc8 f3be ed13 92bf eaf1 62bf
00000110: 9388 22be ff70 3f3c f8e0 06bd 02c2 13be
00000120: 311b 07c0 4c0f 4f3e 8d45 86be 963b 43bf
00000130: 31de 63bd 2fee afbe f626 a33d 2a5b e8bd
00000140: 8d67 96bf d82e 9cbf 9518 88bd 2ad3 aabf
00000150: 45b1 d8bf 0f99 88bf 93f5 36bf dea7 583e
00000160: 1720 a8bf 6123 76bf 4060 a53e 5d82 5fbf
00000170: 349d eebf b6d2 c5bf 15a0 a3bf d001 0bbf
00000180: 1538 b0bf f44c 0dbd 2a73 4cbe c54a 54bd
00000190: 197f 3fbf 17c4 adbf e5bb a0bf 3745 a0bf
000001a0: af4f 74bf fdb7 45bf 61ee 4d3e f73c 90bf
000001b0: ab9a d6bf d35f 01bf 2039 27bf 63bc fb3e
000001c0: 73f5 e2be 3373 adbf 89a6 f9bf a892 9fbf
000001d0: 23c6 12be f666 013f 79fa 2abf 46f3 7cba
000001e0: abe6 82bf fbc2 0bbd ddaa 79bf e663 ddbf
000001f0: 1056 d1bd bae0 103f 3f73 b53f 6523 16c0
00000200: a7b6 38bf 4887 393f dca9 fabd bbef dbbd
00000210: e7fe 4f3e 2462 b7bf a143 543f 5146 f8bd
00000220: 6d89 e8be 9641 5abf 8720 3abf 68c2 0ebe
00000230: 93a3 12bf 4225 253e 9e7d 363f df85 1cbd
00000240: 72c7 0fbf 7439 b73e 0178 25bf 2974 95be
00000250: 21df 5c3f 2c3f bcbe 9236 eabe d84a c7bf
00000260: 5e43 583f 20d0 9cbf 4023 cdbf b53e 4d3f
00000270: ada5 5fbe 86f4 113e 2383 fdbe 90a3 2ebf
00000280: 9dc9 3ebd 0b8e 1c3e 7236 eebc 11e8 6dbf
00000290: bc89 bcbe d968 08bf 9f98 2fbf a174 26bf
000002a0: 1276 ddbe a48a 45bf 8f9a efbe 9a7a 0cbf
000002b0: fded f8be d580 b0bd 34d6 dbbe ae85 60bf
000002c0: d8a5 1dbf b888 38be 4ed2 ff3e fbcd 08bf
000002d0: 2919 bfbe 2e8e 4bbf 6c02 85bf 8a3a 98be
000002e0: 9d6b 12bf 74b6 abbd 6278 4dbe d598 003f
000002f0: d31f cfbe 9b88 8abd 7979 9abf 8695 bbbc
00000300: 0572 8ec0 438c 593f cb44 1ebf 3b14 27bf
00000310: 8b01 0dbf ae6b e13f 41aa 1bbf d1ff 87bf
00000320: f7cc 04bd c4c7 173f 9c8f 7f3f 2e4a afbe
00000330: b89c 9e3f a794 1cc0 f165 003f 049d 1840
00000340: 422b c83e 2128 143f 5c9d ae3f c677 a5be
00000350: ea14 5f3f 8df0 823f 8612 99bd a3dd 1e40
00000360: a3e3 733f 6430 5140 5a7c 9c3f 471b 3b3f
00000370: eb91 b7be 93c0 2cbf d464 253f 76a8 23bf
00000380: b967 ebbe 5285 03c0 86b6 e53f e836 ac3f
00000390: ac6e 9fbe 5ca2 26be e8ef 803d 205d 7ebd
000003a0: 4300 e0be d717 0a40 e4d4 e23f 6988 433e
000003b0: ef1f 843f 7632 163f 530e 4c3e 0d61 e83f
000003c0: ddd6 c6bd 8df8 da3e 6e61 a1be cc2e 0e3f
000003d0: 5e95 45bf 668e 323d 68b4 7cbf c9ee 063f
000003e0: 8c3f 9b3e 237e 85bf 7f74 06bf f820 0d3e
000003f0: 7fe9 533f 05a6 17bf cffd 6cc0 67a7 1cbf

onnx::LSTM_325 f4 [1, 256, 64]
-0.90330696 0.28457657 0.30655602 -0.28071323 -0.8394375 0.21387537 0.33817425 -0.14061177
-0.468741 -1.0474515 -1.016588 -0.18163237 -0.28058094 -1.4640267 0.36594936 1.6257936
0.18495403 1.1702386 0.29657453 -0.5794135 0.8398018 0.014338216 -0.20323583 -0.10273489
0.5821563 2.5559978 0.68288064 0.5045447 -0.30927503 -0.9099165 0.83607537 -0.8216762
-0.10710804 -1.4292595 1.2351993 0.16108187 -0.15551981 -0.78596973 -0.49757797 -0.0074375193
0.15569255 1.3271977 0.6396748 0.34195077 0.51472974 0.39783946 -0.0661492 -0.010467704
-0.40230218 0.6163447 -0.20122217 0.836078 -0.89073384 -0.13142176 -0.81974596 0.07080795
0.33470565 -0.56172514 0.12389206 -0.35940945 1.2113613 -0.021691505 -1.0137762 -0.7293747
0.33540693 0.36026636 -0.42775252 0.47864535 0.3155979 -0.8695905 -0.095633075 -0.07497101
0.6069458 0.11725119 -0.094861686 0.13964856 -0.3373267 0.4117533 0.44269556 -0.13313945
0.11822307 -0.05288505 -0.41132733 -0.049288005 -0.3346668 0.16193688 0.4713277 -0.43496847
-0.4717282 -0.26642945 -0.23288855 -0.32648116 -0.30298993 0.039615266 -0.57188004 0.6557506
0.7489629 0.049027666 -0.38280323 -0.18977173 0.7793982 0.69165283 -0.30385897 -0.015322278
0.62429994 -0.10365877 -0.012927233 0.49356487 -0.44028047 -0.44538164 -0.11341118 -0.22453728
-0.021026343 -0.69316274 0.25472614 -0.41154084 0.1679789 0.21094368 0.54573697 -0.25385264
-0.43500623 -0.11399135 0.18534021 0.85440224 -0.38700795 -0.032713663 1.0737076 0.11758475
1.55888 -1.0950863 0.8123142 0.4313045 0.38319263 -1.6749043 0.6798818 0.49737886
0.08589305 -1.9141605 -1.1501197 0.121955685 -1.1960552 0.3949806 -1.6886845 -0.39793545
0.004870944 -0.19886549 -0.49568272 -0.61545753 -0.76628727 -0.7090004 0.48885596 -1.169101
-0.015942702 -1.2311136 0.12763557 -0.65850794 0.13215244 -0.6457217 -0.6800722 -0.14825962
0.5679164 0.21620557 -0.88410723 -1.5549303 1.0190219 0.5945821 -0.6977595 -0.80180293
1.1442398 -0.845585 -0.9887283 0.39442098 -0.18804227 -0.30825567 -0.50259763 -1.9472392
-0.36138356 -0.4901514 -0.0018799327 -0.91046154 0.111325726 -0.11098955 -0.05823468 -0.87243474
-0.45140383 0.3671424 0.42213872 0.2098701 0.9322173 0.33548 -0.79659015 -0.38889042
-0.47229102 0.64351517 -0.2599406 0.106827535 0.17475976 0.048282467 -0.17953332 -0.28108138
-0.16341531 -0.46911022 0.3565553 0.050310317 0.008420587 0.052539475 -0.71018666 -0.21245618
0.28089032 0.30596298 0.10393556 -0.06747883 -0.037282698 0.74706566 -0.24019203 -0.21988063
0.18456993 0.35926947 -0.18879084 0.81474394 -0.2870565 -0.62598485 0.49589792 -0.88027406
-0.23236233 0.5261082 -0.06249861 -0.2793148 -0.24456915 -0.16020101 -0.4370941 -1.3895828
-0.22643812 0.032506697 -0.6074048 0.22187626 0.3379086 0.11326432 0.2708171 -0.046374355
-0.0388918 0.25793704 0.09742424 -0.039350126 0.052597918 -0.088125736 -0.21758294 0.11918001
0.23334284 0.25041565 -0.011393608 -0.18119495 0.41487575 -0.07723486 -1.4871038 0.11578149
00000000: 203f 67bf 05b4 913e e9f4 9c3e a5b9 8fbe
00000010: 60e5 56bf 2502 5b3e 2d25 ad3e 88fc 0fbe
00000020: d2fe efbe e412 86bf 8e1f 82bf d6fd 39be
00000030: 4ea8 8fbe 3a65 bbbf b75d bb3e 011a d03f
00000040: 9764 3d3e 61ca 953f 9ed8 973e 7154 14bf
00000050: 40fd 563f d6ea 6a3c 0e1d 50be ac66 d2bd
00000060: 3208 153f 7895 2340 44d1 2e3f d729 013f
00000070: 4c59 9ebe 4af0 68bf 0909 563f 5f59 52bf
00000080: 765b dbbd faf1 b6bf 031b 9e3f a5f2 243e
00000090: 9640 1fbe 5035 49bf 8ac2 febe 6fb6 f3bb
000000a0: de6d 1f3e 9de1 a93f bac1 233f 2c14 af3e
000000b0: 54c5 033f 9db1 cb3e 3b79 87bd bc80 2bbc
000000c0: 8dfa cdbe c4c8 1d3f 2f0d 4ebe 3509 563f
000000d0: 2207 64bf 6d93 06be dfda 51bf c203 913d
000000e0: 8a5e ab3e 38cd 0fbf 1fbb fd3d 8404 b8be
000000f0: e30d 9b3f 62b2 b1bc 6bc3 81bf 4db8 3abf
00000100: 75ba ab3e d574 b83e 6102 dbbe 0111 f53e
00000110: 0c96 a13e 7c9d 5ebf 46db c3bd 678a 99bd
00000120: cd60 1b3f 6421 f03d d846 c2bd 0800 0f3e
00000130: 16b6 acbe 54d1 d23e fea8 e23e b555 08be
00000140: f01e f23d ff9d 58bd 7f99 d2be 38e2 49bd
00000150: 7259 abbe c8d2 253e dd51 f13e 30b4 debe
00000160: 5c86 f1be 7169 88be 567a 6ebe 8a28 a7be
00000170: 7f21 9bbe 9e43 223d bb66 12bf 45df 273f
00000180: 08bc 3f3f 3cd1 483d c9fe c3be 8553 42be
00000190: a486 473f 2910 313f 6793 9bbe 4b0a 7bbc
000001a0: 1fd2 1f3f 0d4b d4bd bfcc 53bc 89b4 fc3e
000001b0: 716c e1be 1009 e4be 1f44 e8bd 1aed 65be
000001c0: 703f acbc 1d73 31bf 776b 823e 7bb5 d2be
000001d0: a902 2c3e 9f01 583e 6bb5 0b3f f9f8 81be
000001e0: 23b9 debe 4c74 e9bd d3c9 3d3e 1bba 5a3f
000001f0: e825 c6be c3fe 05bd 406f 893f 46d0 f03d
00000200: 6189 c73f ca2b 8cbf d3f3 4f3f f2d3 dc3e
00000210: d331 c43e 4463 d6bf bc0c 2e3f 71a8 fe3e
00000220: b2e8 af3d 3603 f5bf 1f37 93bf e7c3 f93d
00000230: 5618 99bf e63a ca3e d026 d8bf 32be cbbe
00000240: 719c 9f3b 65a3 4bbe 20ca fdbe a08e 1dbf
00000250: 672b 44bf 0d81 35bf 544b fa3e 1aa5 95bf
00000260: 459a 82bc 2195 9dbf e6b2 023e fa93 28bf
00000270: f852 073e 044e 25bf 3619 2ebf 5fd1 17be
00000280: f862 113f fe64 5d3e da54 62bf f507 c7bf
00000290: 4f6f 823f 8836 183f 5ea0 32bf f542 4dbf
000002a0: 7376 923f 4278 58bf 4c1d 7dbf 8cf1 c93e
000002b0: 278e 40be b0d3 9dbe 3daa 00bf 223f f9bf
000002c0: 4407 b9be 20f5 fabe 1368 f6ba 0214 69bf
000002d0: befe e33d 7d4e e3bd 7d87 6ebd e257 5fbf
000002e0: 671e e7be 17fa bb3e 9122 d83e 30e8 563e
000002f0: cba5 6e3f 09c4 ab3e 55ed 4bbf a51c c7be
00000300: 21d0 f1be 69bd 243f ef16 85be 65c8 da3d
00000310: 39f4 323e d6c3 453d 95d7 37be e6e9 8fbe
00000320: 5856 27be 372f f0be 6b8e b63e 3112 4e3d
00000330: 80f6 093c a233 573d cbce 35bf 1d8e 59be
00000340: dbd0 8f3e 2ea7 9c3e 2bdc d43d 5732 8abd
00000350: beb5 18bd b23f 3f3f e6f4 75be 6328 61be
00000360: e6ff 3c3e 2bf2 b73e 6352 41be 0f93 503f
00000370: 12f9 92be 8b40 20bf 55e6 fd3e a459 61bf
00000380: 64f0 6dbe 07af 063f 8bfe 7fbd 5902 8fbe
00000390: 5670 7abe bc0b 24be ccca dfbe d9dd b1bf
000003a0: 65df 67be be25 053d e27e 1bbf 8833 633e
000003b0: 5b02 ad3e 20f7 e73d 8aa8 8a3e 09f3 3dbd
000003c0: 024d 1fbd 5310 843e 5c86 c73d 992d 21bd
000003d0: ea70 573d 447b b4bd 10ce 5ebe a614 f43d
000003e0: 6df1 6e3e 7b36 803e 41ac 3abc 2b8b 39be
000003f0: 986a d43e 4f2d 9ebd 6b59 bebf d91e ed3d

onnx::LSTM_326 f4 [1, 512]
1.3607258 0.29823282 -0.71678406 -0.684415 -0.9146751 -0.36711442 -0.5772687 -0.8030474
-0.4838932 -1.0960311 -0.18537512 -0.6866934 -0.39381573 5.202717e-06 -0.7079551 -0.11434203
-0.8406558 -0.6314796 -0.46015027 -0.54827327 -0.591728 -0.39983794 -0.5334344 -0.2777844
-0.34470218 0.61953294 -0.5690566 -0.5662321 -0.6628049 -0.2275771 -0.75733036 -0.93997276
-0.12706247 -0.405574 -0.34185287 -0.4396641 -0.7919594 -0.76450616 -0.6000112 -0.38824022
-0.81247765 -0.012997603 -0.30234432 -0.5011775 -0.6088173 -0.85935026 -0.6080562 -0.3426244
-0.9301428 -0.6251125 -0.25105125 -0.77606815 -0.54284865 -0.7178612 -0.9389546 -0.88225436
-0.7339572 -0.5365355 -0.6556144 -0.49767375 -0.48407733 -0.7426555 1.1424099 -0.45451146
1.5638411 0.34224123 -0.8292428 -0.59530723 -0.928231 -0.064565524 -0.85780996 -0.785175
-0.6282882 -0.91744256 -0.2989804 -0.7900698 -0.4243981 -0.16135336 -0.9143884 -0.059704185
-0.93931216 -0.7665718 -0.491676 -0.5445889 -0.7668883 -0.43131572 -0.62289244 -0.14295119
-0.5470395 0.5443826 -0.5472395 -0.7289027 -0.9257018 -0.4310643 -1.0330696 -0.90164864
-0.35503936 -0.59370655 -0.43576306 -0.39712888 -0.8433762 -0.96165025 -0.59383035 -0.34786615
-0.8795203 -0.15277281 -0.57537246 -0.7023944 -0.64998424 -0.71507823 -0.6360293 -0.25794074
-0.8521923 -0.6150341 -0.5858734 -1.1922752 -0.79127103 -0.7492079 -1.0911096 -0.8223382
-0.49439743 -0.70422465 -0.66704786 -0.5136343 -0.5892674 -0.84465533 1.3290486 -0.3339735
-0.5777826 0.4290492 -1.0230381 -0.36484453 -0.2777072 -0.6718386 -0.1255478 -0.35827416
-0.047100957 -0.5456017 -0.43115157 -0.53281355 -0.06905254 -0.53111726 -0.057933632 -0.59050876
-0.6197378 -0.41718653 -0.47358546 -0.38399386 -0.8552364 1.0291429 -0.06291133 -0.55020845
-0.33334312 -0.52468723 -1.0701959 -0.3168822 -0.4793024 -0.21860644 -0.55971515 -0.48580712
0.09092085 -0.5157849 -0.81970346 -0.08625006 -0.24865264 -0.05360934 -0.25122234 -0.032810275
-0.31665453 -1.1722583 -0.45774657 0.1210711 -0.33868814 -0.6253654 -0.18160832 -0.315818
-0.22267908 -0.1669083 -0.29540104 -0.09125932 -0.4883078 -0.5845775 -0.039784286 -0.34256992
-0.26423615 -0.25912142 -0.3351211 0.2868676 -1.0348098 -0.44647807 -0.86244565 -0.581458
0.40173456 -0.19723076 0.09519516 0.23021966 -0.0106431125 0.13084027 -0.06952284 0.10491005
0.04929828 -0.0029382706 -0.21125537 -0.05810942 0.0021542364 0.18733068 -0.10046278 -0.308657
-0.06682511 -0.09845926 -0.146249 -0.07091704 -0.15870385 -0.14152294 0.010822438 -0.36327997
-0.05254005 -0.24157637 0.14403024 -0.10482071 0.0083805155 0.06355437 -0.09379392 0.03375866
0.19265577 0.16038361 -0.059956226 -0.14794938 0.07972343 -0.0030549963 -0.14467889 -0.06638673
0.12522027 -0.19218203 -0.12996341 0.08988236 -0.17912446 -0.2092454 0.09813088 -0.16754925
-0.06366192 -0.037895788 0.15439929 -0.025246073 -0.13809812 0.17194824 0.15502149 -0.03405357
-0.049650382 0.07858986 0.15992413 0.1416909 -0.12444755 0.09602368 0.29812637 0.25097507
00000000: 432c ae3f f9b1 983e 297f 37bf d235 2fbf
00000010: 2628 6abf 6cf6 bbbe e2c7 13bf 8494 4dbf
00000020: d9c0 f7be bf4a 8cbf fad2 3dbe 23cb 2fbf
00000030: 37a2 c9be 0093 ae36 8c3c 35bf 272c eabd
00000040: 3835 57bf a6a8 21bf d198 ebbe a35b 0cbf
00000050: 7c7b 17bf 8fb7 ccbe 288f 08bf c239 8ebe
00000060: ce7c b0be b699 1e3f b1ad 11bf 96f4 10bf
00000070: 95ad 29bf f909 69be 67e0 41bf 0ea2 70bf
00000080: aa1c 02be 65a7 cfbe 5707 afbe a71b e1be
00000090: dabd 4abf adb6 43bf 569a 19bf 6cc7 c6be
000000a0: 89fe 4fbf e6f3 54bc e0cc 9abe 2b4d 00bf
000000b0: 73db 1bbf 61fe 5bbf 92a9 1bbf 776c afbe
000000c0: d71d 6ebf 5f07 20bf ca89 80be 67ac 46bf
000000d0: 21f8 0abf c0c5 37bf 545f 70bf 6cdb 61bf
000000e0: 9ee4 3bbf 645a 09bf 58d6 27bf 18cf febe
000000f0: fcd8 f7be ac1e 3ebf 7d3a 923f bab5 e8be
00000100: f22b c83f 3e3a af3e 4249 54bf 0e66 18bf
00000110: 8ca0 6dbf ee3a 84bd 6f99 5bbf 3b01 49bf
00000120: 7fd7 20bf 84dd 6abf f613 99be 0442 4abf
00000130: b54a d9be d139 25be 5c15 6abf 608c 74bd
00000140: c376 70bf 0d3e 44bf f5bc fbbe 2e6a 0bbf
00000150: cb52 44bf 6ad5 dcbe e175 1fbf cc61 12be
00000160: c80a 0cbf a85c 0b3f e317 0cbf 5e99 3abf
00000170: cbfa 6cbf 76b4 dcbe a03b 84bf 72d2 66bf
00000180: b8c7 b5be 27fd 17bf 561c dfbe 7a54 cbbe
00000190: 81e7 57bf b62e 76bf 4405 18bf 831b b2be
000001a0: 3e28 61bf 7a70 1cbe 9c4b 13bf 1fd0 33bf
000001b0: 5e65 26bf 5e0f 37bf d1d2 22bf cf10 84be
000001c0: 4629 5abf e072 1dbf cdfb 15bf 799c 98bf
000001d0: bd90 4abf 17cc 3fbf 7ba9 8bbf c284 52bf
000001e0: a921 fdbe 1148 34bf a6c3 2abf 8a7d 03bf
000001f0: 3ada 16bf 553b 58bf 441e aa3f 93fe aabe
00000200: 8fe9 13bf 56ac db3e eaf2 82bf e7cc babe
00000210: a32f 8ebe 9dfd 2bbf 9a8f 00be b66f b7be
00000220: efec 40bd 8eac 0bbf e6bf dcbe 7866 08bf
00000230: 6b6b 8dbd 4df7 07bf d14b 6dbd 952b 17bf
00000240: 23a7 1ebf 7999 d5be cb79 f2be d89a c4be
00000250: c6f0 5abf f4ba 833f a8d7 80bd 76da 0cbf
00000260: f3ab aabe e751 06bf 2efc 88bf 623e a2be
00000270: 2067 f5be 5eda 5fbe 7e49 0fbf b6bb f8be
00000280: b634 ba3d 7b0a 04bf 16d8 51bf dfa3 b0bd
00000290: cc9e 7ebe 7895 5bbd 37a0 80be 1164 06bd
000002a0: 8b20 a2be 8f0c 96bf c25d eabe 20f4 f73d
000002b0: 8868 adbe f217 20bf 88f7 39be e6b2 a1be
000002c0: fc05 64be 02ea 2abe ce3e 97be 2be6 babd
000002d0: 7b03 fabe dfa6 15bf d9f4 22bd 5365 afbe
000002e0: f649 87be 90ab 84be fe94 abbe 4fe0 923e
000002f0: a674 84bf c698 e4be 3dc9 5cbf 6eda 14bf
00000300: 27b0 cd3e dcf6 49be aef5 c23d b4be 6b3e
00000310: 7360 2ebc fefa 053e fe61 8ebd 15db d63d
00000320: feec 493d 0090 40bb 5453 58be 2504 6ebd
00000330: 172e 0d3b 9dd3 3f3e 6ebf cdbd 4a08 9ebe
00000340: 9adb 88bd 02a5 c9bd 4cc2 15be f43c 91bd
00000350: 4383 22be 64eb 10be 9850 313c d5ff b9be
00000360: 3c34 57bd cc5f 77be aa7c 133e 3eac d6bd
00000370: 6e4e 093c cb28 823d 0717 c0bd 8546 0a3d
00000380: 8e47 453e 9a3b 243e a994 75bd 0b80 17be
00000390: 0a46 a33d 5536 48bb b426 14be c4f5 87bd
000003a0: be39 003e 5ecb 44be 2115 05be 3e14 b83d
000003b0: 676c 37be 6d44 56be d8f8 c83d 0892 2bbe
000003c0: 2e61 82bd 9d38 1bbd d91a 1e3e dad0 cebc
000003d0: 9869 0dbe 3313 303e f4bd 1e3e c27b 0bbd
000003e0: 335e 4bbd b8f3 a03d 27c3 233e 6b17 113e
000003f0: 5bde febd 10a8 c43d 05a4 983e ce7f 803e

onnx::LSTM_348 f4 [1, 256, 64]
2.5262842 0.1069937 -0.37315822 -0.016547961 0.3080772 -1.172175 -0.175149 0.56418943
-0.33071658 -0.5915452 -0.7501611 -0.7669281 -1.0062925 0.9533403 -0.26903394 -0.7560988
0.79510385 0.6081446 -0.6732827 -0.7101513 0.3990406 -0.4260113 -0.1321107 -1.3299842
0.9180568 -0.027750954 0.8624084 0.47278586 -0.51625395 -0.59683573 1.3148525 -1.0608077
-0.46247846 0.4100911 0.03179934 -0.7290177 -0.20542982 -0.39582187 -0.55402255 -0.77216417
-0.48381662 -0.6679451 -0.958403 0.31977996 0.54514945 0.91883653 0.09515618 -1.1825546
-0.61246413 0.30538404 -0.29576695 0.9602463 -0.4200673 0.09146163 -0.53876394 -0.34634197
0.4457574 0.5450912 -0.53779256 -0.6611649 0.71000427 0.34961912 1.7480782 0.060775492
0.6536371 -1.4503163 0.2539115 0.46855566 0.02342819 1.036203 0.28495762 0.18529566
-0.08771408 -0.16066155 -0.16700034 0.12066108 -0.09761302 0.26593152 -0.64715445 -0.024737248
-0.14254355 -0.09054267 -0.06252326 0.18405752 -0.18950343 0.9060707 0.014121477 -0.0556916
0.025051074 -0.23258172 -0.22987413 -0.103613 0.28179613 0.19457524 -0.112713106 0.13087703
-0.17071941 0.09164653 -0.06641305 -0.05371882 0.015125924 0.0906308 0.13092114 0.018188646
-0.10899327 -0.15961836 -0.049161196 -0.06124678 0.01206108 0.14478083 -0.09776494 -0.010430539
0.05472014 0.07004637 0.027013041 -0.07916245 -0.09280332 -0.14886394 -0.0049962234 0.031794794
0.0984928 -0.09171917 0.32132697 -0.122016534 0.104657605 0.23518637 -0.04941587 0.1420698
0.8829764 -1.0210341 0.04747323 0.34825355 0.24412808 -1.8912479 0.13502051 0.3287506
0.030730037 0.22366065 -0.28863046 0.08240018 -0.0014798522 0.49247953 -0.575333 -0.31535023
0.102572426 -0.090103745 -0.026085693 0.0942339 -0.48562473 0.52398974 -0.10300802 -0.6515793
-0.13702996 -0.065539345 -0.27323583 0.0036256928 -0.19395573 0.030468734 -0.16333698 -0.01178881
0.18164225 0.2172178 -0.30867073 0.17560987 0.14228763 -0.11068809 0.12722276 -0.23869354
-0.12643538 -0.61160946 -0.32283217 0.07075132 -0.036683943 -0.25834665 -0.19565722 -0.11091273
0.100472316 -0.026115842 0.031935327 -0.1419661 0.22960961 0.2139016 -0.03413617 -0.1602988
0.1946444 0.18974897 0.56192976 0.290841 0.21069522 -0.14011638 -0.12077777 -0.053694062
0.93666846 -1.3264551 0.5537159 0.6063143 0.18887807 1.4815804 0.35777074 0.47345966
0.08075584 -0.12271715 -0.49605852 0.046887018 -0.073353745 0.27604622 -0.8433644 -0.22686723
-0.17587715 -0.22767866 0.08753129 0.09243917 -0.27372757 0.24206007 -0.12804961 0.062282257
-0.18503773 -0.26574928 -0.0353339 -0.44904855 0.25565493 0.1186221 -0.1145953 0.10363991
0.027830651 0.2225716 -0.10844735 0.10926656 0.06203794 0.11881823 0.08405944 -0.10833475
-0.036096804 -0.6026432 -0.10457565 0.10226467 -0.19661255 0.2775717 0.067885555 0.03148933
-0.111286804 -0.010858647 0.040701605 -0.32256755 0.13794616 -0.18276106 -0.107040726 -0.10689428
-0.091769084 0.062974066 0.69277376 0.104002096 -0.26320735 0.38659823 -0.020753494 0.11942676
00000000: a4ae 2140 831f db3d 980e bfbe 978f 87bc
00000010: 4bbc 9d3e d509 96bf 425a 33be b86e 103f
00000020: af53 a9be 826f 17bf 8f0a 40bf 6655 44bf
00000030: 31ce 80bf 1c0e 743f d1be 89be b18f 41bf
00000040: ed8b 4b3f 5daf 1b3f 415c 2cbf 7acc 35bf
00000050: 0d4f cc3e 271e dabe 0748 07be ec3c aabf
00000060: c505 6b3f f855 e3bc ccc6 5c3f fd10 f23e
00000070: 3829 04bf 3aca 18bf 164d a83f 8cc8 87bf
00000080: fac9 ecbe 76f7 d13e 0640 023d e7a0 3abf
00000090: 325c 52be 2aa9 cabe 6cd4 0dbf 8dac 45bf
000000a0: d0b6 f7be 73fe 2abf e659 75bf 33ba a33e
000000b0: ea8e 0b3f df38 6b3f 3ee1 c23d f35d 97bf
000000c0: 73ca 1cbf 4c5b 9c3e c46e 97be b4d2 753f
000000d0: 1013 d7be 3c50 bb3d 6fec 09bf bc53 b1be
000000e0: 503a e43e 198b 0b3f c6ac 09bf 1a42 29bf
000000f0: d7c2 353f 4701 b33e 07c1 df3f b9ef 783d
00000100: c354 273f f7a3 b9bf b000 823e 87e6 ef3e
00000110: 7aec bf3c 4da2 843f f7e5 913e 25be 3d3e
00000120: 71a3 b3bd 7684 24be 2302 2bbe 281d f73d
00000130: 56e9 c7bd 2d28 883e eaab 25bf c5a5 cabc
00000140: f0f6 11be 6f6e b9bd 320c 80bd 9379 3c3e
00000150: 300d 42be 40f4 673f c45d 673c e01c 64bd
00000160: e937 cd3c e729 6ebe 2064 6bbe 0d33 d4bd
00000170: 9547 903e bb3e 473e 21d6 e6bd a104 063e
00000180: 12d1 2ebe 2db1 bb3d 9103 88bd 4408 5cbd
00000190: b9d2 773c a49c b93d 3110 063e 5b00 953c
000001a0: dd37 dfbd ff72 23be 405d 49bd e7dd 7abd
000001b0: d69b 453c 6d41 143e fc38 c8bd dae4 2abc
000001c0: 3a22 603d 7974 8f3d 744a dd3c ec1f a2bd
000001d0: ab0f bebd ca6f 18be 5cb7 a3bb 423b 023d
000001e0: 98b6 c93d 43d7 bbbd f884 a43e cee3 f9bd
000001f0: ba56 d63d b2d4 703e 4c68 4abd bf7a 113e
00000200: be0a 623f 3fb1 82bf 4a73 423d 4a4e b23e
00000210: b6fc 793e 6914 f2bf d142 0a3e 0052 a83e
00000220: 8fbd fb3c 4c07 653e 5fc7 93be 6dc1 a83d
00000230: 9af7 c1ba 4726 fc3e 0649 13bf 9675 a1be
00000240: 7e11 d23d 5088 b8bd aab1 d5bc b4fd c03d
00000250: cea3 f8be 3124 063f def5 d2bd e7cd 26bf
00000260: 9551 0cbe 7e39 86bd 91e5 8bbe 089d 6d3b
00000270: 559c 46be 9199 f93c cf41 27be da25 41bc
00000280: 6d00 3a3e 586e 5e3e 170a 9ebe 13d3 333e
00000290: d9b3 113e 70b0 e2bd af46 023e 146c 74be
000002a0: 4778 01be 7092 1cbf 424a a5be 11e6 903d
000002b0: e741 16bd 0346 84be 5e5a 48be 3726 e3bd
000002c0: 6ec4 cd3d e4f0 d5bc 9ece 023d 905f 11be
000002d0: c81e 6b3e 0509 5b3e 5ed2 0bbd 5e25 24be
000002e0: dd50 473e 8e4d 423e a1da 0f3f 1de9 943e
000002f0: 7dc0 573e ab7a 0fbe 565a f7bd 4eee 5bbd
00000300: 81c9 6f3f 48c9 a9bf 53c0 0d3f 6a37 1b3f
00000310: 4169 413e 6da4 bd3f ba2d b73e 4e69 f23e
00000320: 5163 a53d 2153 fbbd 62fb fdbe 9a0c 403d
00000330: 7d3a 96bd ee55 8d3e bbe6 57bf e24f 68be
00000340: 2419 34be 9824 69be 9b43 b33d bf50 bd3d
00000350: 0526 8cbe 98de 773e 701f 03be ae1b 7f3d
00000360: 887a 3dbe 4a10 88be 48ba 10bd b1e9 e5be
00000370: 34e5 823e 25f0 f23d f1b0 eabd 2941 d43d
00000380: 1bfd e33c cfe9 633e a519 debd 25c7 df3d
00000390: 7f1b 7e3d f956 f33d 5b27 ac3d 9cde ddbd
000003a0: 3eda 13bd d346 1abf c22b d6bd 2470 d13d
000003b0: cd54 49be e11d 8e3e 9507 8b3d f5fa 003d
000003c0: 56ea e3bd 77e8 31bc bab6 263d 9327 a5be
000003d0: c241 0d3e b725 3bbe 2b38 dbbd 63eb dabd
000003e0: 6ef1 bbbd 8cf8 803d 9f59 313f 0dff d43d
000003f0: 1dc3 86be 34f0 c53e 3b03 aabc 0496 f43d

onnx::LSTM_349 f4 [1, 256, 64]
0.9550565 0.030092517 0.23562363 -0.18386121 -0.60469496 0.35290918 0.3794333 -0.48999584
0.017722556 0.7695299 1.9865394 -0.8616108 0.079917215 -0.295073 -1.0003401 -0.17147002
-0.99806744 0.4196997 -0.24402522 1.5985554 -0.56085044 0.2919722 0.68900096 -0.2194696
-1.758456 0.31304362 0.7472939 -0.22963604 1.3761566 -0.28743 -0.01598357 -0.18402056
-0.22234923 1.6220404 -0.82302743 -0.26846358 -0.2994267 -0.057490293 0.0031583316 0.44360685
0.26260167 -0.08144716 0.15432821 -0.27787414 -0.33581036 0.09790693 0.048935153 0.032016836
0.5210528 1.0983369 0.3964506 0.083902836 -2.3263612 0.28238803 1.5629786 -0.5266525
-0.19291864 -0.18130496 -0.31203657 0.49771005 -0.10023466 0.65764576 0.49071684 1.2725594
-0.10905052 0.11054527 -0.010453805 0.11374567 -0.29930976 -0.07416601 0.10951607 0.18975207
0.12107831 0.5280767 -0.32933682 0.2638189 0.0007816446 -0.018011123 -0.10372466 -0.12950595
-0.020894237 0.06885993 0.15879221 0.39604473 0.02606538 -0.18282945 0.17208184 -0.14913136
0.201748 -0.052005604 -0.008488923 -0.014389316 -0.024981365 0.21257706 0.052916497 0.040763583
0.10929325 0.48484713 0.07315516 -0.19132517 -0.13920623 0.038010888 -0.084850766 -0.103112884
-0.35625598 -0.1241447 0.09963517 -0.08499098 0.13679501 0.09607162 -0.23223232 0.065604456
0.13366307 0.4951747 -0.119210586 -0.00089838245 -0.6897315 -0.10430805 0.012934957 -0.14221887
0.07690698 0.5679126 0.015336718 0.06359287 -0.003082958 0.095572256 -0.022023037 -0.009569555
-0.06249872 0.22128116 -0.045109704 -0.1630127 0.009606686 0.014018474 0.1617602 0.74289024
-0.069834545 -0.042961955 -1.037599 0.44851005 0.1868041 -0.21703136 -0.26032734 -0.14694434
-0.2544759 0.10662312 0.029334242 0.28657424 0.0045691254 -0.023691988 0.1595024 -0.17951216
0.46425125 -0.07296526 -0.07263035 -0.2202725 -0.6141059 -0.23928802 0.054004353 -0.0576043
-0.26180902 0.6555202 0.080344945 0.17557935 0.07282603 -0.20087205 0.12471272 -0.059313834
-0.11821463 -0.23371133 -0.1673066 0.054909065 -0.20208497 0.039545227 -0.044827204 -0.091461346
0.21444874 1.0359008 -0.1269864 0.13295488 -0.38907266 0.24324775 0.23790361 -0.108272694
-0.23246644 0.5808221 -0.24333468 -0.10300409 -0.07851056 -0.12715831 0.05576328 -0.47619137
-0.3362258 0.13639577 0.11564584 0.09836231 -0.20373087 0.14404815 -0.11176109 0.43434325
0.13565423 0.87479025 -0.5625298 0.50828975 0.08115143 -0.06416175 -0.07002707 0.08469134
-0.087553225 0.010892243 0.4065785 0.40768692 -0.097640425 -0.055034544 0.26747882 -0.2763691
0.42959386 0.16363403 -0.036778618 -0.12113212 -0.11875328 0.09287793 0.031358004 0.012711976
-0.027502934 0.7874045 0.114404485 -0.102713756 -0.06716746 -0.00798817 0.19613579 -0.024862943
-0.29828656 -0.29069343 0.11539976 -0.14779879 -0.08240608 -0.08584206 -0.03252043 0.080643475
0.3172306 0.32965526 0.05782144 0.07716039 -0.36248162 -0.069565535 0.19578518 0.04933698
0.013376213 0.79822636 -0.05510304 0.0034480884 0.08024034 0.08208138 -0.0073819426 -0.006540523
00000000: 957e 743f 9584 f63c 5247 713e 1d46 3cbe
00000010: 4acd 1abf 83b0 b43e 1545 c23e bce0 fabe
00000020: e52e 913c e9ff 443f ec46 fe3f 8692 5cbf
00000030: a3ab a33d cf13 97be 250b 80bf d695 2fbe
00000040: 5981 7fbf e1e2 d63e bfe1 79be 779d cc3f
00000050: e593 0fbf 617d 953e 5e62 303f a4bc 60be
00000060: 1615 e1bf 4147 a03e a74e 3f3f b625 6bbe
00000070: e625 b03f 062a 93be faef 82bc e36f 3cbe
00000080: 84af 63be 059f cf3f edb1 52bf 0f74 89be
00000090: 754e 99be f17a 6bbd 03fc 4e3b 7020 e33e
000000a0: ba73 863e c5cd a6bd 3708 1e3e 8545 8ebe
000000b0: 56ef abbe 6e83 c83d 3a70 483d 1624 033d
000000c0: b763 053f 4e96 8c3f 93fb ca3e 40d5 ab3d
000000d0: 1ae3 14c0 2a95 903e af0f c83f b3d2 06bf
000000e0: 778c 45be 02a8 39be 42c3 9fbe dad3 fe3e
000000f0: d447 cdbd 795b 283f 3d3f fb3e 3ae3 a23f
00000100: e155 dfbd 8f65 e23d 7046 2bbc 7df3 e83d
00000110: 213f 99be 59e4 97bd f649 e03d 5e4e 423e
00000120: e8f7 f73d 0930 073f d69e a8be 4513 873e
00000130: 48e7 4c3a 108c 93bc 986d d4bd 359d 04be
00000140: 642a abbc 6f06 8d3d 6d9a 223e 60c6 ca3e
00000150: 1087 d53c a537 3bbe 3936 303e e4b5 18be
00000160: 0797 4e3e d403 55bd 2015 0bbc 2ac1 6bbc
00000170: b8a5 ccbc cdad 593e f8be 583d b7f7 263d
00000180: 24d5 df3d e23d f83e 5fd2 953d bfea 43be
00000190: 148c 0ebe 4eb1 1b3d 3dc6 adbd d92c d3bd
000001a0: 2f67 b6be 943f febd 860d cc3d c00f aebd
000001b0: fe13 0c3e 33c1 c43d 4fce 6dbe a15b 863d
000001c0: f9de 083e 8a87 fd3e ae24 f4bd 6d81 6bba
000001d0: 3e92 30bf 759f d5bd 24ed 533c d3a1 11be
000001e0: 6881 9d3d b862 113f dc46 7b3c fb3c 823d
000001f0: 740b 4abb 63bb c33d a869 b4bc 9fc9 1cbc
00000200: a8fe 7fbd 8797 623e f4c4 38bd cdec 26be
00000210: 5d65 1d3c bead 653c 77a4 253e 0e2e 3e3f
00000220: 6a05 8fbd e0f8 2fbd 0bd0 84bf 1ca3 e53e
00000230: 9349 3f3e 783d 5ebe a049 85be 9478 16be
00000240: aa4a 82be 395d da3d 5d4e f03c dcb9 923e
00000250: 9ab8 953b b315 c2bc 9954 233e 09d2 37be
00000260: 57b2 ed3e cf6e 95bd 39bf 94bd 1d8f 61be
00000270: 0b36 1dbf eb07 75be ab33 5d3d 7df2 6bbd
00000280: d50b 86be 2cd0 273f e48b a43d 13cb 333e
00000290: d025 953d 67b1 4dbe 6269 ff3d 10f3 72bd
000002a0: 831a f2bd 0652 6fbe 6c52 2bbe 54e8 603d
000002b0: 5def 4ebe 2dfa 213d bb9c 37bd 1650 bbbd
000002c0: 7398 5b3e 6698 843f b908 02be 5325 083e
000002d0: 8834 c7be f015 793e 019d 733e 13be ddbd
000002e0: af0b 6ebe c2b0 143f ba2c 79be cff3 d2bd
000002f0: 25ca a0bd ca35 02be 0968 643d 5bcf f3be
00000300: ca25 acbe 55ab 0b3e bad7 ec3d 2e72 c93d
00000310: d39e 50be 5c81 133e 00e3 e4bd 3d62 de3e
00000320: f1e8 0a3e 41f2 5f3f f401 10bf 471f 023f
00000330: b932 a63d 3c67 83bd 5a6a 8fbd a772 ad3d
00000340: 1b4f b3bd 6175 323c 0f2b d03e 57bc d03e
00000350: b4f7 c7bd e76b 61bd fcf2 883e 4080 8dbe
00000360: baf3 db3e ae8f 273e 2da5 16bd 1e14 f8bd
00000370: eb34 f3bd c936 be3d 4071 003d e445 503c
00000380: d54d e1bc 5793 493f e64c ea3d 975b d2bd
00000390: 188f 89bd d0e0 02bc d2d7 483e 5fad cbbc
000003a0: 04b9 98be c5d5 94be b656 ec3d 9158 17be
000003b0: 85c4 a8bd f6cd afbd 2434 05bd 6828 a53d
000003c0: 0d6c a23e 93c8 a83e 2dd6 6c3d 4406 9e3d
000003d0: 3197 b9be 6078 8ebd e97b 483e 9315 4a3d
000003e0: e727 5b3c 9058 4c3f bab3 61bd 53f9 613b
000003f0: 0c55 a43d 481a a83d 39e4 f1bb e251 d6bb

onnx::LSTM_350 f4 [1, 512]
-0.19440086 -0.3043193 -0.32981917 -0.45573172 -0.39171815 -0.42411512 -0.25364125 0.046376303
-0.33775336 -0.050932217 0.567581 -0.5471803 -0.29674625 -0.40135604 -0.51908785 -0.23059438
-0.36904642 -0.7346741 -0.666864 0.19387619 -0.004694576 -0.2952559 -0.32070065 -0.52496624
-0.49347183 -0.45387435 -0.44935942 -0.6139074 -0.4977452 -0.8079418 -0.33422875 -0.13092785
-0.27408656 -0.48399872 -0.7151171 -0.20996277 -0.65653217 -0.3961531 -0.39671028 -0.24030791
-0.5143144 -0.96828055 -0.09546248 -0.16809113 -0.3547496 -0.49483964 -0.15159757 -0.45028144
-0.4478054 -0.75691456 -0.3202663 -0.28282633 -0.49243692 -0.36319628 -0.1340724 -0.9067838
-0.42028365 -0.28473035 -0.3675896 -0.45015195 -0.35337943 -0.27070814 -0.65509784 -0.14520697
-0.30251122 -0.33978638 -0.27570626 -0.2670172 -0.17983297 -0.3647594 -0.41468695 0.04879873
-0.37914166 -0.26350263 0.5600164 -0.617061 -0.28262064 -0.381006 -0.5124336 -0.29409945
-0.3697898 -0.8877681 -0.793692 0.010381465 -0.2640968 -0.23587853 -0.3204208 -0.28988883
-0.5729917 -0.3738799 -0.3934697 -0.66691554 -0.57864696 -0.786211 -0.23505968 -0.19418868
-0.33279914 -0.36717835 -0.9195642 -0.28402552 -0.8090476 -0.24839997 -0.35569787 -0.12180167
-0.6119909 0.00094557647 -0.20420274 -0.30936715 -0.48300278 -0.47443733 -0.29755655 -0.47177434
-0.14106688 -0.5495524 -0.3837129 -0.45990872 -0.5090055 -0.19624431 -0.09914294 -0.7096136
-0.25502995 -0.39294636 -0.5234275 -0.3833167 -0.23903708 -0.049650706 -0.53030723 -0.35575137
-1.1192553 -0.19241457 -0.008109023 0.0051162955 -0.42343614 -0.028310802 -0.010078516 -0.38200146
-0.10049015 -1.051533 -0.88442266 -0.63775486 -0.21172243 -0.22594438 -0.6135054 -0.18701927
-0.2869067 -0.4978088 -0.218338 -0.6504285 -0.5041203 -0.19921139 -0.19659437 -0.070157215
-0.5652832 -0.17248276 -0.099259965 -0.3608406 -0.19936234 -0.6623572 -0.23558763 -0.21634963
-0.0019221548 -0.78353053 -0.5419211 -0.3315498 -0.8360586 -0.23072217 -0.07414236 -0.10530292
-0.55608404 0.21392205 -0.09349236 -0.18349928 -0.46461156 -0.04459453 -0.20846424 -0.31046715
0.17378843 -0.2845855 -0.27865544 -0.2448459 -1.1797843 -0.21165971 -0.43543577 -0.37184578
-0.13841079 -0.8493205 -0.420899 -0.40465003 -0.18721731 -0.30705178 -0.21117118 -0.63251126
-0.13748553 -0.020853888 -0.1611881 0.031995133 -0.13875459 -0.16256505 -0.1030719 -0.04443335
0.017237583 0.29484898 0.21731918 0.08900645 -0.11762506 -0.04172376 -0.069615185 0.20254707
-0.15153746 0.13828759 0.07978136 0.1061945 -0.13873914 0.1253658 0.24826561 -0.16576432
0.03267705 0.20599547 -0.15823731 -0.07345475 -0.031740684 -0.14222379 0.06490713 0.014187257
0.10204954 0.14398189 -0.04465703 -0.1288097 -0.06894424 0.12834907 -0.0649215 0.051524956
-0.13853715 -0.052412555 0.25840145 -0.16886328 0.008074675 -0.09697646 0.18111254 0.09170702
-0.065314256 0.4420345 -0.11947146 -0.06137678 -0.12057775 -0.13286985 0.32734743 -0.089810796
0.06147953 0.06609683 -0.061800018 0.059888918 0.10799553 0.15119034 -0.06856626 0.20385562
00000000: 0511 47be bdcf 9bbe 0fde a8be ab55 e9be
00000010: 488f c8be 9e25 d9be 44dd 81be 14f5 3d3d
00000020: 02ee acbe 4d9e 50bd fd4c 113f 0214 0cbf
00000030: 20ef 97be 8a7e cdbe f1e2 04bf ef20 6cbe
00000040: a7f3 bcbe 9a13 3cbf 99b7 2abf 7b87 463e
00000050: f5d4 99bb c82b 97be e032 a4be 3064 06bf
00000060: 57a8 fcbe 3862 e8be 7012 e6be 0929 1dbf
00000070: 75d8 febe 46d5 4ebf 0820 abbe f311 06be
00000080: 1355 8cbe aece f7be ea11 37bf 7b00 57be
00000090: 7e12 28bf 94d4 cabe 9c1d cbbe 4713 76be
000000a0: 1caa 03bf 3ce1 77bf d581 c3bd 1520 2cbe
000000b0: bda1 b5be 9f5b fdbe 653c 1bbe 4a8b e6be
000000c0: c046 e5be 27c5 41bf f2f9 a3be 9dce 90be
000000d0: b120 fcbe ddf4 b9be 464a 09be fc22 68bf
000000e0: 6b2f d7be 2dc8 91be b434 bcbe 517a e6be
000000f0: 26ee b4be 429a 8abe 7eb4 27bf 23b1 14be
00000100: c0e2 9abe 7bf8 adbe 5f29 8dbe 7ab6 88be
00000110: 2226 38be bec1 babe d951 d4be 2de1 473d
00000120: db1e c2be d1e9 86be 3c5d 0f3f b6f7 1dbf
00000130: a7b3 90be 3813 c3be d92e 03bf 3494 96be
00000140: 1755 bdbe c544 63bf 662f 4bbf 0517 2a3c
00000150: b237 87be 248a 71be 320e a4be 4f6c 94be
00000160: 96af 12bf 306d bfbe dc74 c9be faba 2abf
00000170: 3522 14bf 2045 49bf 7cb3 70be 66d9 46be
00000180: a664 aabe cdfe bbbe 8f68 6bbf cb6b 91be
00000190: be1d 4fbf 905c 7ebe 081e b6be 2773 f9bd
000001a0: 70ab 1cbf 90e0 773a 861a 51be 5f65 9ebe
000001b0: 244c f7be 73e9 f2be 5559 98be 688c f1be
000001c0: d673 10be 77af 0cbf 0476 c4be 2879 ebbe
000001d0: 2f4e 02bf 45f4 48be 740b cbbd 3da9 35bf
000001e0: 4993 82be 4430 c9be 58ff 05bf 1642 c4be
000001f0: 23c6 74be 8a5e 4bbd 37c2 07bf 0b25 b6be
00000200: c243 8fbf 5308 45be b5db 04bc 99a6 a73b
00000210: 9fcc d8be 0eec e7bc 5c20 25bc b295 c3be
00000220: c8cd cdbd a298 86bf 8669 62bf e743 23bf
00000230: c4cd 58be f75d 67be b10e 1dbf fb81 3fbe
00000240: 6fe5 92be cce0 febe ff93 5fbe 7b82 26bf
00000250: 070e 01bf 12fe 4bbe 0950 49be 96ae 8fbd
00000260: 66b6 10bf 529f 30be cf48 cbbd 19c0 b8be
00000270: a425 4cbe 3e90 29bf e23d 71be c28a 5dbe
00000280: d0f0 fbba 7595 48bf 57bb 0abf e5c0 a9be
00000290: f007 56bf 6f42 6cbe f3d7 97bd 0fa9 d7bd
000002a0: 865b 0ebf 620e 5b3e ec78 bfbd 3ce7 3bbe
000002b0: 91e1 edbe c1a8 36bd a677 55be 8df5 9ebe
000002c0: 98f5 313e 31b5 91be edab 8ebe e2b8 7abe
000002d0: 2c03 97bf 53bd 58be 70f1 debe 9262 bebe
000002e0: 8fbb 0dbe 116d 59bf 1380 d7be 4a2e cfbe
000002f0: e5b5 3fbe e435 9dbe 423d 58be 42ec 21bf
00000300: 02c9 0cbe c6d5 aabc 7e0e 25be 540d 033d
00000310: af15 0ebe 7477 26be 5c17 d3bd bfff 35bd
00000320: d535 8d3c 72f6 963e eb88 5e3e 0349 b63d
00000330: 68e5 f0bd 89e6 2abd 6892 8ebd 8068 4f3e
00000340: a32c 1bbe 439b 0d3e 6964 a33d 817c d93d
00000350: a211 0ebe e45f 003e 5739 7e3e 1fbe 29be
00000360: 5fd8 053d 7af0 523e f608 22be 726f 96bd
00000370: 8502 02bd 1da3 11be 08ee 843d ab71 683c
00000380: 59ff d03d fd6f 133e 4aea 36bd b1e6 03be
00000390: a332 8dbd f06d 033e 90f5 84bd d50b 533d
000003a0: afdc 0dbe 8cae 56bd 324d 843e 7fea 2cbe
000003b0: a44b 043c 989b c6bd 9175 393e e4d0 bb3d
000003c0: 7bc3 85bd 5952 e23e 74ad f4bd 3866 7bbd
000003d0: 78f1 f6bd 090f 08be 159a a73e b9ee b7bd
000003e0: f6d1 7b3d c65d 873d 0422 7dbd 154e 753d
000003f0: c32c dd3d a4d1 1a3e 786c 8cbd 87bf 503e
