notebook/model/lstm_12_step_Ia.onnx (onnx, 812397 bytes, 9 tensors)

fc1.weight f4 [16, 128]
00000000: 9726 073e 1ab6 673e 0b65 01be efe0 61be
00000010: 4066 653f 649d aabd f538 02bf 92b6 07be
00000020: db0a 73be 6b58 ecbd 2cb9 9fbe aa0a 36be
00000030: 3e83 4fbe 5a80 7dbe 469c 153e 464f 23be
00000040: 030f 11be 18c0 fa3d 7962 d93d bd27 1e3e
00000050: 8397 0e3e f92e 293e d892 a4be f1be f53d
00000060: 4ac2 1e3e 8d61 17be ed1e 193e 74ec 0c3e
00000070: 99a1 0e3e bd2b 29be 17c6 2abe cccc 9a3e
00000080: 8898 1fbe f561 17be 5cb2 23be 5236 3a3e
00000090: 4cc9 92bd 4351 37be f8e7 c73d 9b93 1d3e
000000a0: 75b7 a7bd abfc 2a3e c857 513e 7ebd 383e
000000b0: 447b af3d 4234 f0bd c8e2 363e 92a0 0b3e
000000c0: d49e b5bd 8a98 05be 747c 113e 682d aebd
000000d0: 22a4 27be cb67 983e f0c1 363e aa6c 293e
000000e0: 49f1 e13d 6181 0b3e 0ca3 8a3e e2a9 2b3e
000000f0: fcf1 cc3e d66a 253e b56b 1c3e 2568 053e
00000100: 4582 d5bd 4787 7c3d d243 0d3e fa37 c3bd
00000110: 6eea 10be 1560 22be f2cc 2e3e 09ee b93e
00000120: 39eb 82be b81a e93d b0ce 15be 7d77 20be
00000130: 2a8d 893e f70b 3d3e 7757 723e 9a15 373d
00000140: 36f8 603d a464 403e c280 d9bd 4561 2f3e
00000150: 6460 203e 4706 02be e8e5 603e f210 07be
00000160: 392c 17be 52a1 2a3e 4bd5 193e 833b 0abe
00000170: cba5 0ebe de84 273e 18af f83d 2086 3cbc
00000180: 8f58 9cbc 0a5e 15be 7472 653d 3ce1 cfbd
00000190: 5dd9 12be 922b e1bd 2bc0 42be deba 13be
000001a0: 8125 2fbe dcd3 653e 727d 013e 0830 4a3d
000001b0: f957 2abe ede5 243e 05cf fbbd 7015 333e
000001c0: 33aa 033e 80fc 20be 6c6c febd d779 2abe
000001d0: db08 f43d e4a6 35be 058f 573e f858 0a3e
000001e0: f512 b2bd cd5f 4bbe 004d 63be 3d99 b73d
000001f0: 614f 2d3f 8b12 0cbe 5c57 163e bc26 f8bd
00000200: fa6a 21bd 3afe 50bd cb7c 6cbd 80b0 693d
00000210: c9d1 e03c baff 4b3d 7267 2c3d 4bb1 1c3d
00000220: 22a5 f23d e1ec aebc e18b 1bbd 96d5 9d3d
00000230: 6f7a 513d e814 753d bfbe d33b 6146 d8ba
00000240: 1534 dfbb 1e8e 14bd 1441 08bd 13af bf3d
00000250: 6f57 be3c bc7c b33d 987f 01be c301 8f3c
00000260: 2fa3 923d fffc 59bd de24 903d 5920 8a3c
00000270: 7c3a c53d 0432 1db8 2793 2abd 884f c4bc
00000280: e6f8 c13c 9028 00be 99a1 78bc eb83 c6bb
00000290: 44fe e83c f4e1 41bd a385 ecbc f78c e6bc
000002a0: 90b1 f43b 1cda 8e3d f789 cd3d 3571 383d
000002b0: c2bf b83d 3e53 4a3d ff9b 203d a822 a53c
000002c0: 5815 d9b8 2986 133d 1c21 6cbd 1898 a93c
000002d0: d6ef dcbd 7a4e b83c 7333 2fbc 2326 04be
000002e0: 8c26 863c 3ca4 193d c76a 04bd 30db e53d
000002f0: 6412 3ebb 8213 123d 3a93 afbc 4760 be3c
00000300: 0da9 4bbd 915b 8abc 7439 c5bc 0c43 c13c
00000310: a006 003c 075b d6bc c4b0 fd3d 43c3 043e
00000320: a66a 573d 04e8 a5bc 33f5 863d 724b 043e
00000330: 09d9 073d 309d 563d d88e c1bd 7125 2abd
00000340: f0bd c6bc 7087 35bd 7ff8 08bd dc95 2b3d
00000350: 178e 75bd 6182 17bd d913 993d 57d5 ab3d
00000360: bb4d 4abc bde8 963d fd15 1bbd c443 29bd
00000370: 02b0 aabd 72e7 2abd 95fe 023d 4760 063d
00000380: 5a66 b5bc 289a 6bbd ea1a 13bc f2d0 edbb
00000390: 494f 023e c33a a53d ae34 c53d 6a3c c4bc
000003a0: 0808 5ebd e153 04be ff0f 6ebd 7029 923c
000003b0: aa13 553d 4279 7f3d 582d acbc 81b7 c6bb
000003c0: d631 1a3c 02be b8bd 58c8 b0bc d0e3 0b3d
000003d0: b325 7cbd 1880 d83d 3f06 993e 7053 83bd
000003e0: 8e15 74bd e45a aa3c 8b1a 2c3d f5f1 5e3b
000003f0: 0fb2 c93d 0bc6 1abc 2177 c83c 82d1 23bc
0.13198315 0.2262806 -0.12636201 -0.22058462 0.89609146 -0.08330801 -0.5086816 -0.13253239
-0.2373461 -0.11540302 -0.31195962 -0.17777506 -0.20264909 -0.24755993 0.14610395 -0.15948209
-0.14165883 0.1224367 0.10614485 0.15444846 0.13924985 0.16521825 -0.32143283 0.1199931
0.15503803 -0.14783306 0.14953203 0.13762075 0.13928832 -0.16520591 -0.16677128 0.30234373
-0.1558553 -0.14783461 -0.15986007 0.18184784 -0.071673006 -0.17902093 0.097610414 0.15388338
-0.081892885 0.16697948 0.20443642 0.18041036 0.08568433 -0.117287174 0.17859948 0.13635471
-0.08868185 -0.1304647 0.14207631 -0.08504754 -0.16371205 0.29766688 0.17847419 0.16545358
0.110323496 0.13623573 0.2707752 0.16764024 0.4002837 0.16154036 0.15275462 0.13028009
-0.104252376 0.061652448 0.13795403 -0.09532161 -0.14151928 -0.15856965 0.17070368 0.3631442
-0.25570086 0.11382049 -0.14629626 -0.15670581 0.26865512 0.18461595 0.23666178 0.044698335
0.054924212 0.18788391 -0.10620262 0.17126949 0.1566177 -0.12697707 0.21962702 -0.13190058
-0.14762963 0.16663101 0.15022771 -0.13499264 -0.13930432 0.16359279 0.121427715 -0.011506587
-0.019085197 -0.14586654 0.056017354 -0.10150382 -0.1434073 -0.109946385 -0.19018619 -0.14426753
-0.1710415 0.22444099 0.1264551 0.049362212 -0.16635121 0.16103335 -0.12295345 0.17488647
0.12857895 -0.15721321 -0.124230236 -0.1664804 0.119157515 -0.17739445 0.21050651 0.13510501
-0.08695022 -0.19860764 -0.22197342 0.08964775 0.6769925 -0.13678949 0.14681762 -0.12116763
-0.03940866 -0.0510237 -0.0577362 0.05705309 0.027443783 0.049804427 0.04209084 0.038255017
0.11847903 -0.021353187 -0.037975196 0.07706754 0.051142152 0.05983439 0.0064619477 -0.0016500467
-0.0068116286 -0.036268346 -0.03326519 0.09359565 0.023235051 0.087640256 -0.1264633 0.017456895
0.07160031 -0.05321979 0.07038282 0.016861128 0.09630296 -3.7478298e-05 -0.04164424 -0.023963705
0.023678254 -0.12515473 -0.015175247 -0.0060582063 0.028441556 -0.047334626 -0.028872317 -0.02814339
0.007467456 0.06975195 0.1003608 0.045029838 0.0902095 0.049395792 0.03921127 0.020158127
-0.00010351342 0.036016617 -0.057648763 0.020702407 -0.107879326 0.022498358 -0.010693419 -0.12905173
0.016375802 0.03751014 -0.032328393 0.11223447 -0.002900266 0.035663135 -0.021432508 0.023239268
-0.049721766 -0.016889365 -0.024075247 0.02359154 0.0078140795 -0.026166452 0.12387231 0.12965111
0.052591942 -0.020252235 0.06589737 0.12919405 0.033165965 0.052396 -0.094510734 -0.041539613
-0.024260491 -0.044318616 -0.03344011 0.041890964 -0.05994996 -0.036989573 0.07474489 0.08390301
-0.012347634 0.0736861 -0.037862767 -0.041324392 -0.08334352 -0.04172463 0.03198107 0.03280666
-0.022143532 -0.05752006 -0.008978585 -0.0072575742 0.12725557 0.080678485 0.096291885 -0.023954589
-0.054206878 -0.12922622 -0.058120724 0.017842025 0.052020706 0.0623715 -0.021017715 -0.006064356
0.009411296 -0.09020616 -0.021579906 0.034152806 -0.06155939 0.10571307 0.29887578 -0.06412399
-0.05959087 0.020795293 0.0420175 0.003401873 0.09848415 -0.009446631 0.024470868 -0.009998681

fc1.bias f4 [16]
00000000: fb05 a53d 6181 0e3b cc94 b7bb 77e3 0d3c
00000010: 64bf 483b 368e 803a 5b9d 5d3a 2ee8 c9bb
00000020: 66c5 1d3b abec 24bc bab9 8b3a d011 b9ba
00000030: d3f0 613c bc04 f139 6c61 15bc 9425 e3ba
0.08057781 0.0021744596 -0.0056024548 0.008660189 0.0030631656 0.0009808007 0.0008453929 -0.006161711
0.0024073957 -0.010066192 0.0010660209 -0.0014119688 0.013790327 0.0004597063 -0.0091174655 -0.0017329925

fc2.weight f4 [1, 16]
00000000: aa63 c03d 544b ec38 d3ff 7eba 7063 b4ba
00000010: ae98 6e3b cc05 b0b7 1002 bfbb 6dab beba
00000020: 0ef3 153b 4a03 f43a 41d4 f6ba 69fb f43a
00000030: 2a25 033a f4b4 57bb f0ee b039 f1d5 683b
0.093940094 0.00011267388 -0.0009727452 -0.0013762545 0.0036406922 -2.0983534e-05 -0.0058291033 -0.0014546938
0.0022880468 0.0018616703 -0.0018831567 0.0018690649 0.00050027913 -0.0032914253 0.00033747358 0.003552791

onnx::LSTM_226 f4 [1, 512, 1]
00000000: 68bf 0bbf eee6 a93e fd97 ad3f c575 243f
00000010: 7833 26be 8475 953d 82e8 63be 65bd a0be
00000020: 2b00 333f d0d0 88be c681 c2bf 89ab 82be
00000030: c521 833f 6b30 b93f 1a7a 293f 42da 7f3f
00000040: e0f3 41bf f3be da3d 0c0a 9c3b 8f4a ad3e
00000050: 2599 bdbe 41a7 093e 9494 21be 3a9c 853f
00000060: 31b3 6b3f 0113 933e 0e64 9d3f 8339 b53e
00000070: 93f0 083f 4587 4abf 0691 4a3f 9ea3 413f
00000080: 46b8 48bf fba0 2a3f 91a9 4e3f 0575 babd
00000090: 082e c53e bff4 253e e71a 45be 1787 4b3f
000000a0: c5f7 b63e a4ec 17bf 7792 3ebe c6b1 883f
000000b0: 3fcd af3e 88fa de3e bd12 553e 0c9f 563f
000000c0: 5dba 05be 2380 013f 5b62 c5bc 6a02 093e
000000d0: d67f 37bf cb21 9b3d 855d 443f b8ef 9f3f
000000e0: dcc2 303e 06d1 de3d d309 1a3f 67fb 1f3f
000000f0: 7cc3 dfbe 0e8e 77bd fb5b e93d 4616 2d3f
00000100: 2988 5b3f 7ba8 a4be 28f9 a0be 31d6 e4be
00000110: d496 8abe 67e8 b23f 3b50 573f da58 16bf
00000120: 8ad0 32be 8780 133f 89ff 473f 57a1 593f
00000130: 6f3a b5be 1401 c13e e385 af3e 7488 15be
00000140: 5c74 dbbd 7f6c 8f3e 0206 863f 559e ee3e
00000150: 49bc 1d3f 8774 413e c82d 80be 11d3 df3e
00000160: d4e0 dabe 8dc0 5f3e e1bb 403f 9cfb f73e
00000170: 565e 753f 8a28 c53e e2fb e8be bf1e 9dbe
00000180: 6607 00bf a492 adbe 272c d3bd 0f47 5c3f
00000190: ad26 443e 36be 8f3f 5b74 8d3f 3a58 f33e
000001a0: b44e b9be aa08 703f 8a99 903e cb74 3abe
000001b0: 96f9 433f 5b11 cf3e 974f 7a3e e3a4 b63d
000001c0: c19e 2ebf 08c8 673f ad34 283e af8e d83f
000001d0: 5051 cb3f 4fd4 713f 5ddb b2bd 044e 39be
000001e0: 5f37 7a3f 4a57 923e 462b 763f 5496 093d
000001f0: 4d28 663f 2a4f 713d faba 5c3e 56fd 1c3f
00000200: 795f ccbe f924 763b 529e f13f b3d9 e53f
00000210: 7745 1cbe b1c0 eabd 5c45 e3be 15a7 13bf
00000220: c959 c43f f702 3abe ba25 b3bf da70 05be
00000230: 8e52 2540 365e a93e 474e 0e3f 8299 873f
00000240: 2e3c a1bf 8282 783e cab5 2cbf 98b4 dd3e
00000250: e9c9 1abd ba44 86be 7319 32bf d0c9 bf3f
00000260: 3871 643f b150 91bd 5cae de3f c274 213f
00000270: bb7d b33f 0825 9dbf 1228 e13f 8a94 5d3f
00000280: 43b6 2ebf b79a 3040 2008 a33f f0ac b53c
00000290: d336 a23f 3930 c43e ae3e dcbe 9f41 353f
000002a0: 7d14 dc3d a083 0fbf 8e46 b9bd cd8f b13f
000002b0: 670d 8a3e a215 da3f b9fa 873e 51d7 563f
000002c0: 4217 ecbe 044f af3d 423e 0fbe 3c74 843c
000002d0: f5ad 87bf 68d6 973e 3a9c 1240 e95a 1a40
000002e0: 3d36 5e3f c126 033f ec49 433f 2381 e73f
000002f0: 2c18 46bf 5db5 383e 6f0e 943e 7842 b83f
00000300: a14c b73f 33d7 edbe 5237 61bf 5e7a 91bf
00000310: 042e f6be 8f00 c33f ad90 593f d309 7ebf
00000320: b1bb 4e3e 5cd2 013f 40b8 db3f 3964 3140
00000330: 5b04 1cbf 0f2a 0d3e 1f57 813e 3f43 d03e
00000340: 9e6b a7be f205 b93e b76e 793f f181 823f
00000350: 36d0 2340 c6a3 1c3d cec0 cbbe 695d d03f
00000360: 85cb 64be 55d2 143f a7b6 573f 705c aa3e
00000370: 03b7 a13f 7d48 373e f83f 3c3d 33c5 d8be
00000380: 29f3 aebe 69ef 8cbe a3d9 15bd da53 2b40
00000390: 12b1 0ebf ed26 c33f 1de6 fc3f 4b14 1540
000003a0: 15b4 2ebf bd6b c53f f685 863f 0476 dfbe
000003b0: 2d38 1d40 e22c d13e e11a 50bd f14c 03bf
000003c0: ae1b 3dbf dbfe 783f 6072 75be d5df c03f
000003d0: 33dd 943f 7d83 4640 0ce7 2bbf e3ba a9be
000003e0: 999a 1140 486d bf3e cc1b 713f 7d6c 2b3e
000003f0: 07d7 3640 d774 08bf 1343 08be 71dd 113f
-0.5458894 0.33183998 1.3562008 0.642422 -0.16230571 0.07297805 -0.22256663 -0.31394497
0.6992213 -0.2672181 -1.5195854 -0.25521496 1.0244681 1.4467901 0.6620194 0.9994241
-0.7576275 0.10680952 0.00476194 0.33845946 -0.37030903 0.13442709 -0.15779334 1.0438302
0.920703 0.28725436 1.2296159 0.3539544 0.5349209 -0.79112655 0.7912754 0.75640285
-0.7840618 0.66651887 0.8072749 -0.09104351 0.38511682 0.16206644 -0.19248544 0.79503006
0.35735908 -0.5934546 -0.1861056 1.0679252 0.34336278 0.43550515 0.2080793 0.83836436
-0.13059373 0.50586146 -0.024094751 0.13379827 -0.7167944 0.07574805 0.767052 1.2495031
0.17261833 0.10879712 0.6017124 0.62492985 -0.4370383 -0.06043821 0.11394497 0.6761211
0.8575464 -0.3215979 -0.3144009 -0.44694665 -0.27068198 1.3977174 0.84106797 -0.58729327
-0.17462364 0.5761799 0.7812429 0.8501181 -0.35396144 0.37696135 0.34281835 -0.14602834
-0.10715553 0.28012463 1.0470583 0.46605173 0.61615425 0.18892108 -0.25034928 0.43715718
-0.42749655 0.21850796 0.7528668 0.4843415 0.9584707 0.3850749 -0.4550467 -0.3068752
-0.5001129 -0.3390094 -0.10311156 0.86045927 0.19155379 1.1229923 1.1051134 0.4752825
-0.36192858 0.9376322 0.2824214 -0.18208615 0.7655271 0.4044293 0.24444424 0.089181684
-0.6821099 0.905396 0.16426344 1.6918544 1.588419 0.9446458 -0.087332465 -0.18096167
0.9774074 0.2858222 0.9615978 0.03359063 0.89905244 0.058913387 0.21555701 0.6132406
-0.3991659 0.0037558659 1.887644 1.7957062 -0.15260874 -0.11462534 -0.44388855 -0.5767682
1.53399 -0.18165193 -1.3995888 -0.1303133 2.5831637 0.3307969 0.5558819 1.0593722
-1.259649 0.24268535 -0.6746489 0.43301845 -0.037790213 -0.2622431 -0.6957008 1.4983463
0.8923526 -0.07095469 1.739696 0.63068783 1.4022745 -1.2276926 1.7590353 0.8655478
-0.6824686 2.759443 1.2736855 0.02217719 1.2672981 0.3831804 -0.4301657 0.70803255
0.10746095 -0.5606022 -0.0904666 1.387201 0.2696335 1.7037852 0.26558474 0.83922297
-0.46111494 0.08559993 -0.13988593 0.016168706 -1.0599962 0.29655766 2.2907853 2.4117987
0.8680151 0.5123101 0.7628467 1.8086284 -0.77380633 0.18037935 0.28917262 1.4395285
1.432026 -0.46453246 -0.8797504 -1.1365469 -0.48081982 1.5234545 0.8498638 -0.9923374
0.20188786 0.5071161 1.7165604 2.771742 -0.60944146 0.13785575 0.2526178 0.40676305
-0.32699293 0.36137348 0.9743456 1.0195905 2.5595832 0.038242124 -0.39795536 1.6278507
-0.22343262 0.5813344 0.8426308 0.3327365 1.2633976 0.17898746 0.045959443 -0.4233795
-0.3416989 -0.27526405 -0.036584508 2.676993 -0.5573894 1.5246254 1.9757725 2.3293636
-0.68243533 1.5423504 1.0509632 -0.43644726 2.4565537 0.40854555 -0.050806884 -0.5128928
-0.7387036 0.9726388 -0.23969412 1.5068308 1.1630005 3.1017754 -0.67149425 -0.33150396
2.275061 0.37388062 0.9418304 0.16740604 2.8568742 -0.53303283 -0.13306837 0.5697852

onnx::LSTM_227 f4 [1, 512, 128]
00000000: 0799 a2bd d01b e43d 4e52 e8be 65e5 eabd
00000010: 1a72 9f3d 4ac7 a73e f19d dcbb 29af 623e
00000020: a028 753e a246 43bf c1f1 4abf 061d 55bd
00000030: 7716 17be fe44 68be ea97 a5be e627 933c
00000040: fc07 9abe 43a6 21bf 730b 523e 8047 2a3d
00000050: 9368 dc3d bca1 28be e726 ca3e 43f8 c23d
00000060: 45fe 9b3d b97d d93c 3cfd 8cbd 5f4c c1be
00000070: b374 033d 9645 883e 68bc 2abe 3154 ee3e
00000080: 8122 a23d 3406 373e b14e cc3e 50ce 193d
00000090: 11b9 103d 3d15 2abd d1ad f4bc 2273 1abe
000000a0: 97d3 773e 6671 563d 1290 4a3e 4337 9c3c
000000b0: 6c03 d53e 48ba 1a3e 464b edbe f95c d5bb
000000c0: b402 1cbe c980 42be 99b7 fe3e 262a 8fbe
000000d0: 1a7f a23e d9d1 0a3e 7c16 bebd 168b 833e
000000e0: 993b 25be f8f3 113e 1cbe e8be f050 dfbd
000000f0: 2244 4b3d 1a3e a2bd 121b 203e d32a 21bd
00000100: a5c5 c43e 54e2 e73d 73cc 36be 1a58 ebbe
00000110: 9477 5b3e 3d65 803b e4ad a03d d254 933d
00000120: 8fb8 c83c c803 563d 0442 c9be 7857 46be
00000130: 73a3 05be d6b8 903e b4e8 34bf eae5 6abd
00000140: 2b43 cfbb 66f3 5dbe 08ff 1d3e a4cb 043e
00000150: 5c9f b0bd fa6b dfbd 9534 763e f27b b33d
00000160: d159 193f aa33 e83d 164e b53d f5e8 e6be
00000170: 97e8 313e db47 f1be 5939 e1bd 7dd9 79bd
00000180: 2d97 28be 9217 243e fb7a fabd 4afa 4f3e
00000190: 8ab3 503e 2805 a8be bbbb 25be 3c59 8ebd
000001a0: 9ede 36bf 8310 ab3e 61a0 2d3d b964 1a3d
000001b0: 5e16 523e 3693 bebe 31f1 913d 47ba 26be
000001c0: 001f 75be be6c 333e 096c 483e f00c ac3e
000001d0: 5f5c 00bd 878a 63bc 59c6 053e fac5 843e
000001e0: 60a7 a73e 1c1a f43e 85be 9fbe c294 793e
000001f0: 9e29 efbc 02b7 a5ba a67a a23d 6af2 7c3d
00000200: 453f 993d 850c 83be b12a bf3d 226a 20bd
00000210: 402c 963c 7f84 883e a98e 913e 0108 693d
00000220: 745f 313d e385 ba3e e924 df3e a181 623e
00000230: 5406 0cbe 7c93 b63e 9fa1 33be b8f1 febd
00000240: f86c fbbc ebcc 82be a5e9 203e 10b7 2cbe
00000250: c8a9 c1bc be03 ea3d 3a52 a9bd f11d 72be
00000260: 8ca5 b93e 8d60 8b3e ec07 103e d062 06bd
00000270: 7a10 64be 41c0 703e b402 513d 5acb a6be
00000280: 84eb 153e e81b 213d a90c 33be 77b2 303e
00000290: a391 86be 7068 cabd 5cd1 d6be ee40 8b3d
000002a0: a0e7 f9bd e345 963d 5473 86bd 123a e83e
000002b0: 474f c33d 72f2 aebe 14b1 d43e c754 a43c
000002c0: 9a80 363d e890 823f 188c f5be 93b4 82bd
000002d0: 4c4e 55be ccae fd3d f3f0 673e ee21 083e
000002e0: 27bb b1be 1b34 afbe d49d 693e 0f5f 86bc
000002f0: f091 23bf efaa adbe 737b a9be 5fa9 79be
00000300: 977b 993d 71bf 2d3f 440b b73e e586 023f
00000310: 75ae a3bd da3d 4b3d b507 73bd 5e4c 403e
00000320: db50 b3bd 1454 24be f13f 383e 40b9 a3be
00000330: 6bd1 4cbe caf7 1bbe a953 333d 9a5e 4f3f
00000340: 3f40 4fbd 8e24 bebe 197c c33e c1e3 823d
00000350: 2f86 593c b472 703d 1b83 babd 9b91 b4bd
00000360: 45ef 19be 9bc9 483e ea64 743e 48ef 153e
00000370: 5c37 99bd e47e 573e 5737 88be fdce 1a3f
00000380: 7cbc 4c3e d4ca 903e b226 903c 1aa3 d13c
00000390: 37b3 96be adbe 56be 3496 b53e 3d2b f8bd
000003a0: 1cbb 5b3e 008e 493d f695 6a3e c3b0 01be
000003b0: 6733 1bbe 20cd 06bd 5c54 813e bc70 1b3f
000003c0: 9472 5dbd 16e7 813e 0e5b 5bbe 1a72 a7be
000003d0: 4a85 80be dc61 8a3c 8b6d 2bbe 948f 9fbe
000003e0: 3cb5 9abe 8003 55be bca2 2b3d 25aa 81bc
000003f0: dcdd a3bd 046d d23e 8f8e 47be 6a52 48be
-0.07939344 0.11138117 -0.45375293 -0.11469535 0.07785435 0.32769233 -0.0067326953 0.22137131
0.23941278 -0.7627965 -0.7927514 -0.052029632 -0.14754663 -0.22682568 -0.32342464 0.017963361
-0.30084217 -0.6314432 0.2051218 0.041572094 0.107621334 -0.16467947 0.39482805 0.095200084
0.076168574 0.026549207 -0.06884238 -0.3775358 0.032093715 0.2661559 -0.16673434 0.46548608
0.07916737 0.1787346 0.39903787 0.03755027 0.035332743 -0.04152416 -0.029868038 -0.15082982
0.24201809 0.05235424 0.19781521 0.01906932 0.41604173 0.15110123 -0.46346492 -0.0065113273
-0.15235406 -0.1899444 0.4974945 -0.27961844 0.31737596 0.13556613 -0.09281632 0.25692052
-0.16136016 0.14253223 -0.45457542 -0.109041095 0.049625523 -0.07922001 0.15635327 -0.03934748
0.3843204 0.113224655 -0.17851429 -0.45965654 0.21432334 0.0039183185 0.07845667 0.071939126
0.024502067 0.0522497 -0.39308178 -0.19369304 -0.13050632 0.2826602 -0.70667577 -0.05734817
-0.0063251457 -0.2167488 0.15429318 0.12968308 -0.086241454 -0.10909267 0.24043496 0.08763875
0.59902674 0.11337979 0.08852784 -0.45099607 0.17373882 -0.47125134 -0.10997266 -0.06099843
-0.16463919 0.16024616 -0.12230488 0.20310321 0.20380989 -0.32816434 -0.16184895 -0.06950614
-0.71433437 0.33411035 0.042389277 0.037693713 0.20516345 -0.37221688 0.07126082 -0.16281997
-0.23937607 0.1752195 0.19572462 0.3360362 -0.031338092 -0.013888008 0.13063945 0.25932294
0.32744884 0.4767617 -0.31200042 0.24373153 -0.02919465 -0.0012643042 0.079335496 0.06175462
0.07482771 -0.2559549 0.093343146 -0.039163716 0.018331647 0.26663586 0.28429154 0.0568924
0.04330392 0.36430272 0.43582848 0.22119762 -0.13674289 0.35659397 -0.17542122 -0.12448448
-0.030691609 -0.25546965 0.15714128 -0.16866708 -0.023640528 0.11426495 -0.082676366 -0.23644234
0.36259115 0.272221 0.14065522 -0.03280908 -0.2227191 0.23510839 0.05102797 -0.3257702
0.14640623 0.039333254 -0.17485298 0.17255579 -0.26282987 -0.09883201 -0.41956604 0.06799494
-0.12202382 0.073375486 -0.06564966 0.45356804 0.09536605 -0.34169346 0.4154135 0.020059956
0.044556238 1.0200472 -0.47958446 -0.06382098 -0.20830649 0.123868555 0.22650509 0.13294193
-0.34713098 -0.3421944 0.22814113 -0.01640275 -0.6389456 -0.33919474 -0.33101997 -0.24381016
0.07494276 0.6787024 0.35750782 0.5098708 -0.079922594 0.049619533 -0.059333522 0.18779132
-0.08755656 -0.16047698 0.17993142 -0.31977272 -0.20001762 -0.15231243 0.043780956 0.81003726
-0.05059838 -0.37137264 0.38180616 0.06391097 0.013276621 0.05870314 -0.09107038 -0.088168345
-0.1503268 0.19608156 0.2386662 0.1464206 -0.07481262 0.21044499 -0.2660472 0.6047209
0.19993776 0.28279746 0.017596576 0.025590468 -0.29433605 -0.20971175 0.35466158 -0.12117622
0.21458095 0.049207687 0.22908768 -0.12665085 -0.15156327 -0.032910466 0.25259674 0.60718894
-0.05406435 0.25371617 -0.21421453 -0.3270424 -0.2510169 0.016892366 -0.16741006 -0.3116423
-0.30216396 -0.20802116 0.041903242 -0.015828202 -0.08001301 0.41098797 -0.19487976 -0.19562688

onnx::LSTM_228 f4 [1, 1024]
00000000: 968a 25bf 293b 21be e97c a1be 7297 afbe
00000010: df19 2ebf e2f1 d2bd 5eef 3fbf b3e6 2cbf
00000020: 358d 12bf 7f7a 01be 9b22 b5be ef11 f1be
00000030: 44c7 41be 6d42 ffbd 4ee6 46bf ac53 bbbe
00000040: 9462 10be 9d75 33be 3e0a c43d 6834 20bf
00000050: 99ae 2dbf ecea d2be 87c9 2bbe 9314 dbbe
00000060: ea61 36bf b150 f0be c6c2 3dbf 69e6 c9be
00000070: e362 c5be 9c73 1fbf ffa3 3fbf 6757 e3be
00000080: 0a0e 3abf 0268 9dbd 5c10 38bf 1cd1 b4bf
00000090: 9b02 2cbf ee40 99bf 287f 3abf 72b5 7bbf
000000a0: 682c 4ebf 6c4e 03bf 426c 5fbe cc8a 1cbf
000000b0: d64c eabe 8fc6 22be 1e66 1cbf 68f3 2ebf
000000c0: 1671 b2be 4594 a3be 5089 2b3e cf71 08bf
000000d0: 8ccc acbd 6291 c2bf 4ec6 fbbe e213 a9be
000000e0: 04c0 39bf 3e1e 70be 3e8f 88be 7a0e 25bf
000000f0: 39cd a8be 4481 8cbf bc09 7abe 0e1a 0fbf
00000100: 20e7 29bf 2048 15bf cee8 e03d b014 41bc
00000110: 28b4 99be 8218 07bf f121 6bbf fa1e 1e3f
00000120: ee1e 32bf 5339 b9be fbf5 17bf 909e 56be
00000130: d514 04be cc37 e7be 0465 d9bd 8a57 6e3c
00000140: c28d 1abe c9d7 d7be a0a4 f5be 9b1c b7be
00000150: ed96 fbbe 9474 0dbf 5ead 75bf ddb0 febe
00000160: 3fcb 2fbe 37e8 35bf 523e ddbe 22ec c8bd
00000170: 7907 ecbe 2cc1 a7bc 0545 943c e0d8 96bc
00000180: 0b18 75bf cfc5 4bbf e5f2 48bf 65e5 02bb
00000190: bfe2 26bf 0e64 0ebf a78c 20bf af24 0fbf
000001a0: 1262 ad3e 2da0 b3be 2442 46bf adc7 19bf
000001b0: 004f aebc 3e81 11bf 0679 9fbf b149 393d
000001c0: 0942 d13e 5fd9 32bf 60d9 bcbe a304 4bbe
000001d0: b613 43bf c0c5 4dbe 1f4d 1cbf 2049 8ebd
000001e0: 8615 03bf d3b4 d7be 49c0 31bf 36d1 21bf
000001f0: e8d1 a3be 0140 723e dfca a7bf d27d 5fbf
00000200: d3f1 3ebf 46d3 7ebe 588e e0be 37dd f9be
00000210: 4942 2dbf a87e 12ba da43 2cbf d47c 10bf
00000220: ee8b 2ebf 52be b53b 9cbe cebe 4afe c4be
00000230: da3f 04bf 06b4 12bd 14d9 a7be b926 c4be
00000240: 4f35 89be b6cd 12be d29c 4c3d aa9c f8be
00000250: 6f09 3bbf 6493 d1be d254 84be 7bc3 0ebf
00000260: e11a e3be bf55 dbbe 1ee6 41bf 52ca abbe
00000270: 88b7 bfbe 4782 1cbf 5dfe 1ebf db2a 6bbe
00000280: a7b1 53bf a2ee f1be 5db1 10bf 7363 c0bf
00000290: 8812 f7be 17b0 96bf b20e 3cbf 775e 85bf
000002a0: c0ae 3ebf 4617 11bf 3d72 27be 757b 10bf
000002b0: 9c50 bebe 3453 f6be 5ccf eabe 73b0 59bf
000002c0: 600b 9fbe bd97 90be d9f0 173e ce86 04bf
000002d0: 7de4 5bbe 9040 bfbf 3be5 22bf c48b c7be
000002e0: 79a2 71be eab8 f3bd 31cb 10be 1cfa 18bf
000002f0: c50b e1be 0f5f 82bf 420b 76be a0ca 19bf
00000300: 5e82 14bf 0133 e0be 3cc0 0e3d f5d9 0fba
00000310: 8af8 48be 9d1f d2be 144e 3ebf 9710 103f
00000320: dc9c 21bf 494a aabe 4ce6 31bf fe88 e7be
00000330: 1013 35be 838f 07bf c9d6 e63b 3625 94be
00000340: c364 43be 8ab9 dfbe 0f74 4dbe c3f4 7ebe
00000350: 5415 23bf c36b 09bf e24a 7fbf c338 ddbe
00000360: acd0 11be eff2 17bf 3111 73be 7633 b7bd
00000370: 6ed1 e0be 21b4 15bb 036c 733c a6fb 9c3d
00000380: 0c59 75bf 0295 23bf 6cab 3fbf 9458 76be
00000390: 4e57 43bf 5d86 f9be 220b 18bf d883 41bf
000003a0: 8440 e83e e811 02bf aeb9 24bf 9366 1cbf
000003b0: dbac 76be 6a4b 12bf d410 8fbf 9195 bc3c
000003c0: fa7a 7f3e ee54 33bf 4b50 cabe 4b80 e5bd
000003d0: 2134 2cbf 597f 03bf bcbc 36bf 6eec 2cbd
000003e0: 4d81 2ebf 7219 febe 7b81 ffbe 6d48 d7be
000003f0: 0941 40bf 8ed6 cabd b180 a8bf ad0a 54bf
-0.6466459 -0.15745224 -0.3154061 -0.3429523 -0.68008226 -0.10300042 -0.7497462 -0.6753952
-0.57246715 -0.12644385 -0.35377964 -0.47083995 -0.1892367 -0.124638416 -0.7769517 -0.36587274
-0.14100105 -0.17525335 0.09572266 -0.62579966 -0.6784454 -0.41194856 -0.16776095 -0.42789134
-0.71243155 -0.46936563 -0.74125326 -0.39433601 -0.38552007 -0.6228578 -0.74859613 -0.4440262
-0.7267767 -0.076858535 -0.7189996 -1.4126315 -0.67191476 -1.197294 -0.72850275 -0.9832374
-0.8053651 -0.5129154 -0.21818641 -0.6114929 -0.45761746 -0.15896057 -0.6109332 -0.6834016
-0.34851903 -0.31949058 0.167516 -0.5329866 -0.08437452 -1.5200617 -0.49174732 -0.33022982
-0.7255862 -0.23449036 -0.26671785 -0.64475214 -0.32969072 -1.0976949 -0.24417776 -0.5589913
-0.66368294 -0.5831318 0.10981904 -0.011784717 -0.3002026 -0.5277177 -0.91848665 0.61766016
-0.69578445 -0.36176547 -0.5935971 -0.20958924 -0.12898572 -0.45159757 -0.1061497 0.014547238
-0.15093139 -0.42156819 -0.4797716 -0.35764012 -0.49138585 -0.5525601 -0.9596766 -0.4974431
-0.17167376 -0.71057457 -0.4321161 -0.09810664 -0.4609945 -0.020477854 0.018099317 -0.018413961
-0.9573981 -0.79598707 -0.7849563 -0.0019973156 -0.6518974 -0.5562142 -0.6271462 -0.5591535
0.33863884 -0.35083142 -0.7744467 -0.60070306 -0.021277905 -0.5683783 -1.2458808 0.045236293
0.40870693 -0.6986293 -0.36884594 -0.19825988 -0.7620195 -0.20094967 -0.6105518 -0.06947541
-0.5120472 -0.42130145 -0.6943403 -0.63209856 -0.31996083 0.23657228 -1.3108786 -0.8730136
-0.74587744 -0.24885282 -0.438586 -0.48801586 -0.6767927 -0.0005588331 -0.67291033 -0.5644047
-0.68182266 0.0055463696 -0.40379798 -0.38475257 -0.5165993 -0.035816215 -0.32782805 -0.38310793
-0.26798484 -0.14336285 0.049954243 -0.48557025 -0.7306127 -0.40932763 -0.25845963 -0.5576703
-0.44356444 -0.42838857 -0.75741756 -0.33552796 -0.3744471 -0.6113629 -0.6210688 -0.22965567
-0.8269295 -0.47252375 -0.56520635 -1.503035 -0.48256326 -1.1772488 -0.73459923 -1.0419453
-0.744854 -0.5667614 -0.16352172 -0.5643838 -0.37170875 -0.48110354 -0.45861328 -0.85034865
-0.31063366 -0.28240767 0.1483797 -0.51768196 -0.2147388 -1.4941578 -0.6363103 -0.3897382
-0.23597135 -0.11900504 -0.14140011 -0.59756637 -0.43954292 -1.018526 -0.24027732 -0.60074806
-0.58011425 -0.43788913 0.034851298 -0.0005487495 -0.1962606 -0.41039744 -0.7433789 0.56275314
-0.63129973 -0.332598 -0.6949203 -0.45221704 -0.17683053 -0.52953357 0.0070446474 -0.2893464
-0.19081406 -0.43696243 -0.20063804 -0.24898057 -0.6370442 -0.53680056 -0.9972364 -0.43207368
-0.14239758 -0.5935506 -0.23737027 -0.08945362 -0.43909782 -0.002284296 0.014857295 0.07665186
-0.95839 -0.6389924 -0.74870944 -0.24057227 -0.7630509 -0.48735324 -0.5939199 -0.755918
0.45361722 -0.5080857 -0.64345825 -0.61094016 -0.24089377 -0.5714632 -1.117701 0.023020538
0.24949256 -0.7005147 -0.39514384 -0.112061106 -0.6726704 -0.5136619 -0.71381736 -0.042217664
-0.6816605 -0.49628788 -0.49903473 -0.42047444 -0.75099236 -0.09904204 -1.3164274 -0.8282879

onnx::LSTM_250 f4 [1, 512, 128]
00000000: 82c4 69be 9049 003f 77c1 f0be ffdf 02bf
00000010: 3c19 c13b cbe5 213f 07a4 a1bd c788 25bd
00000020: e4d9 c33e b5a0 c7be 2628 9b3e 8951 02bf
00000030: a6b1 3bbe 8333 e0bd 6cee 2abd ec27 933e
00000040: fc1a e73d 581c 82bd 93d4 38be 9415 1b3e
00000050: 9795 663b 8ab0 6d3e ddc9 e03e 8f3b e2be
00000060: 8595 d63d 8f04 b03b 4380 903e 1f95 543e
00000070: 5284 cb3e 994f 96bd 33c4 89be cca2 a63e
00000080: e67f d3bc a102 463e be2d 0d3e c6db deba
00000090: 0d92 e93e f6b6 353c 6b85 42be 3b85 12bd
000000a0: c32a e9bd 4016 b43c 3e1f 053f 1b30 2b3d
000000b0: 889f 9c3e dee3 983e e81c 66be d832 8bbd
000000c0: 963d 4d3e 0979 a83e 2f30 39be 4e96 9fbe
000000d0: 4af5 c03b 3a03 e93c aa3b 8abe d87f e43d
000000e0: 516b 863f 4bd9 f13e 3a2f 99be 08b7 84be
000000f0: c3fd 8fbe 0dbd 0dbd 5b88 123f d54a f33e
00000100: 8c98 9c3e d7a8 c9be 5614 8dbd 4945 c5be
00000110: 47b4 0bbe 93a8 21be a66a a23e d18d 1c3f
00000120: 03b1 96be a7a7 f63e c871 a6be 603c 9abd
00000130: dc12 193e 6354 1d3e 5694 14be c2c6 893e
00000140: df4f a33e 7bf1 63be 837c 1e3e 3657 98be
00000150: ebfd 89be 0770 003e 8350 5fbe c1d3 853e
00000160: ef7c 67be b8de 27be 8dd0 743e 53f4 44bf
00000170: 547f 003f 7ea5 cdbe 1e36 db3c d48d 3e3d
00000180: 325d a33e 6260 523e 0564 0abd 4e44 ec3d
00000190: 4c5f 673e 3ae0 49be fd66 dabe 4b08 cb3e
000001a0: 2a04 55be 9dda ee3e a40c 0abf e20c 3bbe
000001b0: 1ca4 5bbe 7b7d 3abe 8bbf 7ebd 6634 2ebe
000001c0: 6300 173e a653 bf3c 22f8 8a3e 6ada a73e
000001d0: d5f0 a43e ce3a 973d a418 44be 524e d73e
000001e0: 63d4 fd3e bf3d 7c3e 30de aebe 87a7 0cbd
000001f0: ed12 b4be 1bf7 0c3f 11da eabc 820e a93e
00000200: ca0c dfbd 853b 59be 1b02 18be 88cb fcba
00000210: 33ba fb3c 9dbf ea3e 720e f4bd 4610 40be
00000220: 4a2d c03e e21f 3d3d 82ed 89bd 752e 243e
00000230: feb6 4a3e 3738 27be b379 1e3d 9b5e 55be
00000240: ceb4 6bbe 26bc ebbe 15d6 e43d 2764 f13d
00000250: 78d3 ebbc d09a e0bd 8be4 c1bd 816e fbbb
00000260: f65b b23e 7172 1a3e e0fa a7bd 32f2 5abe
00000270: 4da6 93be c88e 8d3c 6052 ffbd ad39 933c
00000280: f5de ee3d 6fcc 2abe 306e 5c3e ddf2 1b3d
00000290: 2941 dfbd 7b5c 6cbe 620d 5a3e 6d26 86be
000002a0: 74af 103c 9afa 0dbd 4e79 26be 3972 25be
000002b0: a09c 613e b6c7 87be 12b6 a2bb 2790 58bc
000002c0: 18fe e5bc 36a8 23bd 9847 79bb 365e a5bd
000002d0: 91b5 8bbd b909 df3d 68f1 9e3c 75c4 d53c
000002e0: fa38 dbbd edbf 92be e2c1 79bd 40f9 a6bd
000002f0: 4a9d 503d 3903 83bc 70b5 ab3d 70f3 fc3d
00000300: 34f1 883e bb87 a1bd f7ad f43d 7759 2c3e
00000310: 5e33 18be 1569 0bbe b57b 11be 5195 833d
00000320: e7ec 953c e85d 75bd c26e 82be 97f2 153e
00000330: 0d45 42be cada 853d faf3 cebe 1a34 ca3d
00000340: bdf0 06be d8df fb3d 9d57 e03e 9270 903e
00000350: 5cc5 7c3e a101 5ebd e6f9 68bd 83b5 5abd
00000360: 6653 cd3e cb96 113e 7a6f 163f 1d3f 533d
00000370: 7b8c 48be 46c4 363c 75f1 91be 6eca e73d
00000380: 0dc3 1b3d 07da 153e c2b0 63be 6ab0 c6bc
00000390: 9116 08be acd2 8abe 6057 163e 492f 74be
000003a0: bc75 9ebe 0d76 153e 105a 003e 763d 7d3d
000003b0: 9e5b 543c b429 a6be 68be e63d 8d5f 26bd
000003c0: a221 5bbd fa8d 8f3e 2aad a3bd 2d78 983e
000003d0: 8847 583d 36d6 c6bd 1eff e13d 85ef 15be
000003e0: 33a0 30be ee2c a43b 3226 9cbd b88b 043e
000003f0: f308 1b3e 75aa c63e ef73 793d c1fc 70bd
-0.22828868 0.5011225 -0.47022602 -0.5112304 0.0058929008 0.6324126 -0.07892614 -0.040413644
0.38252175 -0.38989797 0.30304068 -0.5090566 -0.18329486 -0.10947325 -0.041731283 0.28741395
0.11284444 -0.063530624 -0.1804984 0.1514495 0.0035184377 0.23211876 0.4390401 -0.44186065
0.10477737 0.005371637 0.28222856 0.2076001 0.3974939 -0.07339401 -0.269075 0.3254608
-0.025817823 0.1933694 0.1378698 -0.0017002753 0.4561924 0.011090985 -0.18996207 -0.03577159
-0.11385109 0.021983266 0.52000797 0.041793924 0.30590463 0.2986135 -0.22471964 -0.06796807
0.20043024 0.32904842 -0.18084787 -0.3116936 0.0058886157 0.028443921 -0.26998645 0.11157197
1.05015 0.47236094 -0.29918844 -0.25920892 -0.28123292 -0.03460412 0.5723931 0.4751803
0.30585134 -0.39386627 -0.068886444 -0.38529423 -0.13642989 -0.15786962 0.3172199 0.61153895
-0.29431924 0.48174784 -0.32508683 -0.07531047 0.149486 0.15364222 -0.1450971 0.26909453
0.31896874 -0.22260086 0.15477185 -0.29754037 -0.26951537 0.12542735 -0.21808057 0.26138118
-0.22606252 -0.16393554 0.23907681 -0.7693531 0.5019429 -0.40165323 0.026759204 0.046521977
0.3190704 0.2054458 -0.033786792 0.115364656 0.22594947 -0.19714442 -0.426567 0.39654765
-0.2080237 0.46651164 -0.5392554 -0.18266633 -0.21449322 -0.1821193 -0.06219439 -0.17012176
0.14746241 0.023355316 0.27142435 0.32783824 0.3221499 0.07384263 -0.19150025 0.4205194
0.495761 0.2463293 -0.3415389 -0.034339454 -0.3517069 0.55064553 -0.028668435 0.3301888
-0.10891111 -0.21214111 -0.14844553 -0.0019286731 0.030728435 0.45849314 -0.11916818 -0.18756208
0.37534553 0.046172984 -0.06734754 0.16033347 0.19796368 -0.16330038 0.03869028 -0.2083687
-0.2301819 -0.46041983 0.111736454 0.11786681 -0.02878736 -0.10967028 -0.09467419 -0.007673085
0.34835786 0.15082718 -0.082021475 -0.21381453 -0.28837815 0.017279997 -0.12466884 0.017971838
0.116636194 -0.16679548 0.21526408 0.03807341 -0.109011 -0.23082153 0.21294168 -0.26201192
0.008830894 -0.03466282 -0.16257212 -0.16156854 0.22032404 -0.26519555 -0.004965552 -0.013217962
-0.028075263 -0.03995534 -0.0038037058 -0.0807461 -0.068217404 0.10890526 0.01940222 0.026094655
-0.10704227 -0.28662053 -0.060975917 -0.081530094 0.050931253 -0.015992748 0.08384216 0.123511195
0.26746523 -0.07887217 0.11947244 0.16831003 -0.14863345 -0.13614304 -0.14207347 0.06424964
0.01830144 -0.05990401 -0.25475127 0.14643322 -0.18971653 0.06535871 -0.40420514 0.09873219
-0.13177772 0.12298554 0.43816844 0.28210884 0.24684662 -0.054200772 -0.056878947 -0.05339576
0.4010269 0.14217679 0.5876385 0.05157386 -0.19584839 0.011155194 -0.2850453 0.11317907
0.03802781 0.14633952 -0.22235397 -0.024254043 -0.13289858 -0.27113855 0.14681768 -0.23846163
-0.309492 0.14595814 0.12534356 0.06182619 0.012961296 -0.32453692 0.11266786 -0.040618468
-0.05349887 0.28038007 -0.07992013 0.29779187 0.052802593 -0.09708826 0.11034988 -0.1464215
-0.17248611 0.005010239 -0.07624473 0.12943923 0.15140133 0.38801923 0.06090158 -0.058834795

onnx::LSTM_251 f4 [1, 512, 128]
00000000: e4e1 853e a443 ae3d f425 0bbf c3a2 8fbd
00000010: a0fc 7dbf 318c b9bd 03bc 0a3f 2374 213e
00000020: 6fb5 debe 7e3e 04be 9a54 6fbe b3da 1a3e
00000030: c010 c1bd 8c4a 08be 76da 283e 3a59 09bf
00000040: 4171 793d 8f7c e13d c2ca 17be 15ce 43be
00000050: 9122 463e 8540 9e3e c141 153f 15f4 0e3e
00000060: b54f 0cbd 39f3 4dbd cb5c 513d 33ab da3e
00000070: 3a80 dd3a 8a58 fcbc d6a1 323e c7a7 a43c
00000080: 01fd b0bd b238 24be 8703 bbbc a3d3 18be
00000090: 108e 833c c919 f2be fbee e5bd f625 55bd
000000a0: ae5f 283e f0ce 143e 19f5 9b3e accf 19be
000000b0: b38a a93d aa97 87bc 2640 2a3e 8b02 c33e
000000c0: 84ec b73c 5b54 533b 7486 553e f607 803e
000000d0: 9c11 bf3d 961a 0b3e 1990 b93e 08db 8cbd
000000e0: f8b7 c439 9cc3 f9bd cf14 c1bd 16b7 563d
000000f0: d197 6b3d 1261 3c3d b058 813e 8519 d53d
00000100: 0de7 e43d 2af6 893d e10c 04bd 9ef9 4fbe
00000110: fb0c 5dbe ded3 a5be b625 373e 4e56 1e3e
00000120: 38be 8dbd 5c6d 4bbe e6ae 683e a783 9bbd
00000130: b65a af3e b305 d33d 46bc 013e 94d1 afbd
00000140: a7ea cf3b d819 b73e 26dd 833b db5c ce3e
00000150: 8669 383c a2a3 8a3d e153 4bbb 6311 15be
00000160: 35b7 703e 328e 92ba d008 b63d f2fa afbe
00000170: 8100 c4bd e295 4cbd 1121 21be 3836 593d
00000180: 47d8 9c3c 87a2 2fbe 1a56 18bc 0cc2 753d
00000190: e281 e3bc f084 193d 2c41 c0be d92c a33e
000001a0: eab3 44be b87f 203e a1e7 b43e d989 193e
000001b0: 8c3c 2a3d f823 53be 8a18 a5bd 30c9 ee3c
000001c0: 06d2 f33d 304f 50be 5e43 1cbe 7cfb 0cbe
000001d0: ed53 ac3d 0c87 97bd 1bf3 df3e 97e7 b23d
000001e0: 3510 55be d702 853a 639c 62bd 13ca 503d
000001f0: 2563 ea3d 4846 a5be 001d c1bc 9c70 85bd
00000200: e889 09be c441 9d3d 6d45 f5bd 59e8 543d
00000210: 3c77 8e3d 285e 4b3c c954 0bbe dd64 5f3e
00000220: 3afb 983c cdd7 1b3e ad6e 7d3e 7512 6f3e
00000230: 0272 53bd b3f4 213d 98e9 7bbe 1e1a 9f3e
00000240: 58a9 223e 21f4 52be f8c3 9bbe c22b bebd
00000250: 6e61 76be 26bc 8bbd 7088 4d3e b4fa 52be
00000260: a969 06be 9f8d 363e e596 86be bce6 853e
00000270: 0b2a 85be 6b7b e53d bbe5 283d ed0d 143c
00000280: 1ed1 343e e7a8 043e f274 103e 1a44 40be
00000290: 05e9 2e3e acb7 0ebe c35c 0ebe 713c 6dbd
000002a0: 0bee 853e 5e66 24be 9e57 59be 35dc a4bb
000002b0: 3cb8 5ebe eec7 c33d 10d7 ccbd cc98 2e3d
000002c0: 3166 7fbc b9c2 353d d6f1 393d c757 753e
000002d0: 57e3 de3d df62 a0bd 1b90 6cbc 325d 05be
000002e0: e6b0 8abe 1a0a e4bc 7d42 0dbe b297 0abd
000002f0: 2d71 89bd c2b2 3bbe aecf eebd ab71 02be
00000300: 3532 7b3c 072b 31bd 032c e8bd 4b68 ba3d
00000310: 7eec 423c 928f c5bd 7e85 37be 8117 babc
00000320: 8dd8 5b3e 0772 d8bd 56a1 363e ed7d 5a3e
00000330: 2cd2 6fbd 3a59 ceb9 e528 a13b 730e 95be
00000340: 2c9e 58be 06f7 903c 71fe 613d 21cd ef3d
00000350: 18cb eebd 5006 c7bc d619 d03d ff21 a03e
00000360: 7127 753e f818 12bd a66c 35be f673 f73d
00000370: bc5b 763e d2fb a8be 365f 1abe c996 f03c
00000380: d2d0 a9bc f118 783e a216 863c b02b 733d
00000390: feff 7c3e 06aa 623e 446c 08be 1d58 3f3e
000003a0: 9fcd 1dbd 676e 21be e168 7b3e 8435 c3be
000003b0: bd18 fc3d d1bd 37be b69c 9b3e 38e0 22bd
000003c0: 0614 84bd 8a36 1d3e ddea 4a3e 47c9 ea3d
000003d0: a995 65be 717f 923d 4819 8e3c 4e7b 2abe
000003e0: bb03 073d 9f79 493e 111c 89bd 9127 0fbe
000003f0: fa21 1dbe 17aa 6bbe 1f24 bfbd f2c7 363e
0.26148903 0.08508995 -0.54354787 -0.07013466 -0.992136 -0.090599425 0.54193133 0.15766959
-0.43497798 -0.12914464 -0.23372117 0.1512249 -0.09427023 -0.13309687 0.16489586 -0.53651774
0.060899023 0.11010086 -0.1482344 -0.19121583 0.19349124 0.309086 0.5830346 0.13960297
-0.034255702 -0.050280783 0.051113885 0.4270874 0.0016899176 -0.030803937 0.17444548 0.020099534
-0.08642007 -0.16037253 -0.02282883 -0.14924483 0.016058952 -0.47285298 -0.112272225 -0.052038155
0.16442749 0.14532065 0.30460432 -0.15020627 0.08278408 -0.016551811 0.16626033 0.38087878
0.022451647 0.0032246325 0.20852071 0.25006074 0.093295306 0.1358436 0.3624275 -0.068777144
0.000375211 -0.12195513 -0.09427797 0.052420698 0.05751783 0.04599101 0.25262976 0.10405258
0.11176882 0.06736405 -0.032238845 -0.20310065 -0.21586983 -0.32388204 0.1788548 0.1546261
-0.06921047 -0.19865936 0.22722968 -0.0759347 0.34248894 0.103038214 0.12669477 -0.08584896
0.0063451114 0.35761905 0.0040241657 0.40305218 0.0112556275 0.06769492 -0.0031025338 -0.14557414
0.23507388 -0.0011181294 0.088883996 -0.34371144 -0.095704086 -0.049947627 -0.1573527 0.053030223
0.019146098 -0.17151843 -0.009297872 0.05999951 -0.027771894 0.037480295 -0.37549722 0.31870154
-0.19209257 0.15673721 0.3533297 0.14993991 0.04156165 -0.2061919 -0.08061321 0.029148668
0.11905293 -0.20342708 -0.15260074 -0.13767809 0.08414445 -0.07398805 0.43740162 0.087355785
-0.20806964 0.0010147941 -0.055324923 0.050973963 0.114446916 -0.32280183 -0.023573399 -0.06515619
-0.13431513 0.076785594 -0.119761325 0.051979396 0.06956336 0.012412585 -0.13606562 0.2181582
0.018674482 0.1521904 0.2474925 0.23346885 -0.0516224 0.039540004 -0.24600828 0.31074613
0.15884912 -0.2060094 -0.3042295 -0.0928569 -0.24060604 -0.06822996 0.20071578 -0.20603448
-0.13126244 0.17827462 -0.26286998 0.261526 -0.2600864 0.11205181 0.041234713 0.009036523
0.17657897 0.12955056 0.14107111 -0.18775979 0.17081077 -0.13937253 -0.13902573 -0.05791897
0.26158175 -0.16054675 -0.2122483 -0.0050311335 -0.21749967 0.09559618 -0.100019574 0.042626187
-0.015588329 0.044375155 0.04539665 0.23959266 0.108832054 -0.07831358 -0.014438654 -0.13023832
-0.27088088 -0.027836848 -0.13794895 -0.033836074 -0.0671104 -0.1832991 -0.116607055 -0.12738673
0.0153317945 -0.043253925 -0.113365196 0.091019236 0.011897204 -0.096465245 -0.17922017 -0.022716286
0.21469326 -0.10568624 0.17834982 0.213371 -0.058550045 -0.0003935786 0.004918205 -0.29112586
-0.21154088 0.017695915 0.055174295 0.11709047 -0.11659831 -0.024295002 0.10161178 0.31275937
0.23940827 -0.035668343 -0.17717227 0.12082665 0.24058431 -0.33004624 -0.15075383 0.029368775
-0.020729456 0.24228264 0.016368214 0.059367836 0.24707028 0.22135171 -0.1332255 0.18685956
-0.038526174 -0.15764771 0.24551727 -0.38126767 0.12309406 -0.17943503 0.30392998 -0.039764613
-0.06449132 0.15352836 0.19816156 0.11464172 -0.22420372 0.07153214 0.01734604 -0.166486
0.032962542 0.19675301 -0.06694806 -0.13979937 -0.15344992 -0.23014103 -0.093330614 0.1784971

onnx::LSTM_252 f4 [1, 1024]
00000000: e0e8 bdbe 1b37 98bf 9ef2 d4be 3cac 61bf
00000010: 1c74 42bf 02c7 89be 79da 56bf d67a 23bf
00000020: 38a5 38bf e4fd 11bf 4bee bebe 129d 3fbf
00000030: 7ae7 a2bf b1cc 29bf 13c8 22bf 58ab 5d3d
00000040: 17d5 fcbe 6c17 9fbe a706 a8be 9510 c6be
00000050: bd65 09bf dde7 0cbf c053 1dbf e967 0dbf
00000060: 3ca6 24bf 11b0 afbe d022 f6be bf55 fcbe
00000070: 628b 1ebf d410 94be 8840 34bf 9f08 7bbf
00000080: ca1e 0dbf d03b acbe 90df 09bf 6926 89be
00000090: 1656 e4be f6e6 eabe 1265 c0be ad71 06bf
000000a0: 2b72 c0be 5184 cdbe dc76 e3be e326 16bf
000000b0: 07f5 ccbe 854e ccbe 08b0 b9be dc99 17bf
000000c0: 8d4a afbf f1b1 d2be 16e4 b2be cd37 dfbe
000000d0: 1254 6ebf 5691 01bf b9df 8fbe 5b43 ffbe
000000e0: 9b26 f7be 0561 a6bf d9b4 c8be 33b1 30bf
000000f0: 7e07 0abf f46c b9be b550 fbbe 1515 35bf
00000100: 4061 b1bf 9ccf 0dbf 3ba0 d9be 3660 5ebe
00000110: 8151 bdbe 0ffa e5be 2494 b6be eb8f 29bf
00000120: d12f 5abf 139c 0dbf 63ae 03bf d520 00bf
00000130: 121a 2cbf 2da8 a1bf e263 9ebf 656c e4be
00000140: 3954 b4be cbe7 13bf 15c6 a3be 2f3f a2be
00000150: f07c e3be 21d7 9dbf 92ca 9cbf 13ff 21bf
00000160: e8ac ebbe b589 20bf ca5d 9ebe ce35 b4be
00000170: d724 36bf b15f 15bf 6459 fabe e9fd a6bf
00000180: a678 b2bf 4c6a 1cbf 5b48 b2bf 0b20 a1be
00000190: b7b5 d2be 54d1 07bf efcd e1be 7c9a 27bf
000001a0: bc70 cfbe 8156 10bf 4eeb 73be 1754 bdbe
000001b0: 622c d2be 88e5 06bf efb0 24be 3103 a8bf
000001c0: b542 ffbe bf79 18bf e4f6 07bf f28f ccbe
000001d0: b9f1 b0be 27a6 04bf 77f7 3abf f65e eabe
000001e0: c086 b3be e5b3 ccbe 15f9 a8bf c163 edbe
000001f0: 9e4e 3dbf 7642 8ebe 54dc f4be d7ef 0bbf
00000200: 7262 e5be 4d12 8dbf 634a c1be 8628 72bf
00000210: 2ca5 edbe dd18 5dbe bd79 e7be 7ca1 f1be
00000220: e9cb 83be ac2a 1bbf eb42 01bf 8557 3cbf
00000230: 5a47 a4bf f41c 2fbf 694f 14bf daf1 0ebf
00000240: 8df2 e0be 7922 00bf 4dbe 98be b099 ebbe
00000250: b3c7 c7be 19e2 05bf 679b 06bf 30aa 07bf
00000260: 6735 15bf 79a7 1cbf bfab b1be 32bb 09bf
00000270: 046f d2be 8e10 e3be c69f 42bf 6df0 65bf
00000280: 3e3a 17bf ac47 bfbe 41c1 b9be d77b dcbe
00000290: 19a8 41be 985c 0cbf 0df7 bbbe 26d0 adbe
000002a0: f7e3 89be 78c6 dbbe 06f9 25bf f361 1ebf
000002b0: 4bb5 9cbe 303b 10bf 45e9 8dbe 57f7 32bf
000002c0: f911 9fbf 11ea 0dbf a7ff e3be 1783 5fbe
000002d0: 4d23 27bf 68a0 19bf 140e aebe 0fe8 13bf
000002e0: fafe 19bf 7e54 a2bf 7880 c3be f4a3 24bf
000002f0: 427f e3be 7099 33bf d983 34bf e559 20bf
00000300: 1e77 a7bf cdf8 36be dfa2 c0be d5ad c4be
00000310: fd91 e5be aee6 00bf 9156 00bf 3357 a9be
00000320: 7db1 b3be 5889 d4be 55a9 04bf f7a1 18bf
00000330: fcef 65be bfea 97bf bdd5 98bf bf97 e0bd
00000340: 1ad4 a7be f6a1 47bf eaa2 a1be 7a23 a0be
00000350: 8add 04bf 523c 9dbf fdec 96bf 4b12 f4be
00000360: 9f0d fdbe 5b3c 1abf e3f8 dbbe 9506 0dbf
00000370: 4e2a 14bf 38c2 b0be c308 07bf f514 a6bf
00000380: 2bc3 aebf 158f 04bf 0f53 a7bf 074c dabe
00000390: faa9 e8be 9eed 1bbf 24f8 05bf 4243 99be
000003a0: 159e cfbe c5da e2be bd96 b9be 6f34 9abe
000003b0: 8d9b fdbe 4576 11bf 7483 0abf 2c43 b3bf
000003c0: 50db 1ebf 8422 25bf f7de 40bf 01fe cabe
000003d0: ce20 f1be 5b7d ffbe 7fdd 3bbf 6530 08bf
000003e0: 58c9 6bbd 0a64 04bf bd64 9fbf 2212 8ebe
000003f0: bb9b 99be c325 ecbe e9fe 03bf b59c 1dbf
-0.37091732 -1.1891817 -0.41591352 -0.88153434 -0.7595842 -0.26909643 -0.8392711 -0.6385931
-0.72127104 -0.5702803 -0.37291178 -0.74849045 -1.2726891 -0.6632796 -0.6358654 0.054118484
-0.49381325 -0.31072557 -0.32817575 -0.38684526 -0.53670865 -0.55041295 -0.6145592 -0.5523668
-0.64316154 -0.34314016 -0.48073435 -0.4928417 -0.6193143 -0.2891909 -0.70410967 -0.9806003
-0.55125105 -0.33639383 -0.53856754 -0.26787117 -0.44596928 -0.45879334 -0.3757711 -0.52517205
-0.37587103 -0.40140012 -0.4442662 -0.58653086 -0.4003069 -0.39903656 -0.36267114 -0.59219146
-1.3694626 -0.41151384 -0.3493964 -0.4359726 -0.9309703 -0.5061239 -0.28100374 -0.49856076
-0.4827164 -1.2998358 -0.39200476 -0.69020385 -0.5391768 -0.36215937 -0.49085012 -0.70735294
-1.3857803 -0.5539491 -0.4250506 -0.21716389 -0.36976245 -0.44917342 -0.35659897 -0.66235226
-0.8522921 -0.55316275 -0.5143797 -0.500501 -0.6722728 -1.2629448 -1.2374232 -0.44613948
-0.35220507 -0.57775563 -0.31987062 -0.3168883 -0.44431257 -1.2331277 -1.224932 -0.6327984
-0.46030354 -0.62710124 -0.3093093 -0.351973 -0.71149963 -0.5834914 -0.48896325 -1.3046237
-1.3943069 -0.61099696 -1.3928331 -0.3146976 -0.41154262 -0.53053784 -0.44102427 -0.654701
-0.40515697 -0.56381994 -0.2382023 -0.36978218 -0.41049486 -0.52693987 -0.1608312 -1.3125974
-0.4985558 -0.5956077 -0.531111 -0.39953572 -0.3455942 -0.5181603 -0.7303385 -0.45775574
-0.35063744 -0.39981 -1.3201014 -0.4636517 -0.73948085 -0.2778508 -0.47824347 -0.5466284
-0.4480167 -1.102121 -0.37752065 -0.94593084 -0.4641508 -0.21591516 -0.45210066 -0.47193515
-0.2574151 -0.6061199 -0.50492734 -0.73571044 -1.2834275 -0.68403554 -0.5793367 -0.55837786
-0.43935052 -0.500526 -0.29832688 -0.46015692 -0.39019546 -0.5229812 -0.52580875 -0.5299406
-0.5828461 -0.61193043 -0.34701344 -0.5380126 -0.41100323 -0.44348568 -0.76025045 -0.89819986
-0.59073246 -0.3735937 -0.36280254 -0.43063232 -0.1891178 -0.54828787 -0.36711922 -0.33947867
-0.26931736 -0.42924857 -0.64833105 -0.6186821 -0.30607066 -0.5634031 -0.27717033 -0.6990866
-1.242736 -0.5543528 -0.44530985 -0.2182735 -0.6528824 -0.60010386 -0.33995116 -0.5777597
-0.6015469 -1.2682035 -0.3818395 -0.6431267 -0.44433028 -0.70156 -0.70513684 -0.6263717
-1.3083227 -0.17868347 -0.3762426 -0.38413873 -0.44837943 -0.5035199 -0.5013209 -0.3307434
-0.3509635 -0.41511035 -0.5182088 -0.5962214 -0.22454828 -1.1868514 -1.1940228 -0.10966443
-0.32779008 -0.7798151 -0.31569606 -0.31277066 -0.5190054 -1.2284033 -1.1791073 -0.47670206
-0.49424455 -0.60248345 -0.42963323 -0.5508817 -0.5787705 -0.34523177 -0.52747744 -1.2975146
-1.365331 -0.51780826 -1.3072222 -0.4263613 -0.45442182 -0.6090945 -0.5233176 -0.29934126
-0.40550295 -0.44307533 -0.36247817 -0.3011813 -0.49532738 -0.5682109 -0.5410683 -1.4004874
-0.62053394 -0.6450579 -0.7534022 -0.39646915 -0.4709534 -0.49900326 -0.7338485 -0.53198844
-0.057565063 -0.5171515 -1.2452618 -0.2774821 -0.30001625 -0.4612256 -0.5156084 -0.6156724
