notebook/model/lstm_12_step.onnx (onnx, 212392 bytes, 9 tensors)

fc1.weight f4 [16, 64]
00000000: c13f 48bf 6417 40be cb71 a6bd ccb0 c4be
00000010: 0e6b 69bd ea17 b1be 6de8 203f d9b1 1bbf
00000020: 40a5 183e 5ede 4abe 7dfb 933d b927 03bf
00000030: 2404 ddbe 10fb fabe 2e48 2ebe e2be eabe
00000040: d12f 91bd 144d 1bbf 54db 683f 1a57 d2be
00000050: 0909 2bbe 262b 53bf 6422 323e 5d6c 243e
00000060: 18fc 693e 8ead 963e 44e6 47bd 163e 4d3e
00000070: 27e7 56be 5ee7 293d ca7b 6dbe 89c7 1fbf
00000080: 909b e73e 2f56 3db9 6a66 a3be 595c a43e
00000090: 0f94 6abe a7fb 65be 4494 a23e 3146 83bf
000000a0: 8ab9 73bf af88 01be cdce 2d3f 051a 0abd
000000b0: 2344 58be bcfc bebe efd9 733d 48a0 343e
000000c0: 477a a8bd 6269 04be e702 7abe 0ce3 423e
000000d0: 2dea a43d b22c c13d b389 ce3e b430 17bd
000000e0: 52fd 983e 940c 0a3e a661 4f3f 6d5c c7be
000000f0: d5df b9be e678 9fbe 6cf6 a23d 1f9f e8be
00000100: 0d29 953d 42fa 993a 7b8c 2b3b ed7f febd
00000110: 90fa 09bd 98c7 a03c b800 9b3d d06c 1cbd
00000120: 6094 9abd beae 9dbc c7d4 f83d c6fa d53d
00000130: fccb 21bb ae7f 5f3b 1503 9abd d956 91bb
00000140: 297b 47bd 06f4 a0ba 80d9 67be a4c1 a03d
00000150: 84a6 20bc fa4d bb3d d42a 433d 94f7 023e
00000160: d016 b23c f7f3 b83d 5226 87be 42ff 033e
00000170: 582a b3bd 753f aebd 57a5 943d 81bb 77bd
00000180: a5ad 163e 2eda cfbd b8ca c83c 5a42 673d
00000190: 53a4 d13d fe3b bc3d 279b b4bc 81ba d5bd
000001a0: be73 043e 5cb2 4d3d 92b3 003e be69 89bb
000001b0: 5f5e c53d bd74 dabd 9aa7 11bd faa4 563a
000001c0: 69c4 4cbe 96e3 b93d 9e18 77bd 7ac2 80bc
000001d0: 5b30 ad3b 5d36 c3bc d58f cbbd 0fc0 84be
000001e0: 9fe3 99bd 22a3 48bd 7a21 bd3e 2ae7 03be
000001f0: dd44 763d be8a 1bbe 73c2 99bc 3d1b 013e
00000200: dc91 833e ed2a 63be ce3f 00be 014f d3bd
00000210: 35bc 98bd fc01 0a3e 5754 f0bd a980 26bd
00000220: 6ee5 953d df77 66bb 3121 0d3d b908 923e
00000230: 3bb7 8cbe 0e14 81be bde5 a53b d99a 7a3b
00000240: d1b8 01be 6872 013f 4efb f8bc 52ce f33e
00000250: 1ffd e63c c0ae 973d a127 2dbe f161 093e
00000260: 65c7 1b3f 9669 edbe aab2 633e 6bf2 a8be
00000270: 3ed3 ffbd 4831 ab3c d9ad 0cbd f012 a13e
00000280: 453e 27bd 0649 8dbe 3f9b 823b cc9c 7fbe
00000290: 8c38 683d b4fd 34be c01e 833c 016d 793e
000002a0: 44c5 28be 2154 903d 2e8c 3fbe 6bd8 3e3d
000002b0: e6c7 563e 694f 203e a7b6 033d b0ec 6bbd
000002c0: 6a46 cb3d 02b3 89be 2d84 fdbd c4be 09be
000002d0: 4ff5 513d 50e0 43be 66bc 2c3e 4b8b 713e
000002e0: c9fb 873d fb66 203e 9e34 0fbf f017 cfbd
000002f0: d1b1 b13d 3d52 8e3e accb a23e 2606 243e
00000300: 51e3 5ebf 2275 47be 4c5f 6abe 7294 bdbe
00000310: bedf 98bd 5363 b3be 1d73 953e 1fc1 c1be
00000320: 5b6d 163c e9e4 5abe f171 4f3e 010e b4be
00000330: 7418 4ebe 0331 b4be fb97 11be 8ff2 78be
00000340: ac7c ec3d 7fde febe 5cc8 433f b92a 88be
00000350: 0d54 1bbe 0e48 6ebf 439d 1a3e c87d 8e3d
00000360: 5036 213e dbda 813e e889 0e3e 6f73 413e
00000370: 78f5 1abe c2f5 b8bd 4291 b3be 908b 3fbf
00000380: a0a7 7c3e 2be2 993d d9bb c3be c56a a53e
00000390: e53e 29be 6df8 bbbe 70d0 823e eb1b 6cbf
000003a0: b2e8 72bf 924a 0cbe bbc1 1f3f fa73 ef3d
000003b0: edbc 84be bca7 2bbe ee55 b13b 2476 2e3e
000003c0: dea7 50bc d0f7 07bc 30b1 76be f055 af3d
000003d0: d59d 9fbd 7a83 f8bc 7541 b93e 3b1d bfbd
000003e0: f069 833e ed36 e33d f14a 153f ae53 d8be
000003f0: 7237 93be 369b dfbe 4cfb a03d 6205 f5be
-0.7822228 -0.18758923 -0.08127173 -0.38416135 -0.05698686 -0.34588557 0.62854654 -0.6081825
0.14906788 -0.19811389 0.07225702 -0.51232487 -0.43167222 -0.4901967 -0.17019722 -0.45848757
-0.070891984 -0.60664487 0.9095967 -0.41082078 -0.16702665 -0.82487714 0.17395931 0.16056962
0.22850072 0.29429287 -0.048803583 0.20043215 -0.20986615 0.041480415 -0.23191753 -0.6241384
0.45235872 -0.0001805655 -0.31914073 0.32101706 -0.22908042 -0.22459279 0.31753743 -1.0255796
-0.95204985 -0.12649797 0.6789368 -0.03371622 -0.21119742 -0.37302196 0.05953401 0.17639267
-0.082264476 -0.12930825 -0.2441517 0.19031924 0.08052478 0.09432353 0.4033943 -0.03691168
0.29880768 0.1348136 0.81008375 -0.38937703 -0.36303583 -0.31146926 0.079571575 -0.454339
0.072832204 0.0011747556 0.0026176262 -0.12426744 -0.03368622 0.019626424 0.075684965 -0.03818971
-0.075478315 -0.019248363 0.12149959 0.10448222 -0.0024688235 0.0034103203 -0.07520119 -0.004435402
-0.04870144 -0.0012279756 -0.22641563 0.07849434 -0.009805325 0.09145732 0.047648266 0.12789756
0.021739393 0.090309076 -0.26396424 0.12890342 -0.08748311 -0.08508197 0.072580986 -0.060481552
0.14714678 -0.10149036 0.024510726 0.056459762 0.102364205 0.0919113 -0.022046639 -0.104359634
0.12934777 0.050218925 0.125685 -0.0041935137 0.096371405 -0.10666797 -0.035560228 0.00081880356
-0.199968 0.09076612 -0.06032621 -0.015717734 0.0052853054 -0.023829633 -0.09939543 -0.2592778
-0.075141184 -0.0489837 0.36939603 -0.12881151 0.060124267 -0.15189645 -0.018769478 0.12608047
0.2569722 -0.22184344 -0.1252434 -0.10317803 -0.07457773 0.1347732 -0.117348365 -0.040650044
0.07319151 -0.0035166664 0.034455482 0.2852228 -0.27483544 -0.25210613 0.0050627873 0.003823927
-0.12668158 0.50565195 -0.030393269 0.47618347 0.02819687 0.07406378 -0.16909648 0.13416268
0.60851127 -0.46369618 0.22236124 -0.3299745 -0.12491463 0.020897523 -0.03434548 0.3145976
-0.04083087 -0.27594775 0.003985792 -0.24962157 0.056694552 -0.17674905 0.016005874 0.24357988
-0.16481501 0.07047296 -0.18705818 0.04659311 0.20974693 0.15655293 0.032156613 -0.05759877
0.0992554 -0.26894385 -0.12378726 -0.13451678 0.051259335 -0.19128537 0.16868743 0.23588292
0.06639821 0.15664284 -0.5593966 -0.101119876 0.08676494 0.27797118 0.31796014 0.1601797
-0.8706561 -0.19478276 -0.22887915 -0.37027317 -0.074645504 -0.35036716 0.29189387 -0.37842652
0.009181346 -0.21376385 0.20258309 -0.35166934 -0.20126516 -0.35193643 -0.14218132 -0.24311279
0.11547217 -0.49779126 0.764776 -0.26595095 -0.15168782 -0.93078697 0.15099053 0.069575846
0.15743375 0.25362286 0.13919795 0.1889169 -0.15132701 -0.090312496 -0.3507176 -0.7482233
0.24673319 0.07513841 -0.38229254 0.3230802 -0.16527899 -0.3671297 0.2554965 -0.922301
-0.94886315 -0.13700321 0.62404984 0.11692043 -0.2592539 -0.16763204 0.005411855 0.17037255
-0.012735335 -0.008298829 -0.24091029 0.08561313 -0.07793776 -0.03033613 0.36182752 -0.09331747
0.2566676 0.11094461 0.58317477 -0.42251343 -0.2875324 -0.43673104 0.07860431 -0.4785567

fc1.bias f4 [16]
00000000: 2a7e 9cbe 32c9 3fbd 70bc 883e 7c13 fbbe
00000010: da87 2ebe 8dc5 93bd c193 2bbe bed1 21be
00000020: 87b5 933e e872 9ebe a6f1 c5bd cb0a 8fbd
00000030: 3e80 51bc b673 0a3f 8775 023c 9570 febe
-0.30565006 -0.046822734 0.26706266 -0.49038303 -0.17044011 -0.07215414 -0.16755582 -0.15802667
0.28849432 -0.30947042 -0.096652314 -0.069844805 -0.012786923 0.5408281 0.007962591 -0.49695268

fc2.weight f4 [1, 16]
00000000: 3572 56be d438 05bc 5d86 4dbb ef68 10be
00000010: e578 2fbc 3a9a 69bc 996d 4ebc 190b ffbc
00000020: 2465 cf3c 8304 0fbe 296f 453c 62a6 5d3b
00000030: b2da 5cbc 0518 8e3e eb03 8a3b d61d 32bd
-0.20942004 -0.008131225 -0.0031360604 -0.14102529 -0.010709976 -0.014257962 -0.012599372 -0.031133221
0.025316782 -0.13966565 0.012050428 0.0033821096 -0.013479875 0.277527 0.004211893 -0.043485485

onnx::LSTM_227 f4 [1, 256, 1]
00000000: 361b 5c3e f859 7a3e 7b1b 0abe 7971 c93e
00000010: ff0c c9bd 7d6b 81bd 3477 3a3e 612c 37bf
00000020: 539b d73f 9860 cdbe 3f20 f53e ca23 36bf
00000030: 8f1e d5be 15f4 be3e e840 63bf d691 023f
00000040: c67e 07bf eafa 9ebe d6a3 0dbf 7398 373f
00000050: 5570 033f 954a edbe d7f3 97bc 73ae 12bf
00000060: 1605 70bd bade 1dbe fd1b a53d e0e9 27be
00000070: 5464 543f b04d b6bd 13b3 113e 6478 d33b
00000080: 4cbe ff3d 7bf6 24bc a828 083f 2878 ecbd
00000090: b1cc 93be 12c7 503f 3307 25bf fe87 05be
000000a0: 63ac c83f 1336 92bd 3f77 423f 296a 6dbd
000000b0: fbcc b43d c060 d7bc 5646 edbe 4df8 2340
000000c0: 0aa0 c53e d324 36bf fe8b 61be be33 2a3f
000000d0: a4bd cd3f 26e3 9dbe b903 82bf dd06 853f
000000e0: 1ca5 d53e 6a04 03bf 4924 613e ba20 c83f
000000f0: f7f8 84be f0a9 3cbe b2b6 4e3f 5e27 833e
00000100: b390 e2bb b2c2 5440 b4a8 153b 637c a13f
00000110: 87ad c9be 9e8f ca3e b7f0 a7bd bf1a 5540
00000120: 5c9b 7a3f 894c 663d 784d f4bc 8871 803f
00000130: 61c6 4f40 869e babe 72b4 5d3d ec59 4f3f
00000140: 0f1d fc3f 6c2f a63f d020 f73d b9d0 64bf
00000150: ebe0 03bf ded8 b5be 0a1c 813f 14a3 32be
00000160: 14e9 23bf 310f 82bd a31c 86be 2a4e 3ebc
00000170: f2b2 c3bf d255 d43d 3045 e6bc 4035 5bbe
00000180: 55a7 e4bf e6f1 7440 45c4 edbf ddad 5e3d
00000190: a3f4 a73f 74a0 823d 1380 c0bf 9870 5ebf
000001a0: 872a f13e f45c 48c0 1f17 173f 34a0 43bf
000001b0: 805a bcbe 1974 40bf cde5 87bf 81fe 1440
000001c0: 45ea 36bf 66fa 46bd b188 93bf 95dd b9be
000001d0: 52c9 0740 900b f9bf 7aa5 9dbf dc68 54c0
000001e0: dcb9 b6bd f3fe 2040 4c37 483e b598 fa3f
000001f0: 4067 8340 4659 56bf bf37 a33f 70ce f83c
00000200: 278b 6dc0 d40e 2b3f 5313 7dbf d188 86be
00000210: 5894 c93e c1d4 55bf 6f29 213f 09c5 e43e
00000220: 0e11 81bf a3e4 a2be 5e41 7e3e 0b9d 053f
00000230: e2f3 ab3e b726 4d3f 4764 e03d c7a2 6cbe
00000240: 2447 423f 9640 9f3f b6b1 03bf 8263 9a3e
00000250: 4c71 48bf 46f8 1b3e 51b7 bb3e ffe2 19bd
00000260: c335 96bf d5eb 433e f09a 68bf 8785 3dbf
00000270: 20bf acbf 185f 883e 4d90 bdbe e36f e3bd
00000280: 6c9f a8bf c434 983e dcc7 4a3f de41 debe
00000290: c200 a13e 2b10 003f 2f13 273e 74b0 34be
000002a0: af78 6fbf 076b 57bd 833e b5bf 9ef7 cebf
000002b0: 1b88 05bf 0d12 94bd c21f cdbf ba8e 4ebe
000002c0: 3a78 87bf 480b 103f 9a6e fd3e 1015 e2bf
000002d0: d79b e63e c57c 573e 00de cabf 34a0 08c0
000002e0: d0be 01bf 888d 703f ddfc fabe 8e0c 4fbe
000002f0: 1ff9 f43e 63d5 fdbe 9fba a23f 1c18 9abf
00000300: f102 8e3f 1f77 953e eda5 0cbe f505 2f3e
00000310: 87b6 2b3d 714e a7be 21d3 73bf 7c10 4dbe
00000320: 4e9f f7bf 14bd f93b 1b7a 6dbe 233f e0bc
00000330: 66c5 97be 25d2 bbbd 9055 e6bd 8370 17bf
00000340: 6200 153e 06b7 67be df2f c1be 4e5b ed3b
00000350: 6674 463e a395 2e3e 935c eb3e cac8 86bf
00000360: c625 7ebe ab80 8e3e 154f fd3d 2fad aebe
00000370: 244f b23d 39e7 26bc 70f5 7fbe c051 c73c
00000380: ca55 d53e a2dd 06be 18ff 453d c69f 5d3d
00000390: 256e 54be b570 b7be 4034 9cbd 14a1 863e
000003a0: 6420 d23f e2de 153e 76c2 963f 767c d43e
000003b0: 3f11 9dbe 2c16 03be df1c 06be 473a 543c
000003c0: f163 2d3f bbda 1cbd 2043 c1be 9004 fbbe
000003d0: 51c7 47bf 70ba 43be f093 113f 48ff 063f
000003e0: 5bd2 b4bf fc5d cd3d e10a b53e d07c 973f
000003f0: 0847 94be f1a0 21bf a9cb 14be 1ac5 683e
0.21494755 0.24448383 -0.13487045 0.39344385 -0.09816932 -0.0631933 0.18209535 -0.7155209
1.6844276 -0.40112758 0.47876164 -0.7114836 -0.41624877 0.37295595 -0.88770914 0.5100378
-0.52927816 -0.31050807 -0.5532812 0.71716994 0.5134328 -0.46345964 -0.01854889 -0.5729744
-0.0585986 -0.15416995 0.08061979 -0.1639781 0.8296559 -0.089015365 0.14228468 0.0064535607
0.12487468 -0.010068531 0.53187037 -0.115463555 -0.28867105 0.8155376 -0.6446411 -0.13040158
1.5677608 -0.0713922 0.75963205 -0.05796257 0.088281594 -0.026291251 -0.46342725 2.56203
0.38598663 -0.7114994 -0.22026059 0.664852 1.6073499 -0.30837363 -1.0157386 1.039272
0.4172753 -0.5117861 0.21986498 1.5634987 -0.25971195 -0.18424201 0.8074752 0.25615972
-0.006914222 3.3243833 0.002283615 1.2616085 -0.39390203 0.39562696 -0.082002096 3.3297575
0.9789331 0.056225333 -0.029822096 1.0034647 3.246483 -0.3644907 0.054127164 0.80996585
1.9696368 1.2983222 0.12066805 -0.89380985 -0.5151507 -0.3551702 1.0086682 -0.17445022
-0.64027524 -0.06350554 -0.26193723 -0.011615315 -1.5288985 0.103679314 -0.028109163 -0.21407032
-1.7863566 3.8272643 -1.8575522 0.054365028 1.3121532 0.0637826 -1.5039085 -0.86890554
0.47102758 -3.1306734 0.59019655 -0.76416326 -0.36787796 -0.7517715 -1.0617005 2.3280337
-0.71451217 -0.048578642 -1.152609 -0.36301866 2.1216626 -1.9456654 -1.2316124 -3.3189
-0.089221686 2.5155609 0.19552344 1.9577852 4.1063538 -0.8372997 1.2751387 0.030371875
-3.7116182 0.668195 -0.9885761 -0.26276258 0.3937099 -0.8352776 0.6295385 0.44681576
-1.008333 -0.3181506 0.24829623 0.52192754 0.33584505 0.801372 0.109566264 -0.2310897
0.758898 1.2441585 -0.5144304 0.30154043 -0.7829788 0.15231428 0.36663297 -0.037569996
-1.1735157 0.19132932 -0.90861416 -0.7403187 -1.3495827 0.2663505 -0.37024155 -0.11105325
-1.3173652 0.29727757 0.7921121 -0.43409628 0.3144589 0.5002467 0.16315912 -0.17645437
-0.93543524 -0.052592304 -1.4159702 -1.6169317 -0.52160805 -0.072300054 -1.6025317 -0.20171633
-1.0583565 0.56267214 0.49498445 -1.7662678 0.4504077 0.2104369 -1.5848999 -2.134778
-0.5068178 0.9396596 -0.49021044 -0.20219633 0.47846314 -0.49576864 1.2713202 -1.2038608
1.1094648 0.29192445 -0.1373517 0.17092116 0.04192212 -0.32677034 -0.9524403 -0.2002582
-1.9345491 0.007621417 -0.23191111 -0.027373856 -0.2964279 -0.09170941 -0.112467885 -0.59156054
0.14550927 -0.22628412 -0.37731835 0.0072435504 0.1938034 0.1704927 0.45969066 -1.0530026
-0.24819097 0.2783254 0.12368599 -0.34116504 0.08706501 -0.010186964 -0.2499597 0.024330974
0.41667014 -0.13170484 0.04833898 0.05410745 -0.20745142 -0.35828176 -0.076271534 0.26294768
1.6416135 0.14635804 1.1778095 0.41501206 -0.3067722 -0.12801427 -0.13096951 0.0129533475
0.67730623 -0.038294535 -0.37746525 -0.49026918 -0.7803851 -0.19114089 0.5686636 0.5273328
-1.4126695 0.10027692 0.35359862 1.1834965 -0.28960443 -0.631362 -0.14530815 0.22731438

onnx::LSTM_228 f4 [1, 256, 64]
00000000: c106 30bf a558 5cbf 88c9 66bf 5b04 e43e
00000010: b346 4cbe 9415 0dbf 14cc 00be 17b8 483f
00000020: 6bca 953f 2331 953f 155d c9bf e0df 953f
00000030: 08ce 9dbf 6f2c a13e 0a5d d03e 0a0e bebe
00000040: 46a2 54bf 40a2 ac3d 50a4 843e 5901 483f
00000050: 6f72 903f f3fd 25be 8155 b13f 7e35 053e
00000060: 0bb3 0fbf 91e2 57be ee5e bc3f 0e30 4d3f
00000070: 7e80 8c3f 785f ce3e 1860 5abf 124e 293f
00000080: d1f2 413f bf3e 9ebf 3ad2 83be 587d af3f
00000090: 41de ba3e 2112 a8be 55ac 39bf ca31 103f
000000a0: 149b 99be 538e aa3e 5fa7 e63e f27a 363f
000000b0: 8d26 3fbf 4520 3ebf a178 ab3f ff2a eb3f
000000c0: 7cdc 7dbe f299 033f ca5f 8ebe afcb 093f
000000d0: 08b6 45bf e704 4c3e 37d0 5b3e d5be 39bf
000000e0: a406 803f e79e 58bf 908a c03f 931e 553f
000000f0: c5b7 313f 40c0 a9bd a5cb 083f 2924 ab3f
00000100: 3e5c 48bf f6f7 18be fbb8 4cbb 86c8 d9be
00000110: 435d e2be 8a88 c7be e186 a13e c349 aa3e
00000120: cd34 febe ba03 5f3d 5c07 d3bd 148f 173e
00000130: 698f c9be 76bf 4a3f 1557 ef3e 7bc0 a1be
00000140: 8c71 f1bd ad94 1e3f e579 303d f09c 723e
00000150: d6c8 553e 3e09 98be 1867 ff3d 0b74 b13e
00000160: 8fed 06bf e800 4dbf 486d 20be 3e20 1cbe
00000170: d529 fb3d 021c d53e 6a2b 63bd ba2d a2be
00000180: 2de0 e03d 01de fbbe 98b9 8fbf f5fb 34be
00000190: 5a5d 453e b345 59be be81 2fbe d07a 853e
000001a0: 111d e43e 235d af3e 1e8f e93e 5153 b23e
000001b0: a634 87be e350 7cbe b721 aabd e4e5 6c3e
000001c0: 3c78 7bbe b160 8abd 7933 b4be cd6e bdbe
000001d0: e19c f6be abe7 93be 68bf 273e 5a15 07bf
000001e0: af84 b4bd dc6e 76be fca2 2b3d 2b46 143d
000001f0: f77d e53e 9a1a a63e 1449 563f 6dc3 c0bd
00000200: 8c53 353f b7d4 243f 7071 a23e b35e 66bc
00000210: 7013 9b3e a271 8c3e 6249 79be 986f f7be
00000220: 8f02 863e d07d e0be d269 c53e 0c1f edbe
00000230: a549 413f a985 efbd 6a4e 3cbe a03c ac3d
00000240: d731 203f 8636 f8bd af83 63be 8e8b f9be
00000250: 94e4 0ebf 59e2 863e b306 02bf f201 c0be
00000260: 4fcd 1a3f 4f48 6e3e 4864 d0be c849 1bbe
00000270: a9f4 0abf d2f0 cdbe 9854 c93e 3fd3 ae3e
00000280: 347c 0abf 2b0e 563f 2769 863d 5437 d8be
00000290: ce81 19be 3ffc 163e 5669 273e ff67 8fbe
000002a0: 169b 0cbf a435 41bf aba2 57bf 1fb5 59bf
000002b0: 8d54 b03e 51af 3e3f 41c6 f1be 13fe 56bf
000002c0: 0351 b33d fcc9 033e de88 7c3e decb 1dbf
000002d0: 9596 383f a06a 0a3e 3b6c a13e f8e1 593f
000002e0: e09d 98be 01da e63e c344 0cbf eadb 15bf
000002f0: 01c6 12bf 33a4 eebd 1b50 28bf 1d30 05bf
00000300: 1ab9 99be 6edd 0a3d 2f80 a93f 7352 cabf
00000310: 71ba 54be 9e5e eabe e0bd 343e 941b 753e
00000320: 96f0 afbd 0316 a6be 3562 193f aa8e b3be
00000330: f9b2 84bb 0cd3 293f 9dbe a53c c170 113f
00000340: 8475 0a3e e243 a23e 0558 30be 6883 503e
00000350: e2e9 7ebe 2227 83be 7f4b a6be 8df1 0c3c
00000360: 7ce7 c7be 2774 3ebe f4ba 38bf 7bc2 39bf
00000370: e7b2 313e 49e7 323d 68fa 1c3f 45d1 3dbf
00000380: 077f a73d 874a 36be 50a2 99bf 231f b3bf
00000390: 4209 793b 3e00 78be b2a2 623e 4de7 11bc
000003a0: 4d8c 153f 6285 7a3f 4272 893f 0fcf 5e3e
000003b0: f2cd b9be 5e1c f0be 472b 47bf 6130 40bf
000003c0: d4b8 71bf ea4b fdbe ccc2 bebe f1f6 4cbf
000003d0: a2df 223e 74e4 4bbf 4c2e 8abf a0dd 01bf
000003e0: deb8 76bf d912 803e fb75 f6be eb48 98bf
000003f0: 1523 b83d 9443 28be 135d 9abc bfa5 51bf
-0.68760306 -0.8607276 -0.9015126 0.44534573 -0.19948845 -0.5511105 -0.1257785 0.784059
1.1702398 1.165562 -1.5731531 1.1708946 -1.2328501 0.31479213 0.40695983 -0.37120086
-0.8306011 0.08429384 0.2590661 0.78127056 1.1284922 -0.16210155 1.3854219 0.13008687
-0.5613257 -0.21082522 1.471647 0.8015145 1.0976713 0.40307212 -0.8530288 0.6613475
0.75761133 -1.2362899 -0.25746328 1.3710127 0.3649769 -0.3282633 -0.7252858 0.5632597
-0.30001128 0.3331171 0.4504957 0.7128135 -0.746682 -0.7426799 1.3396188 1.8372496
-0.2479114 0.51406777 -0.27807456 0.5382642 -0.7723088 0.19923745 0.21466146 -0.7255681
1.0002027 -0.84617466 1.5042286 0.8324978 0.69421035 -0.08288622 0.53435737 1.337041
-0.7826575 -0.1493834 -0.0031238187 -0.425358 -0.44211778 -0.3897136 0.31548217 0.332594
-0.4964966 0.054446913 -0.10304138 0.14800674 -0.39367226 0.79198396 0.46746126 -0.31592163
-0.117892355 0.6194561 0.043084998 0.2369268 0.20877394 -0.2969455 0.124708354 0.34658846
-0.52706236 -0.8007951 -0.15666687 -0.15246674 0.12263838 0.4162293 -0.055461325 -0.31675512
0.10980258 -0.49192813 -1.1228514 -0.17674239 0.19273892 -0.21217994 -0.17139336 0.2607026
0.44553426 0.34250745 0.45617002 0.3482919 -0.26407355 -0.24640231 -0.08307212 0.23134571
-0.24557585 -0.06756724 -0.3519552 -0.36998597 -0.48166564 -0.28887686 0.1638161 -0.52766955
-0.0881437 -0.24065727 0.04190348 0.03619973 0.44822666 0.3244217 0.8370526 -0.094122745
0.7083061 0.6438708 0.3172717 -0.014060664 0.30288267 0.27430445 -0.243444 -0.48327327
0.26173827 -0.43845987 0.38557297 -0.4631275 0.75503 -0.116954155 -0.18389288 0.08410001
0.6257605 -0.121197745 -0.22218202 -0.48739284 -0.5581753 0.26344565 -0.5079147 -0.37501484
0.60469526 0.23269771 -0.4070151 -0.15164864 -0.5427957 -0.40222794 0.39322352 0.34145543
-0.5409577 0.8361537 0.06563025 -0.42229712 -0.14990923 0.14744662 0.16348776 -0.2800903
-0.5492414 -0.75472474 -0.84232587 -0.85041994 0.34439507 0.7448626 -0.47221568 -0.83981436
0.08755686 0.1287002 0.24661586 -0.616392 0.7210477 0.13517237 0.31527886 0.85110426
-0.2980795 0.450882 -0.5479242 -0.5853869 -0.5733338 -0.11652412 -0.6574723 -0.5202654
-0.30024034 0.033902578 1.3242244 -1.5806412 -0.20774247 -0.45775312 0.17650557 0.23936301
-0.0859081 -0.3243867 0.5991548 -0.35069782 -0.0040496555 0.66337657 0.020232493 0.56812674
0.13521391 0.31692415 -0.17221077 0.20362628 -0.24893907 -0.25615793 -0.32479474 0.008602512
-0.39043796 -0.18598996 -0.7216027 -0.7256238 0.17353402 0.043677602 0.6131959 -0.74147445
0.081785254 -0.17801867 -1.2002659 -1.3993877 0.0037999903 -0.24218842 0.22132376 -0.008905244
0.58417207 0.97859776 1.0737994 0.21758674 -0.36289936 -0.46896642 -0.7780041 -0.7507382
-0.9442265 -0.4947198 -0.37257993 -0.800643 0.15905622 -0.79645467 -1.0795379 -0.507288
-0.96375835 0.2501438 -0.48136887 -1.1897253 0.08991066 -0.16432029 -0.01884321 -0.81893533

onnx::LSTM_229 f4 [1, 512]
00000000: c9eb 463f dcec 1d3e 73fe eebe 2998 aabe
00000010: 16db 1fbf b340 80bf 96a0 4fbe 5ba4 9bbe
00000020: 29f1 593e 1a24 653c 0e72 2e3e dad9 3abd
00000030: 37b0 493e 1e40 6dbe 0aa8 c7be 6577 bcbe
00000040: dc83 893a 6c88 9cbe be2f f1be 18cd 21bf
00000050: 1043 2d3e b659 ecbe ca71 a8bd 4531 69be
00000060: 7a8f 0ebf 1698 8bbe 9515 6f3e b8ea 85be
00000070: e589 d1be feac 8bbe 8e75 0bbd 59ed 5bbf
00000080: 68d7 97be e567 bebd ec26 83be ac92 e13e
00000090: 889f e5be 2e15 b9be 81c2 e4be 12df bcbc
000000a0: 58cb 48bf 595b 29bf a4ff b2be f987 c9be
000000b0: d6eb c2be d248 fbbe 1024 dd3e 9d0d d33e
000000c0: d8a1 13bf 501e 2dbe f0d7 f3bd 718a b2be
000000d0: 41bc 91be 9459 06bf fe52 05bf 617c f4be
000000e0: 653e 503f 1575 3b3e 7c61 413e bfd8 953d
000000f0: c759 c0bc 5f4c 07be aec2 0dbe 9e0d 0a3f
00000100: f638 c53e fa2c 1ebe 63a6 a6be cdd9 2dbc
00000110: bfff 41bf 7b4b 18bf 0fc9 1dbf 54c2 19be
00000120: c0f8 843e 4be1 bebe 65f8 85be 5f33 7dbe
00000130: 08bd ddbe bd0b 133f dbe2 84be c126 10bf
00000140: 5b72 cdbe 70a1 4cbe 2517 6f3e 5a7c dfbe
00000150: e28a 23bf 03b8 40bf 65cb 89be f2b7 cabe
00000160: 6b43 94be 8624 bb3e 02e2 18be e146 0dbf
00000170: 30ee fbbe f737 2fbf f8d0 b9be 595f aebe
00000180: 47b5 53be dee9 e9bd 6e57 6dbe e4fb 353e
00000190: 46ed 94bb cf07 2bbf d2ba 59bf f9d4 8dbe
000001a0: fe7f 453f a3ac 42bf b77a bfbe 0e04 13be
000001b0: 4f94 09bf f5d1 61bf c95c 0ebe 6116 d83e
000001c0: af9e e2be 6cc5 eebe 275e 9cbe 0a0d 1dbe
000001d0: 9698 64be 0767 bbbd 7047 f0be cf64 09bf
000001e0: 11ce 2fbe 3c50 10bf 68a2 9fbd 6fde 94bc
000001f0: f561 193c ec80 2ebf d2e3 36be d602 973e
00000200: 4daf 0a3f adf1 f63e daf1 583d 5d7e 993c
00000210: 25ce 90be 977a 67be a137 ec3d 42c7 fb3e
00000220: 8346 18bf 7ec2 7abd 264c 5e3e dc7d 3a3e
00000230: 0eed 1f3f db4d 96bd 04ae a43e 3f83 63be
00000240: 140a 193e c48d bfbc 1634 493e 0776 a1bd
00000250: baac f93b 098a 8ebe b1c7 29be 7b8a 303e
00000260: cc13 143e 54ba 9f3e 7e43 c6bd 8436 82bd
00000270: 9add a03e 2d4f c63e 0419 ea3b 5889 e1bd
00000280: e0b1 9d3e afd7 f73e aec6 24be 8d6c a2be
00000290: e652 863e 6e0d c63b 93e1 443d a3c1 a5be
000002a0: ea42 413f a659 b7be 63d2 09bc b134 8b3e
000002b0: ff0a 123e 9f9f f23d 0a75 603e 39fb 88be
000002c0: 495c 60be d516 143d 52a8 963e 282b df3e
000002d0: 9513 b3be 67b5 54bd e39b 7bbf d3c1 a13e
000002e0: 0159 48be d9fc 9c3e 0b30 58be 4be2 25bf
000002f0: 1207 e63e deb1 3f3d fdb1 1f3e 576e e53b
00000300: e1f4 95be c0ed 85be 7420 11be 9c05 ca3e
00000310: 4747 4bbe 4d3d 853d f96e 1abe c867 433e
00000320: 46ad 043d d19e 5a3e 0fcc c2be 9c10 a23e
00000330: 26ee 0bbf 0254 84be 186f 8d3d 00f3 23be
00000340: 23f0 b0be e3d2 73bd f4da 8c3d c024 6cbd
00000350: 3781 9d3e a2ab 59bd c4fc 2f3e c6b9 b5bc
00000360: 559a 443d 8125 bcbd 62a7 033f ffbb 243e
00000370: 6cc2 a1bd f686 193d 5ee0 a6be 2eb9 8c3d
00000380: 3c67 243e 9c16 b4be 0315 2b3e d253 093f
00000390: 9865 9b3d 987c 9dbd 0389 e5bd a903 9f3d
000003a0: e6f8 bbbd 5078 b7be ae3d 02be 0c3c 153d
000003b0: f71a 58bc bacb 44be f4c5 cc3e 39d4 313f
000003c0: 84af 213e 8838 33be 7cf0 d1bc 4e89 753e
000003d0: ec0e 89be ac75 073e 8ce3 303d 7e48 a93d
000003e0: 0a2a 7c3e 575a ecbe d7ac e33e 03dc bf3e
000003f0: 2832 bc3e d668 243e 2d4d 9f3d f1f6 283f
0.7770353 0.15422386 -0.46678504 -0.33319214 -0.62443674 -1.0019745 -0.20276102 -0.3039883
0.21283402 0.013985658 0.17035696 -0.045617916 0.19696127 -0.2316899 -0.3899539 -0.3680984
0.0010491568 -0.30572832 -0.47106737 -0.63203573 0.16920114 -0.46162194 -0.082248285 -0.22772701
-0.5568768 -0.2726447 0.23348077 -0.2615564 -0.40925518 -0.2728042 -0.034047656 -0.8590904
-0.2965653 -0.0929716 -0.25615633 0.44057214 -0.44848275 -0.3614897 -0.44679645 -0.023055587
-0.7843528 -0.6615501 -0.34960663 -0.3936155 -0.38070554 -0.49078995 0.43191576 0.41221324
-0.5766883 -0.16906095 -0.11906421 -0.34871247 -0.2846394 -0.52480435 -0.5207976 -0.47751144
0.81345206 0.18306382 0.18884844 0.07316732 -0.02348031 -0.13212727 -0.13843796 0.5392703
0.3852002 -0.15446845 -0.32548818 -0.01061101 -0.7578086 -0.59490174 -0.61634916 -0.15015537
0.2597103 -0.3728126 -0.26166072 -0.24726628 -0.43308282 0.57439786 -0.25954327 -0.56309134
-0.4012631 -0.19983459 0.23348673 -0.4364956 -0.63883793 -0.7528078 -0.2691299 -0.39593464
-0.28957686 0.36551303 -0.14929965 -0.5518628 -0.4920516 -0.6844477 -0.36292243 -0.3405712
-0.2067462 -0.1142156 -0.23177883 0.1777187 -0.0045448868 -0.6680879 -0.8505069 -0.27701548
0.77148426 -0.7604467 -0.37398311 -0.14357015 -0.53741926 -0.88210994 -0.13902582 0.42204574
-0.4426169 -0.46634996 -0.30540583 -0.15337005 -0.22323832 -0.0915051 -0.46929502 -0.53669447
-0.17168452 -0.5637243 -0.077946484 -0.01817247 0.009361734 -0.6816547 -0.17860344 0.2949435
0.5417374 0.4823126 0.052965023 0.018737013 -0.28282276 -0.22605358 0.11534048 0.4917546
-0.5948259 -0.06122064 0.21708736 0.18212074 0.6247109 -0.073390685 0.32164013 -0.22218035
0.14945251 -0.023383029 0.19648775 -0.0788384 0.0076194676 -0.27839687 -0.16580082 0.17240326
0.14460677 0.31196845 -0.09680842 -0.06358054 0.3141907 0.3873228 0.0071440954 -0.11012524
0.3079977 0.4840674 -0.16091415 -0.31723443 0.2623512 0.0060440814 0.048066687 -0.32374296
0.7549273 -0.35810584 -0.0084119765 0.27188638 0.14262007 0.118468516 0.21919647 -0.26754168
-0.21910204 0.036154587 0.29425293 0.43587613 -0.34975877 -0.05193081 -0.9828474 0.3159319
-0.19565202 0.30661657 -0.21112077 -0.6479842 0.4492727 0.046800487 0.15595241 0.007001679
-0.2928839 -0.2615795 -0.14172536 0.39457405 -0.19851409 0.06505833 -0.15081395 0.19082558
0.03239181 0.21349646 -0.3804631 0.31653297 -0.5466026 -0.25845343 0.06905955 -0.16010666
-0.3455821 -0.05952729 0.068776995 -0.057652235 0.30762646 -0.053142197 0.17186266 -0.02218331
0.047998745 -0.09186841 0.5142728 0.1608734 -0.07898411 0.037482224 -0.32593054 0.06871258
0.16055006 -0.351735 0.16707234 0.53643525 0.07587737 -0.0768978 -0.112077735 0.0776437
-0.09178333 -0.3583398 -0.12718841 0.03643422 -0.013190023 -0.1921834 0.39994776 0.6946445
0.1578961 -0.17502034 -0.025627367 0.23978159 -0.26769197 0.13228482 0.043185756 0.0826578
0.24625412 -0.46162674 0.44467804 0.37472543 0.36757016 0.16055617 0.07778392 0.660018

onnx::LSTM_251 f4 [1, 256, 64]
00000000: aeff eb3f 2cd2 87bf 2eee 313e 874c 22bf
00000010: a691 4ebe 834d a23e ca27 2cbf 245a 353f
00000020: 57f7 82bf ad29 003e 7040 05be 59a7 403e
00000030: 047c 21c0 1402 55bf 48c3 34bf b8f7 093e
00000040: cb96 25bf ca6f 143f 2f57 22bf 5086 4b3d
00000050: 5a1e 6fbe f625 093f fa1a dd3e e51e 89bf
00000060: fdce a6bd fd60 813e 30c7 64bd 6c75 ecbe
00000070: 2a19 b23e a43b fabd 21ea 063e 6b17 4a3f
00000080: 80fe 433e 645c 03c0 d955 fa3d d95d 9cbd
00000090: 5616 d63e 70fd 053e 7b30 3c3f 293f 12bf
000000a0: f4c3 f83f 3201 193e b57b 8d3e 7205 f43d
000000b0: 5fac a93a 239e 05bf cdc4 2c3d df60 54bf
000000c0: 1645 413f 080a 2a3f 35f2 533f 0932 c0be
000000d0: e373 e1be c28b 863e 5541 933f fc82 ad3c
000000e0: b826 84be 5387 f2be b492 cc3d c1f5 3fbd
000000f0: c059 033f e046 ebbe 44ed 403f 708d b33c
00000100: cf41 1fbf 1b1c f3bd 0e50 cb3c 5154 03be
00000110: 39c1 47be ee26 f43c 22f0 1d3e 00c0 253e
00000120: fd0a b93e 9e6a 923d 9408 06bd 3c51 163d
00000130: b524 1dbe dd15 933e 7514 123e e9db d73d
00000140: c918 32bd 4fef 143e 1fae 533d c7a1 6e3d
00000150: b852 623e e6b4 3ebd 3649 55bd c570 a43d
00000160: 2875 a4bd d0a0 14be 0b72 593b 7d09 783d
00000170: a5c0 423e 663e da3d c599 abbd 13b5 b4bc
00000180: 90c5 513c e793 7bbc f52c 65be 4eb1 c83d
00000190: d924 28bc 1b3e e5bd a6ca 07bd 5526 b13e
000001a0: 6c43 d9bc f04a 733e ae41 b7bd 9148 873e
000001b0: 2bfd 1f3d 293e c3be 3bee 533e c5b2 a53d
000001c0: 6947 033d 6fd1 55bd 11c6 bcbe 17a7 753e
000001d0: 29d7 e33d 6345 20bd 7c7e b13e 1fa2 b3be
000001e0: 103d ab3e ab6b 70bd ac42 01bd 3aa9 4fbe
000001f0: 2cb0 003e 9a3c eb3d efe3 083f 8474 653d
00000200: c5e4 ebbe 0455 9a3c 6516 02be 899b 8fbd
00000210: 8dac 53bc e265 97bd f333 d53c 8cc2 c13d
00000220: b5a2 d73d e227 3f3e 6a48 41bd 0b5d 253e
00000230: b23e d3bd 144b 803d f4e5 393e 03ed 333e
00000240: 52d0 293c fe92 27bd eac9 a3bb 0436 c23d
00000250: 06df 1d3e 3285 80bd e5f6 e33d 1580 873d
00000260: a570 d0bd 986f 05be f4c1 4a3e 343f 243e
00000270: fa4c 5a3d 0c39 243e 503d 5dbe 516b 873b
00000280: 1603 0b3e f3b3 00be 6a11 57be caf1 373e
00000290: 3579 e03d 358c 7cbd ce43 6e3a baec 1e3d
000002a0: f5d4 efbc 0701 463d af1b 923d 365d 5e3e
000002b0: 3052 38be 00f7 ebbd 0a21 563d f52f 06be
000002c0: 86b8 d5bd e3a7 17bd 5b83 2abe 9926 03be
000002d0: 6029 f3bc aa44 18bc 05f4 3cbc ea4d 0dbe
000002e0: a732 893e 2e28 f3bc a1ca ee3d 516d 323c
000002f0: 889a 7a3d 3fde 4bbc cdb6 2f3e 964d fb3c
00000300: 1f6e 06bf 3b81 02b9 26c2 45be 61fb 38be
00000310: 4507 c5bd 6e08 c4bd 3671 0c3c f545 103e
00000320: 05ec a23e 314d 813b a831 bbbd 5c42 f53d
00000330: 0137 babd 54fd 1c3e a6d5 cd3d d6c4 833d
00000340: 768d c43c a278 603e 3ff3 f33d a32e 6e3e
00000350: ff27 473c b465 34be 10ec 8d3d e64a 4a3e
00000360: 6565 8c3c 35ef 20be 9c37 993d 6d21 273e
00000370: 26f2 033e 347a 2a3e 6ea8 20be 6533 91bc
00000380: 0381 ee3d 628e cbb9 80f0 20bd d7c3 783d
00000390: b10f da3d dd8a 68be 5464 45be 8a5b d93d
000003a0: a663 9ebc 247f 373e faad 693e fa1b 053e
000003b0: e6c4 efbd 76fa 273d 70a7 d239 f3d2 46be
000003c0: bfbe 36be b06d 4abe 737c fcbd d718 80be
000003d0: be4c 6b3d 475a 77bd 7960 e53d 07fc 7abe
000003e0: 104e 283e 3886 3cbc ad52 843c 51d0 dbbc
000003f0: 3c9f 293e bcfa 0e3e 8d4e 423e c895 14bc
1.8437402 -1.0611014 0.17376015 -0.6339802 -0.20172748 0.31699762 -0.67248213 0.7084067
-1.0231732 0.12515898 -0.13012862 0.18813838 -2.5231943 -0.83206296 -0.70610476 0.13473403
-0.64683217 0.57983077 -0.6341428 0.049688637 -0.23351422 0.5357355 0.43184644 -1.0712553
-0.08144949 0.2526931 -0.055854023 -0.46183336 0.34784824 -0.12218407 0.1317525 0.78941983
0.19140053 -2.052514 0.122234054 -0.076350875 0.41813916 0.1308496 0.73511475 -0.57127625
1.94348 0.14941862 0.27633443 0.11915101 0.0012945047 -0.5219442 0.04217987 -0.82960314
0.7549604 0.66421556 0.82791454 -0.37538174 -0.44033727 0.26278502 1.1504313 0.021180622
-0.2581079 -0.4736887 0.09988919 -0.04686523 0.5130882 -0.4595251 0.7536204 0.021918029
-0.6220979 -0.11870595 0.024818446 -0.12825133 -0.19507302 0.02980372 0.15423635 0.16186523
0.36141196 0.07149242 -0.032723024 0.036698565 -0.15346034 0.28727618 0.14265616 0.105399914
-0.04348067 0.14544414 0.051679727 0.05825975 0.22101867 -0.046559237 -0.052071773 0.080293216
-0.08030158 -0.1451447 0.0033179547 0.060555924 0.190188 0.10656433 -0.083789386 -0.022059
0.01280345 -0.015355087 -0.22380431 0.09799443 -0.010262691 -0.11193486 -0.033152245 0.34599558
-0.026521407 0.23759055 -0.08948074 0.2642255 0.0390598 -0.38133362 0.20696346 0.08090738
0.032050524 -0.052201685 -0.36869863 0.23989521 0.11125023 -0.039128672 0.34666812 -0.35084626
0.33445024 -0.05869643 -0.031557724 -0.20279399 0.12567204 0.11486168 0.534728 0.05601932
-0.46072975 0.018839367 -0.12703855 -0.07012088 -0.012919557 -0.073924795 0.026025748 0.09460935
0.10529081 0.18667558 -0.0471882 0.16148774 -0.103146926 0.0626432 0.18154126 0.17570882
0.010364609 -0.040911667 -0.0049984353 0.09482959 0.15417108 -0.06275405 0.11131076 0.066162266
-0.10177735 -0.13030851 0.1980055 0.16039735 0.053296067 0.16037387 -0.2160542 0.004132666
0.13575396 -0.12568645 -0.21002737 0.17963329 0.109606184 -0.06165715 0.0009089083 0.03879998
-0.02927635 0.048340824 0.071341865 0.21715245 -0.18000102 -0.11521721 0.052277602 -0.13104232
-0.10435586 -0.037025344 -0.1665167 -0.12807693 -0.029682815 -0.009293715 -0.011532788 -0.13799253
0.26796457 -0.029682245 0.11659742 0.010890321 0.06118253 -0.012443124 0.17159577 0.030676644
-0.5251178 -0.00012445908 -0.19312343 -0.18064643 -0.09620527 -0.0957192 0.0085719135 0.14089186
0.31820694 0.0039459695 -0.091403306 0.11975548 -0.090925224 0.15331012 0.10050516 0.06434028
0.023993235 0.21921018 0.1191163 0.23259978 0.012155532 -0.17616922 0.06929791 0.19755134
0.017138192 -0.1571625 0.0748131 0.16321345 0.12885341 0.1664818 -0.15689251 -0.017724702
0.11645701 -0.0003882526 -0.03929186 0.060733642 0.10647524 -0.22709222 -0.19276553 0.10613163
-0.019334625 0.17919594 0.22820273 0.12998953 -0.11707477 0.041010343 0.00040179072 -0.19416408
-0.17846201 -0.19768405 -0.12328424 -0.2501895 0.057446234 -0.06038883 0.11200041 -0.24510203
0.16436028 -0.01150661 0.016152704 -0.026832731 0.1656465 0.13962835 0.18975277 -0.009068914

onnx::LSTM_252 f4 [1, 256, 64]
00000000: 6296 093f 0a4f 47bf 56d4 5ebe 93e4 94bc
00000010: 884c 31be a238 e23e a3fe efbe 70a9 753e
00000020: ab49 113e dba6 c3bd 3204 e8bc 2283 4fbe
00000030: fbeb 3f3e 2dc8 3f3e 5d00 01bf 348e 4a3e
00000040: a225 f63d 0203 013e 0a02 efbe f07c 143e
00000050: d282 b7be a0ef 11be 04b8 fd3e c3f1 b13e
00000060: 42a7 9abf 9b9e 9a3e 3680 eb3d 8734 68be
00000070: ef41 83be 953f 583e 6580 b53d d7f0 be3e
00000080: 54db 25bf 6d93 0c3e f3fe 8cbe 2691 813d
00000090: 52a5 0cbe 4560 cebe b6b9 3bbf 4b14 84bf
000000a0: 81b8 b83e bfa3 9ebe f081 5abf 3dc5 ed3c
000000b0: a146 84be 62ae 18bf 215b 483e 0f0d 163f
000000c0: 5829 a3be 0e9f 9a3e bdbf 18bf 1114 0cbe
000000d0: 402c a03e 2988 223e 4e4e 5fbe 6e99 1abe
000000e0: 4e6a c4bc 2a75 23bc f17a 853e 0ab7 2ebd
000000f0: 9e99 25be 3290 dc3e 1911 fbbc 6322 1e3e
00000100: fde6 82be 0077 03bc 5018 f6bc c96d 4ebc
00000110: 380f 92bd 72c9 16be 930a 513e 9b3c 063d
00000120: 482a 2c3e fa3d 84be b989 a03d 83e3 9c3c
00000130: 5930 39be 9e97 763e 7b3b 17be 6802 a83c
00000140: 262e e83d 9951 d5bd 8ad1 2f3e 3523 e3bd
00000150: 7efa 33be 10aa 11be cadc 833c ba7c 2e3e
00000160: 7b1b 5bbe 0cd9 403e ad54 98be 7fd5 2d3e
00000170: 13dd 58bd ac58 43bc 4a51 5e3c 677d 41be
00000180: 8ffa 813e a48a b73d 1db8 34be f201 8a3d
00000190: b9c2 a0bd bda0 0cbd 71af 133e c83c 94be
000001a0: 3f30 c5bd d6ee 163e da34 933e a603 38bc
000001b0: 8acb dd3b 49dd 08be 8b0e 1a3e d1ab 9f3b
000001c0: 30ce d8bd 77a5 35be 2220 bfbd 0afb 1a3e
000001d0: 8cb1 043d bd84 6d3d e32d ae3c 7423 1dbe
000001e0: 41e7 213e addd 9c3b 1aa5 f13d a7e3 4cbe
000001f0: f921 3fbe 1e43 c9bd d355 18be 34ab 2ebe
00000200: 4500 2fbe a32d 25bd f040 f73b b0d8 64be
00000210: e877 7dbc 9e13 8abd bb53 c2bb 67d9 3b3c
00000220: 069a be3d 472f dabd c73c 69bd 8d73 95bd
00000230: 3032 91bd 1160 07bd 7898 ecbd 295d 4cbe
00000240: ca49 503e d428 03bd c6a4 063e 067c b0bb
00000250: cc6b 62bd 5afc 143d eb4c c03d 8085 2e3e
00000260: 3403 37bd 4ea8 fb3d 652f 72be 9236 a93c
00000270: b859 1bbe 8cd3 57bc 0dcc 08bd 3241 c43c
00000280: 1cda a93d 9233 94bd 25ff 0abe 5d45 283e
00000290: 7f85 b2bd cac8 1fbe 981f 303e ee5b b93d
000002a0: 5b34 e5bd 31f6 0e3e abde 763c 13c4 663d
000002b0: b58a a5bd e425 60bd c497 543d c280 ac3d
000002c0: a918 1bbd 02a6 20be a2af 22be f1d5 bf3c
000002d0: 4e47 b83b 04fc 043e 0f4a 7c3d c179 28be
000002e0: 2062 74bc 8672 1f3e 0ebe a43d 5eb0 57be
000002f0: 345d 47bd 26e2 b7bd 4194 03be 21c7 8dbd
00000300: 3ad5 78bd 0965 17bd 607b 41be 49a7 ecbd
00000310: 209d 54be b544 4fbe 71f3 553e 2172 eebd
00000320: 2682 2e3e 07b2 e8bd d4d4 e63c 0f75 123c
00000330: cf14 eabd 722d 953d b977 6fbc 522d 08be
00000340: 926c 923a 007e 3cbd 8673 263d 3f6f 6abe
00000350: 6259 1fbe d097 bebd 80ac 403e dda4 7dbb
00000360: 8536 dabd c02c 7f3d 7853 71bd 202c 153e
00000370: 0725 7fbd 76db 273e 7616 48be 0341 28be
00000380: 3c77 5f3e 790d a8bd d4f6 08be 0d77 0d3e
00000390: 88e1 85bd d0fb 42bd dc2a c43b 812e 043e
000003a0: 95c8 0ebd c768 823d 4528 5c3e dc11 213d
000003b0: 88c6 85bd faab 57bd cf75 273e 26da 7e3d
000003c0: 0378 cb3c b281 0b3d 37f7 ebbd 6500 ef3d
000003d0: dd44 20be 4883 d03c df3e 103c 969e c3bd
000003e0: 49fc 1f3e fbd3 393e 4e0f f63d e483 cbbd
000003f0: f4b2 49be 95b2 8dbd 125f b53a 7b32 cdbd
0.5374509 -0.7785498 -0.21760687 -0.018175399 -0.1731435 0.44183832 -0.4687396 0.23990417
0.14188258 -0.095533095 -0.028322313 -0.20264867 0.18742363 0.18728705 -0.5039118 0.19780809
0.12018897 0.12598804 -0.46681243 0.14500785 -0.35841995 -0.14251566 0.49554455 0.34754762
-1.2082293 0.3019913 0.11499064 -0.22676288 -0.2563624 0.21118005 0.0886238 0.3729312
-0.64787793 0.13728113 -0.2753826 0.06326513 -0.1373494 -0.40307823 -0.7333025 -1.0318693
0.36078265 -0.30984303 -0.8535452 0.029024715 -0.25835136 -0.5964109 0.19566013 0.58613676
-0.3186748 0.30199474 -0.5966757 -0.1367953 0.3128376 0.15872253 -0.21807215 -0.15097591
-0.023976471 -0.009976665 0.2607036 -0.04265503 -0.16171882 0.43078762 -0.030647801 0.15442805
-0.25566855 -0.008023977 -0.03004089 -0.012599417 -0.07131809 -0.14725283 0.2041419 0.03277264
0.16813004 -0.25828534 0.078387685 0.019151455 -0.1808485 0.24081275 -0.14768784 0.02050896
0.11336927 -0.10415954 0.17169777 -0.110906996 -0.17576024 -0.1422503 0.016096491 0.17039767
-0.21397202 0.18832797 -0.29752102 0.16975974 -0.052945208 -0.0119229965 0.0135691855 -0.18895493
0.25386474 0.089619905 -0.17648359 0.06738652 -0.078496404 -0.03433298 0.14422394 -0.28952622
-0.09628343 0.14739546 0.2875126 -0.011231339 0.0067686485 -0.13365664 0.1504461 0.004872777
-0.10586202 -0.17738901 -0.09332301 0.15134826 0.032395884 0.057987917 0.021262115 -0.15345556
0.15810873 0.004787168 0.11799069 -0.20008717 -0.18665303 -0.09827255 -0.1487649 -0.17057496
-0.17089947 -0.040326726 0.007545583 -0.22348285 -0.015470482 -0.06742023 -0.0059303916 0.011465407
0.093067214 -0.10653549 -0.056942727 -0.0729743 -0.07089651 -0.0330506 -0.115525186 -0.19957413
0.20340648 -0.03202136 0.13148794 -0.0053858785 -0.055278584 0.036373474 0.09389671 0.17043114
-0.04468079 0.12287961 -0.23650892 0.020655904 -0.15170944 -0.013172995 -0.033397723 0.023956869
0.08293554 -0.07236399 -0.13573892 0.1643271 -0.087168686 -0.15603939 0.17199552 0.09050737
-0.11191627 0.13961102 0.015067737 0.056339335 -0.08083097 -0.054723635 0.051902547 0.08422996
-0.037865315 -0.15688327 -0.15887311 0.023417445 0.0056237346 0.12986761 0.061594065 -0.16452695
-0.014915973 0.15571031 0.080440626 -0.21063372 -0.04867287 -0.08978681 -0.12849523 -0.069227464
-0.060750224 -0.03696159 -0.1889472 -0.115553446 -0.20763063 -0.20241053 0.20893647 -0.11642862
0.17041835 -0.11362081 0.028177656 0.008939042 -0.1142975 0.07284059 -0.014615946 -0.13298538
0.0011171272 -0.0460186 0.040637515 -0.22894 -0.1556144 -0.093063 0.18815804 -0.0038703003
-0.1065493 0.062298536 -0.058917493 0.14567614 -0.06229117 0.16392311 -0.19539818 -0.1643105
0.21822828 -0.08205695 -0.13375407 0.13814946 -0.06537157 -0.04760343 0.0059865545 0.12908365
-0.03485926 0.06367641 0.21499737 0.039323673 -0.065320075 -0.052654244 0.16353534 0.06221976
0.0248375 0.034059234 -0.11521762 0.11669997 -0.1565127 0.025453225 0.008804052 -0.09551732
0.15623583 0.1814727 0.12014638 -0.099372655 -0.19697171 -0.069188274 0.0013837537 -0.10019394

onnx::LSTM_253 f4 [1, 512]
00000000: f805 71bc 11f6 243d e8b4 253e b33b c83d
00000010: 1bb5 dd3d 1c9a 343d 2dc8 b43e 90fd 4b3e
00000020: 1536 253e b7f7 993d d4cd acbe fb18 dcbc
00000030: fa37 04bc 3958 833e 1292 bc3c 3848 023e
00000040: 9e3d 583e eb3e 0b3e 51c9 103e 0442 15bd
00000050: e246 183e 083c 52bd 6a3c c23d faba d63d
00000060: 0076 42be 7e52 17bc 8b5c 013e 1a9c 923d
00000070: eb69 f73c 3116 69bd 4d0d 473e 2db9 b0bc
00000080: 225e 963b 6467 3abf 4635 613d 9b1b 063e
00000090: 2fd5 2d3e 59ca 8e3c de69 b03e 082d 653d
000000a0: b3c8 343d a6fb 633d 75a5 fd3e 172c 3ebe
000000b0: cecc 573e 5876 9c3c 9d0c 303d 8a62 1a3e
000000c0: 7437 8a3e 8de9 843e 4194 e23b cc89 a13e
000000d0: d562 493e 69ca 933d 56da e6be 6eba 543e
000000e0: 9c6f c53d 0002 babe 165c 373e f99e 8a3d
000000f0: 1c19 683e 4a1d bbbb ef0d c0be 8348 143d
00000100: 5ba1 46be 6082 ffbd aa2d 133e 4624 62be
00000110: 2991 ccbc 6d76 b83d 0de4 183f 3908 e23d
00000120: 25fc febd 0d79 7b3e 8a54 d0be 7e4a 2ebd
00000130: 4f6d 18bd c68c b8be c1ec 2a3e cff1 0fbe
00000140: 5f44 c0bd 4b70 d3bd bb05 18be 918e 82be
00000150: 71ad 7dbc 0676 113e 68a6 08be 49a1 663c
00000160: 221d adbe 77ed 31be 3203 ca3e 94ab 283e
00000170: 2ae1 903d e09f 1abe af09 0fbe e6f4 1f3e
00000180: f819 ecba f75a bb3c 94e9 653e 48d9 0f3c
00000190: b4d3 19be ad22 323d 26a9 173f bef5 81be
000001a0: a6c9 803d 1651 a93e 89aa d23e 6bc8 78be
000001b0: 9480 3c3d 16f0 35be d202 44bc 0253 45be
000001c0: 2c57 f63e d9db d6be 5fc8 37be beb3 c63d
000001d0: 255f 963d e8ea 573b 3825 2e3e c661 163e
000001e0: 3085 42be c8c6 473e 57be 033e 0de7 0a3e
000001f0: bed0 19bd d1e0 093e 8caa 273d 3a5e 193e
00000200: e7b0 1fbd 88e9 173e 1306 283e b46f 2f3e
00000210: 10b8 003e cf5c 353d 8c2e 953e 1134 37be
00000220: ab89 293b fa04 94bb 76ab 87be 404d 8039
00000230: fa38 04bd d7ee 2abd a2a5 17be 62bc 663b
00000240: 7c5b b03d efaa cebb 715e 2a3e f31a db3d
00000250: 41c5 9c3b 39fb b7be 8e58 213e a994 843d
00000260: 0d46 33bd b7df 21be 1c1a fb3d 9cb8 883d
00000270: 47ba 5c3d 7ef1 613d 902e 673e 30ab 243e
00000280: 55ed 013e 84c7 ffbe 14d3 973d 0708 cd3c
00000290: bb60 5b3c 65e0 203e cd1c ab3e 14a9 90be
000002a0: 240c 28be 4b1d 353d 1517 a1bb d4b3 a1bc
000002b0: 8988 963d 7dc3 573e 04a8 493e 0010 01bc
000002c0: 20e6 f03e 2d78 163f ce4e 243e ebef 363e
000002d0: 3cda 27be a060 233e 203a 99be d3cf 60be
000002e0: 2164 263e 0efb 1fbe d3f4 a8be 73dc a63d
000002f0: a944 c73c 0a2d 35be 21c0 2cbe 8a63 983d
00000300: f3d7 74be 5e7a d5bd 5eb9 0ebd fa98 34be
00000310: e181 85bd ec96 72bd d257 703e c84d 39bd
00000320: 54e1 cf3d 4365 5fbc 90ab a0bd 4f97 05be
00000330: f693 eebd e65c cabd 2f69 573b 19b7 1fbc
00000340: 0a5b cb3d 1b7b 28be e55f 313e a620 48be
00000350: dd0b 51be a436 69be 2a23 d73d 0727 223e
00000360: 545f 0dbc ce93 943d 5113 16be b91f dbbd
00000370: a111 adbd 4d9d 3ebd 780c e7bd 72b2 4f3c
00000380: ea29 263d f31f 303e 9afd 14be 4aea 5d3e
00000390: d8e8 39be bdf6 3ebd 0d7f b73d 48b2 48bd
000003a0: 5738 2d3d 3478 433e 9235 f23e a878 aa3c
000003b0: b1e8 76be 1d05 13be 602b 4f3e 2afc 733d
000003c0: 313e 5ebe da94 17bd de50 1ebe edea 643d
000003d0: accc 33be 1daf e93d 9a11 713e 9b34 b4bb
000003e0: 025a 433e bed0 b33d 1311 f23d c773 41be
000003f0: 97ad 5ebd 1f08 ca3d 0145 eebd 02a4 c1bd
-0.014710896 0.04027373 0.16182292 0.09777012 0.10825559 0.044092283 0.35308972 0.19920945
0.16133912 0.07517951 -0.33750784 -0.02686738 -0.0080699865 0.25653246 0.02301887 0.12722862
0.21117255 0.1359822 0.14139296 -0.03643991 0.1487079 -0.05132678 0.09484179 0.10484882
-0.18990326 -0.009235976 0.12632959 0.0715868 0.030201873 -0.05690593 0.19438668 -0.021572674
0.004588858 -0.7281401 0.054982446 0.13096468 0.16975854 0.017430471 0.3445577 0.05595115
0.044136714 0.055659913 0.49540296 -0.18571506 0.2107422 0.0190994 0.04298078 0.15076652
0.26995432 0.25959435 0.006914646 0.31550443 0.19666608 0.07216341 -0.45088452 0.20774242
0.096404284 -0.3632965 0.17906222 0.06768603 0.22665828 -0.0057102786 -0.3751063 0.036201965
-0.1939749 -0.12476039 0.14372888 -0.2208415 -0.024971562 0.09006963 0.5972298 0.110367246
-0.124504365 0.24557896 -0.40689498 -0.04255151 -0.03721362 -0.36044902 0.16691877 -0.14057086
-0.09388041 -0.103241526 -0.14845936 -0.25499395 -0.015483246 0.14205179 -0.13344729 0.014076539
-0.3381129 -0.17375742 0.39455563 0.16471702 0.07074197 -0.1510005 -0.13968538 0.15620765
-0.001801311 0.022870524 0.22452384 0.008779831 -0.15022165 0.0434901 0.59242475 -0.253828
0.062884614 0.33069676 0.41145733 -0.24295203 0.04602106 -0.17767367 -0.011963563 -0.19269946
0.48113382 -0.41964605 -0.1794753 0.09702252 0.07342366 0.0032946412 0.17006385 0.14685735
-0.1899612 0.19509423 0.12865578 0.13564701 -0.037552588 0.13464667 0.04093413 0.14977351
-0.038987067 0.14835179 0.16408567 0.17132455 0.12570214 0.044277962 0.29137075 -0.17890956
0.002586941 -0.004517195 -0.26498002 0.00024471618 -0.0322809 -0.04173168 -0.14809278 0.00352075
0.08611199 -0.006306998 0.16637589 0.106984995 0.0047842567 -0.35933855 0.15756437 0.06473667
-0.043767978 -0.15807997 0.12260839 0.066758364 0.053888585 0.055161946 0.22576356 0.16080928
0.12688191 -0.49956906 0.07413307 0.025028242 0.013389762 0.157106 0.3342041 -0.28253996
-0.16410881 0.04421739 -0.0049160817 -0.019739069 0.07350261 0.21070667 0.19692999 -0.00787735
0.4705057 0.58777124 0.16045687 0.17864959 -0.16391844 0.15954828 -0.29927158 -0.21954279
0.16249134 -0.15623114 -0.32999286 0.08147516 0.024324732 -0.17692962 -0.16870166 0.074408606
-0.23910503 -0.1042373 -0.03484475 -0.17636481 -0.06518913 -0.05922596 0.23471001 -0.045240194
0.101504 -0.0136349825 -0.07845223 -0.13046001 -0.11649315 -0.09881 0.003286909 -0.009748244
0.09929474 -0.16453211 0.17321737 -0.19543704 -0.20414682 -0.2277475 0.10504754 0.158352
-0.008628685 0.07254754 -0.14655806 -0.1069941 -0.08450628 -0.046536732 -0.11281675 0.012676822
0.040567316 0.17199688 -0.14549866 0.21671405 -0.18155229 -0.046622027 0.0895978 -0.048998147
0.042290058 0.19088823 0.47306496 0.020809487 -0.24112202 -0.1435742 0.2023139 0.059566654
-0.21703412 -0.03700719 -0.15460536 0.055888105 -0.17558545 0.11410353 0.2354187 -0.005499435
0.19077304 0.08780049 0.11819663 -0.18891822 -0.054364767 0.0986483 -0.11634255 -0.0945511
