notebook/model/multi_output_lstm.onnx (onnx, 212323 bytes, 9 tensors)

fc1.weight f4 [16, 64]
0.10026121 0.04653651 0.052354805 -0.12530297 -0.051492807 0.12268904 0.07155687 0.11160384
0.08345624 0.04347991 -0.061190996 0.08278349 0.042129893 -0.08767685 0.103535816 -0.11311869
0.042865317 -0.0611059 -0.14264631 -0.084146746 -0.04296889 -0.057310924 0.106115445 -0.094616674
-0.0034808407 -0.1323714 0.05712857 -0.13206293 0.066819526 -0.055486783 0.08523433 -0.03161827
-0.122665614 -0.018006941 -0.120008275 -0.010534967 -0.060170345 0.048744544 0.080552965 -0.07900516
0.051368397 -0.007199738 0.02894442 0.07593373 0.083686456 0.06984753 -0.07419339 -0.08985444
0.018034399 0.06388447 0.07459805 -0.059106044 0.11677508 0.031657893 -0.0029473642 0.0992292
0.09628701 -0.0551378 -0.06516492 0.08529961 0.101467855 0.1389796 0.100509904 -0.0128572
0.060023446 0.09676512 -0.10703391 0.010502977 -0.101281874 0.056474667 0.14961053 0.09577319
0.095280334 -0.016594324 -0.062110912 0.09825229 0.0794722 -0.01999621 0.07911299 0.02957272
0.04412074 0.16375133 -0.14700817 0.06550369 0.057725135 -0.08338983 0.030381927 -0.09530346
0.12650503 0.07781045 -0.036983795 0.038380392 0.12870261 -0.11693858 -0.05849501 -0.1577998
-0.0030745603 0.035060655 -0.14565781 -0.04225454 0.079414696 -0.036745127 -0.075732686 -0.045348193
-0.06594339 0.0967089 -0.10655691 -0.090341456 0.049690455 0.03407555 0.097528964 -0.10463195
-0.042313155 -0.038313277 0.10784609 -0.07800165 0.10783427 -0.12869498 -0.09186475 0.076297626
0.06356709 -0.005814324 -0.1361388 -0.08742508 0.041468743 0.074178085 0.035132553 0.1061583
0.022387106 0.038742762 -0.08013543 -0.049663633 0.04560506 0.040962897 -0.070218295 -0.01313589
0.023665966 -0.10848474 0.082911246 -0.08522719 0.07100364 -0.03810751 0.07135582 -0.031303767
-0.00668561 -0.05534837 -0.004912222 0.008551558 -0.0010349031 0.10815303 0.04333396 -0.0038500417
0.07754787 -0.083213836 0.0006614763 0.07840971 0.084421024 0.08497038 -0.06933553 -0.058391493
0.102997124 -0.12199284 0.019512476 -0.07361968 0.117133245 -0.07130352 -0.043038704 -0.01840954
0.0013194266 0.08434412 -0.04749218 0.00026928962 -0.06271706 -0.046294905 -0.035299297 -0.046169464
-0.06374501 0.05425364 0.059749316 0.06594111 0.09304904 -0.056427862 0.033161853 0.08645387
0.08300878 -0.00744306 0.038732048 -0.06588829 0.11158671 -0.03418012 -0.05841547 0.035277605
0.045972265 -0.034518603 -0.13821591 -0.012955185 0.038790315 0.08897254 0.084866166 -0.066280104
-0.099833004 -0.07603353 0.06144021 -0.11009073 0.124227375 -0.024430709 0.030524066 0.11657635
0.10906951 0.071493775 -0.07631754 0.072608806 -0.108170666 -0.09995156 0.032542475 -0.018493265
0.07542942 -0.06927591 0.07223934 -0.14632148 -0.02431174 -0.051779334 0.0951565 0.04194419
0.0042969007 -0.12921199 -0.04021654 -0.10653413 -0.06309505 -0.032475363 -0.053477414 0.08066004
0.0016316208 -0.07626188 -0.012556967 0.07820361 0.06235552 -0.017897388 0.024459513 -0.07469155
0.033836734 0.03634893 -0.022826197 0.09710489 -0.14605911 -0.059405 0.1335872 -0.018518522
0.1091622 -0.04110625 0.028838905 0.018974824 0.010679558 0.027157998 -0.008234679 0.12919517
00000000: c055 cd3d 119d 3e3d fe71 563d 6c4f 00be
00000010: 1fea 52bd 6444 fb3d 698c 923d 8e90 e43d
00000020: 1beb aa3d fd17 323d 69a3 7abd 648a a93d
00000030: 6590 2c3d ec8f b3bd 960a d43d c6aa e7bd
00000040: 8b93 2f3d 2e4a 7abd e011 12be 2155 acbd
00000050: 2600 30bd dcbe 6abd 0e53 d93d 63c6 c1bd
00000060: d11e 64bb 5e8c 07be a6ff 693d 813b 07be
00000070: add8 883d 1c46 63bd 568f ae3d 2982 01bd
00000080: 1c38 fbbd 4b83 93bc e6c6 f5bd db9a 2cbc
00000090: 2e75 76bd 5ca8 473d f4f8 a43d 75cd a1bd
000000a0: ab67 523d c8eb ebbb d91c ed3c 2583 9b3d
000000b0: ce63 ab3d 390c 8f3d b4f2 97bd 9b05 b8bd
000000c0: e0bc 933c dcd5 823d ddc6 983d 2e19 72bd
000000d0: c627 ef3d b5ab 013d 9128 41bb ae38 cb3d
000000e0: 2032 c53d 2cd8 61bd 3075 85bd 90b1 ae3d
000000f0: 61ce cf3d ab50 0e3e 23d8 cd3d 01a7 52bc
00000100: 25db 753d cb2c c63d 9834 dbbd ae14 2c3c
00000110: df6c cfbd fb51 673d 8133 193e bc24 c43d
00000120: 5622 c33d d2f0 87bc 0368 7ebd 7f38 c93d
00000130: 52c2 a23d 17cf a3bc fe05 a23d 7d42 f23c
00000140: f3b7 343d 6eae 273e 4f89 16be cc26 863d
00000150: 3171 6c3d 4ac8 aabd 85e3 f83c 762e c3bd
00000160: 898a 013e 165b 9f3d 527c 17bd c234 1d3d
00000170: 9eca 033e 7f7d efbd 7798 6fbd 4596 21be
00000180: 907e 49bb c39b 0f3d 5227 15be 1913 2dbd
00000190: 2ca4 a23d 0f82 16bd bd19 9bbd 07bf 39bd
000001a0: 540d 87bd 510f c63d 823a dabd f104 b9bd
000001b0: 3888 4b3d ce92 0b3d 44bd c73d 4749 d6bd
000001c0: 8f50 2dbd 62ee 1cbd 69de dc3d 54bf 9fbd
000001d0: 37d8 dc3d 9ec8 03be 9623 bcbd ee41 9c3d
000001e0: 762f 823d 1686 bebb f867 0bbe ec0b b3bd
000001f0: 21db 293d aeea 973d 27e7 0f3d 8669 d93d
00000200: 2a65 b73c bbb0 1e3d 0b1e a4bd 186c 4bbd
00000210: 5fcc 3a3d b6c8 273d 9cce 8fbd ea37 57bc
00000220: 21df c13c 3f2d debd 5fcd a93d 988b aebd
00000230: 5b6a 913d 9f16 1cbd 0023 923d 6138 00bd
00000240: f612 dbbb f9b4 62bd b4f6 a0bb d51b 0c3c
00000250: 96a5 87ba 567f dd3d f37e 313d fb50 7cbb
00000260: 6bd1 9e3d 046c aabd ec66 2d3a 4595 a03d
00000270: eee4 ac3d f304 ae3d c9ff 8dbd eb2b 6fbd
00000280: 28f0 d23d 62d7 f9bd a1d8 9f3c eac5 96bd
00000290: 8ee3 ef3d 9407 92bd 5a49 30bd 9bcf 96bc
000002a0: 9cf0 ac3a 9cbc ac3d 2987 42bd 712f 8d39
000002b0: cd71 80bd ba9f 3dbd ff95 10bd 311c 3dbd
000002c0: be8c 82bd 1139 5e3d b3bb 743d 220c 873d
000002d0: 7f90 be3d e720 67bd b9d4 073d ba0e b13d
000002e0: 8200 aa3d eae4 f3bb 7fa5 1e3d 71f0 86bd
000002f0: 9387 e43d 7400 0cbd 0f45 6fbd 407f 103d
00000300: 6a4d 3c3d 6163 0dbd 7988 0dbe fc41 54bc
00000310: 98e2 1e3d 3c37 b63d 50ce ad3d ddbd 87bd
00000320: 3f75 ccbd 78b7 9bbd bba8 7b3d 4077 e1bd
00000330: ec6a fe3d e922 c8bc 9b0d fa3c 95bf ee3d
00000340: d65f df3d 546b 923d 5f4c 9cbd edb3 943d
00000350: 9588 ddbd 67b3 ccbd 424b 053d 307f 97bc
00000360: bd7a 9a3d 87e0 8dbd 38f2 933d 4cd5 15be
00000370: 6a29 c7bc 9116 54bd 69e1 c23d accd 2b3d
00000380: 04cd 8c3b 2650 04be 19ba 24bd 912e dabd
00000390: fa37 81bd e304 05bd 220b 5bbd 1731 a53d
000003a0: 1cdc d53a 302f 9cbd bdbb 4dbc 3729 a03d
000003b0: 8068 7f3d 8b9d 92bc 515f c83c e2f7 98bd
000003c0: 6398 0a3d 9ee2 143d 01fe babc eede c63d
000003d0: 8590 15be a852 73bd 15cb 083e 28b4 97bc
000003e0: 6e90 df3d 075f 28bd 913f ec3c 1771 9b3c
000003f0: 50f9 2e3c 737a de3c bfea 06bc bd4b 043e

fc1.bias f4 [16]
-0.02706951 0.07739911 0.0037825648 0.12522389 -0.051393 -0.0035628835 -0.114750326 0.006553785
-0.094608545 -0.0012619303 -0.043765724 0.037430502 5.722165e-05 -0.1384769 -0.09948192 -0.015204526
00000000: e1c0 ddbc 6d83 9e3d e8e4 773b b13a 003e
00000010: 7781 52bd 447f 69bb 3802 ebbd 22c1 d63b
00000020: 20c2 c1bd 5b67 a5ba b043 33bd ba50 193d
00000030: 4701 7038 e3cc 0dbe 2dbd cbbd 671c 79bc

fc2.weight f4 [1, 16]
-0.011590408 -0.19697936 0.0024558168 -0.04368655 0.021489928 0.0015519012 0.14635977 -0.0032977914
0.1397943 0.0025981513 -0.050926976 -0.0199584 0.0013148207 0.116450414 0.035293125 0.0027762332
00000000: b2e5 3dbc f5b4 49be c5f1 203b abf0 32bd
00000010: a50b b03c 2a69 cb3a 56df 153e c21f 58bb
00000020: 3d26 0f3e bf45 2a3b ce98 50bd cc7f a3bc
00000030: 1056 ac3a 8e7d ee3d 868f 103d 77f1 353b

onnx::LSTM_226 f4 [1, 256, 1]
0.09067457 0.33892387 0.058763716 -0.18099345 0.0040212795 0.07193133 0.13113599 0.17452285
0.2768449 0.0013554249 0.23623677 0.17139617 -0.04413275 0.2412002 0.07027019 -0.21793926
0.41507602 0.27614588 -0.020799564 -0.24106446 0.07318247 0.3979208 -0.030766124 0.29454574
-0.335892 0.115768924 -0.31114665 0.10310817 0.30610287 -0.28836143 0.34511766 -0.04846016
0.39498636 -0.39098498 -0.38322157 -0.30052504 -0.74960077 0.20418409 0.44321093 -0.065174356
-0.06531989 0.25090885 0.2918236 0.19217908 0.5289242 0.32612482 0.31147045 -0.37920013
-0.12276595 0.20695671 0.10719974 0.36809283 0.015810033 0.15244414 0.62811667 0.35407335
0.37547964 0.5030314 -0.006513655 0.10663432 -0.070467375 0.14877251 0.11249429 -0.38401926
0.056554437 0.41541943 0.06582594 0.4796825 0.003395679 0.30408958 0.04832724 0.19454373
0.1390261 0.08231243 0.51171046 0.08248521 -0.20659085 0.038937133 0.30354977 -0.4570037
0.3120709 0.08918282 0.24128269 -0.26955792 0.24602708 0.48653284 0.34334445 -0.03519215
0.15171218 -0.0012531175 -0.123764366 0.028792756 0.49472007 -0.2593275 0.36662152 -0.1271735
0.14895993 -0.025609154 0.11699746 -0.034443114 -0.72602016 0.33406362 0.4453793 -0.026521478
-0.0850755 0.34281635 0.32715908 0.19788106 0.28348586 0.053660303 0.2642035 -0.40407392
-0.1759476 0.12396101 0.029732807 0.2936831 -0.14621451 0.32418218 0.25502482 0.16457012
0.32465583 0.4494856 -0.09264662 0.12966514 0.38877833 0.29639214 0.16954328 -0.17603841
-1.1494089 -0.046023935 0.2881303 1.1804072 -0.28232127 -0.11730854 0.22848585 0.18040536
-0.40620804 -0.106060386 0.017223908 -0.10161111 -1.0341427 -0.74528897 -0.41989505 -0.23524588
-0.22955905 -0.24634983 -0.3384146 -0.64519143 0.039570082 -0.36701697 0.43263984 -0.39111915
0.81179833 -0.7449382 0.15484 -0.015052522 0.15997298 -0.47778702 -0.43229654 0.1405122
-0.42426783 -0.07206085 0.8314309 0.0152338 -0.2673876 0.14103945 0.057292607 0.35210368
-0.92660946 0.036419347 -0.17571811 0.2060207 -0.40099755 -0.71191627 0.05550511 0.022047
-0.36149764 -0.1593127 -0.17583525 -0.26809958 -0.6114314 -0.58470637 -1.4784703 -0.6654388
0.008619544 -0.33617413 -0.50893444 -0.23905616 0.7396364 -0.3196516 0.24096675 -0.5284651
-0.6978359 0.24063791 -0.0921519 0.07041916 0.08856823 0.40408 0.1647059 -0.2597462
-0.25454682 -0.47247875 0.117723085 0.22313537 0.63624066 -0.45370895 -0.6028966 -0.45633864
-0.51507735 -0.5558002 -0.41083062 0.46656722 0.3078274 -0.2994811 0.4389846 -0.40604642
0.46819085 0.6868667 0.1890414 0.15261853 0.09914924 0.40490127 -0.33586463 0.07149552
-0.19639167 0.42488474 -0.38041368 -0.55480826 -0.6204487 -0.19258851 0.04810832 -0.022982774
-0.6263043 0.27272782 -0.3253472 0.21089306 -0.3536387 -0.59794146 -0.33708453 0.21387528
0.70262796 -0.1631434 -0.42093766 -0.1002265 0.40092167 0.54289836 0.4519391 -0.43030962
0.21768908 0.35570422 0.41101938 -0.27306503 0.08077158 -0.5607915 -0.40213567 -0.45996234
00000000: 97b3 b93d 6e87 ad3e 39b2 703d 5956 39be
00000010: f0c4 833b bc50 933d 8348 063e 1eb6 323e
00000020: 9dbe 8d3e 83a8 b13a 0de8 713e 7a82 2f3e
00000030: 8bc4 34bd 2ffd 763e d1e9 8f3d 782b 5fbe
00000040: d884 d43e fe62 8d3e d963 aabc 9ad9 76be
00000050: b1e0 953d 46bc cb3e 3d09 fcbc b3ce 963e
00000060: 09fa abbe 4218 ed3d 9d4e 9fbe 602a d33d
00000070: 84b9 9c3e 1ca4 93be 43b3 b03e 297e 46bd
00000080: a73b ca3e 2f2f c8be 9e35 c4be 6bde 99be
00000090: d6e5 3fbf a215 513e 8bec e23e 227a 85bd
000000a0: 6fc6 85bd 2077 803e e769 953e 98ca 443e
000000b0: 9467 073f d5f9 a63e 0e79 9f3e 8526 c2be
000000c0: b76c fbbd 76ec 533e 8a8b db3d aa76 bc3e
000000d0: 0b84 813c 511a 1c3e 41cc 203f 1a49 b53e
000000e0: de3e c03e aac6 003f 8070 d5bb 1863 da3d
000000f0: 3351 90bd d257 183e 6863 e63d 2c9e c4be
00000100: a0a5 673d dbb1 d43e c0cf 863d f298 f53e
00000110: 0a8a 5e3b a1b1 9b3e c9f2 453d 7936 473e
00000120: dc5c 0e3e 6b93 a83d 75ff 023f 01ee a83d
00000130: 8d8c 53be 8b7c 1f3d e06a 9b3e 64fc e9be
00000140: c2c7 9f3e 7ba5 b63d cf12 773e 7f03 8abe
00000150: 86ee 7b3e d51a f93e d8ca af3e a525 10bd
00000160: 705a 1b3e a53f a4ba 2c78 fdbd c9de eb3c
00000170: f34b fd3e 93c6 84be d1b5 bb3e c539 02be
00000180: f488 183e 4aca d1bc 5d9c ef3d 3914 0dbd
00000190: 75dc 39bf 630a ab3e c108 e43e 9243 d9bc
000001a0: 103c aebd a085 af3e 6581 a73e 55a1 4a3e
000001b0: 0f25 913e e8ca 5b3d ae45 873e c7e2 cebe
000001c0: 9c2b 34be 45df fd3d 3792 f33c a25d 963e
000001d0: 42b9 15be 35fb a53e 9d92 823e 1285 283e
000001e0: 4a39 a63e fa22 e63e 83bd bdbd f0c6 043e
000001f0: f40d c73e b6c0 973e c19c 2d3e 6a43 34be
00000200: d51f 93bf 9883 3cbd d185 933e 9517 973f
00000210: 6a8c 90be 763f f0bd 32f8 693e 2fbc 383e
00000220: 80fa cfbe 3036 d9bd 2719 8d3c 7c19 d0bd
00000230: ca5e 84bf 42cb 3ebf 7cfc d6be 4ce4 70be
00000240: 8711 6bbe 2143 7cbe ae44 adbe 442b 25bf
00000250: 3d14 223d a6e9 bbbe f882 dd3e c540 c8be
00000260: 04d2 4f3f 45b4 3ebf 618e 1e3e da9e 76bc
00000270: f5cf 233e 80a0 f4be f955 ddbe 6ee2 0f3e
00000280: a239 d9be a494 93bd a8d8 543f 3097 793c
00000290: 07e7 88be a56c 103e a7ab 6a3d ef46 b43e
000002a0: 4736 6dbf 742c 153d 73ef 33be 17f7 523e
000002b0: 8d4f cdbe 2540 36bf 5459 633d e99b b43c
000002c0: 3816 b9be de22 23be 280e 34be 5944 89be
000002d0: c586 1cbf 51af 15bf 843e bdbf 325a 2abf
000002e0: fd38 0d3c 041f acbe 8749 02bf 23cb 74be
000002f0: d058 3d3f 60a9 a3be fdbf 763e 7d49 07bf
00000300: 60a5 32bf c969 763e 23ba bcbd ec37 903d
00000310: 4363 b53d 93e3 ce3e aaa8 283e 74fd 84be
00000320: f653 82be bce8 f1be cd18 f13d 997d 643e
00000330: abe0 223f 8a4c e8be 6e57 1abf 38a5 e9be
00000340: 1cdc 03bf ec48 0ebf 6458 d2be e6e1 ee3e
00000350: 8e9b 9d3e 9655 99be 97c2 e03e 51e5 cfbe
00000360: b6b6 ef3e 7fd6 2f3f 1294 413e 0848 1c3e
00000370: c20e cb3d 384f cf3e 73f6 abbe 3e6c 923d
00000380: e61a 49be 7e8a d93e 95c5 c2be ea07 0ebf
00000390: bad5 1ebf ec35 45be 3b0d 453d 5f46 bcbc
000003a0: 7b55 20bf fba2 8b3e e893 a6be 5af4 573e
000003b0: 2210 b5be b112 19bf 5896 acbe 1f02 5b3e
000003c0: 6ddf 333f 100f 27be 2485 d7be 8d43 cdbd
000003d0: 9b45 cd3e 63fb 0a3f 9064 e73e 8b51 dcbe
000003e0: e3e9 5e3e dd1e b63e 2271 d23e 2ecf 8bbe
000003f0: 926b a53d 0890 0fbf bae4 cdbe 2f80 ebbe

onnx::LSTM_227 f4 [1, 256, 64]
1.3487436 -0.13615894 0.048300643 0.69147235 0.32634073 -0.42264825 0.085857525 0.30788562
0.316724 0.6014673 0.015543341 -0.04801191 -0.9703199 0.5455214 1.1526899 -0.22477584
0.8346271 0.544529 0.92607474 -0.49154767 -0.3421732 0.6542805 -0.83516276 -0.02906613
-0.667676 -1.3207269 -0.10700213 -0.06500371 0.5779791 -0.42225075 0.22164702 -0.07480876
-0.5775246 -0.092649855 0.57451814 0.46528465 0.48091167 0.28492102 0.5180192 -0.28393936
0.77287465 0.18546991 0.67184174 -0.1852119 0.5185296 0.97411907 0.3705164 0.4166376
-0.07938625 0.03422148 0.4280584 -0.3056032 -1.0618279 -0.9397843 -0.9239501 0.6287611
-0.35572478 -0.85207635 -0.49546435 0.1634354 -0.35573182 0.54108965 0.1910262 0.38062653
0.12602735 0.14924534 0.06264554 -0.056149773 0.17907734 -0.018052522 -0.010883701 -0.007119241
-0.06249749 -0.33634126 0.12527663 -0.055872668 -0.0381236 0.054618604 -0.21219558 -0.046919484
-0.008698247 -0.070772186 0.20317955 -0.2655085 0.11702963 -0.048286404 0.11389093 0.0014513596
0.3455289 -0.106061764 0.28246334 0.1457136 0.15461205 -0.044767175 0.11060482 0.29160443
-0.5705659 0.1471336 -0.39094856 0.0012339975 -0.07427536 -0.019906493 0.04345031 0.16092674
-0.051064484 0.062042456 -0.06301861 -0.08145611 -0.083432645 0.04886544 0.014636241 0.1046348
0.0216808 -0.12791139 -0.008661321 0.05401322 -0.26035103 -0.020846684 -0.2885963 0.3280082
0.3149472 0.012572 0.18226644 0.07874239 0.1338967 -0.16375145 0.16385809 -0.004717016
-0.079894796 0.09081323 -0.16780244 0.41602167 -0.04792357 0.0235424 -0.015487266 0.02032879
-0.14984061 -0.2273944 0.1703558 0.4033064 0.04302982 0.14701158 -0.26848158 -0.6222113
-0.09315941 -0.10288287 -0.0059126974 0.040942024 0.3236437 0.025284007 -0.044708043 -0.44211185
-0.19942695 0.19076994 -0.03423247 -0.044143282 0.3164913 0.21696897 -0.35978368 0.26364082
-0.082259454 0.2705525 0.14703086 -0.15542604 -0.10547686 -0.1583838 0.23742342 -0.09742589
-0.16232304 0.2919272 -0.16633682 -0.013663491 -0.0892269 0.023825807 -0.18964982 0.22829066
0.4442724 0.14378007 0.08005145 -0.39091408 0.06267753 0.083099626 -0.2798147 0.28415996
-0.0010992575 -0.07237087 -0.24625666 -0.39064887 -0.1418743 -0.30261767 -0.09327482 -0.16687204
0.020808859 -0.1384342 -0.21861374 -0.39548197 -0.05033629 -0.089576446 0.086345255 -0.12244889
-0.04619348 0.2685036 -0.18317719 -0.32095614 -0.20201942 -0.28341585 -0.053036254 0.19797516
-0.08599561 0.031059315 0.34501922 -0.10936037 -0.21032129 -0.24076934 0.1405932 -0.16031921
-0.008371493 -0.31909552 -0.06741312 0.32411024 0.00090901344 -0.5421972 0.120321006 -0.20861778
0.09727352 -0.20699833 -0.048318997 -0.0024338488 0.124950685 0.08328709 -0.065468565 -0.10154665
0.28068352 -0.116686575 0.0380462 0.09923533 -0.060173143 -0.0021675609 -0.2839283 -0.2651165
-0.17106096 -0.25709188 0.15197255 -0.1297134 -0.13211533 0.15730903 0.4726265 -0.49753675
-0.20411544 0.40243095 0.013481796 0.17607783 0.6254186 0.13063367 0.09435039 0.35341966
00000000: a1a3 ac3f 406d 0bbe e5d6 453d 5504 313f
00000010: 2216 a73e 5a65 d8be 12d6 af3d 2fa3 9d3e
00000020: a629 a23e c3f9 193f 7fa9 7e3c 23a8 44bd
00000030: e366 78bf 4aa7 0b3f 588b 933f a32b 66be
00000040: 1faa 553f 4166 0b3f 3c13 6d3f 23ac fbbe
00000050: 5331 afbe ed7e 273f 3acd 55bf 181c eebc
00000060: d0ec 2abf 940d a9bf ef23 dbbd aa20 85bd
00000070: 70f6 133f 4031 d8be 70f7 623e 5635 99bd
00000080: a7d8 13bf 35bf bdbd 9f13 133f ca39 ee3e
00000090: 0e3a f63e 2be1 913e e89c 043f 8060 91be
000000a0: 1ddb 453f d3eb 3d3e d2fd 2b3f 30a8 3dbe
000000b0: 5bbe 043f de5f 793f 53b4 bd3e 8651 d53e
000000c0: 4295 a2bd d32b 0c3d 782a db3e 0678 9cbe
000000d0: fae9 87bf b495 70bf fe87 6cbf 7df6 203f
000000e0: 8f21 b6be ad21 5abf 81ad fdbe 9c5b 273e
000000f0: 7b22 b6be da84 0a3f 5f9c 433e 7be1 c23e
00000100: 500d 013e c5d3 183e 4e4c 803d 4efd 65bd
00000110: 0d60 373e e2e2 93bc 8d51 32bc 8648 e9bb
00000120: 5efd 7fbd ec34 acbe 8448 003e bdda 64bd
00000130: 7e27 1cbd c2b7 5f3d cc49 59be a52e 40bd
00000140: 1883 0ebc 02f1 90bd 4d0e 503e bbf0 87be
00000150: 3bad ef3d f7c7 45bd a63f e93d 8c3b be3a
00000160: 2ae9 b03e e936 d9bd 099f 903e f235 153e
00000170: 9f52 1e3e c95d 37bd c884 e23d 2d4d 953e
00000180: 9b10 12bf 31aa 163e 692a c8be 16be a13a
00000190: ae1d 98bd f112 a3bc f4f8 313d fbc9 243e
000001a0: fe28 51bd 3b20 7e3d e70f 81bd 76d2 a6bd
000001b0: bcde aabd 2127 483d d8cc 6f3c c54a d63d
000001c0: ef9b b13c 34fb 02be 37e8 0dbc f73c 5d3d
000001d0: bb4c 85be aac6 aabc e5c2 93be b1f0 a73e
000001e0: c240 a13e cafa 4d3c 0ea4 3a3e b143 a13d
000001f0: 371c 093e 76ae 27be 6aca 273e 3391 9abb
00000200: e29f a3bd 49fc b93d 67d4 2bbe cb00 d53e
00000210: 814b 44bd fedb c03c 4dbe 7dbc 9088 a63c
00000220: d16f 19be 14da 68be c071 2e3e 2d7e ce3e
00000230: 0940 303d 348a 163e 6b76 89be 3d49 1fbf
00000240: 5cca bebd 41b4 d2bd 4dbf c1bb d3b2 273d
00000250: a1b4 a53e 6820 cf3c c81f 37bd 7c5c e2be
00000260: 9436 4cbe 3259 433e 5937 0cbd 96cf 34bd
00000270: 260b a23e 1d2d 5e3e 9135 b8be eefb 863e
00000280: a577 a8bd db85 8a3e 428f 163e 0128 1fbe
00000290: 4104 d8bd 5d2f 22be 201f 733e 3a87 c7bd
000002a0: 0338 26be 7b77 953e 3354 2abe d6dc 5fbc
000002b0: 98bc b6bd 572e c33c 9033 42be 07c5 693e
000002c0: ac77 e33e 153b 133e 04f2 a33d e425 c8be
000002d0: 145d 803d 2330 aa3d df43 8fbe 6a7d 913e
000002e0: f614 90ba 2e37 94bd b52a 7cbe 2103 c8be
000002f0: 7f47 11be b4f0 9abe de06 bfbd 81e0 2abe
00000300: 5777 aa3c b2c1 0dbe 48dc 5fbe 9d7c cabe
00000310: 6d2d 4ebd db73 b7bd c8d5 b03d 7cc6 fabd
00000320: 6035 3dbd 4e79 893e cd92 3bbe 5d54 a4be
00000330: 2ede 4ebe e21b 91be 8b3c 59bd 00ba 4a3e
00000340: 771e b0bd 1b70 fe3c 5ca6 b03e 54f8 dfbd
00000350: 775e 57be 3d8c 76be aaf7 0f3e b82a 24be
00000360: 9628 09bc 7d60 a3be e40f 8abd c7f1 a53e
00000370: dc4a 6e3a 70cd 0abf dc6a f63d e69f 55be
00000380: 5737 c73d 5ff7 53be 24ea 45bd 3581 1fbb
00000390: 25e6 ff3d 6c92 aa3d 6214 86bd b1f7 cfbd
000003a0: c0b5 8f3e 5ff9 eebd 55d6 1b3d e53b cb3d
000003b0: 1d78 76bd a30d 0ebb 0d5f 91be 5abd 87be
000003c0: 9b2a 2fbe 8ca1 83be b19e 1b3e 97d3 04be
000003d0: 3e49 07be 9e15 213e 1afc f13e 23bd febe
000003e0: a303 51be 6e0b ce3e c0e2 5c3c bf4d 343e
000003f0: 6f1b 203f d5c4 053e c73a c13d 6cf3 b43e

onnx::LSTM_228 f4 [1, 512]
0.33123502 0.13427001 -0.05316767 0.33208588 0.056033015 0.04921871 -0.032754492 0.055136245
0.032288298 0.09665673 -0.09013507 0.18097892 0.28884226 0.04473377 0.037381753 0.16443399
0.09581898 0.1941437 0.26008385 0.062960885 -0.038444676 0.05086346 0.2917692 0.05629824
0.23320346 0.2671299 0.080192186 -0.0812704 -0.07038638 0.049414836 0.07889846 0.04542523
0.084902525 0.19240054 0.16673239 0.18475431 0.25137272 0.0044870693 -0.0059173903 0.02622112
0.2727892 0.12007598 0.17162776 -0.050838847 0.1424834 0.19228418 -0.051498234 0.3116311
0.2595993 -0.03917273 0.19251554 0.17300186 0.18650956 0.20005736 0.18916465 0.2417766
0.14889586 0.08542541 0.2120515 0.20737615 0.22375044 0.12312984 0.21119338 0.23635742
0.3161692 0.042054623 -0.19677894 0.23359495 -0.0026863057 0.048743296 0.083020374 0.026327249
0.01176358 0.20711438 -0.039420974 0.09176741 0.3669093 0.07745965 0.08580462 0.26081318
0.12985386 0.095640644 0.17805837 0.16354083 -0.017670874 0.23456146 0.3323015 0.046927143
0.36214897 0.33658978 -0.058614768 -0.04148867 0.100900136 0.19262448 0.11750385 0.027371632
0.012007062 0.16837782 0.25848687 0.36441314 0.14229213 -0.082158506 -0.04421976 -0.054124158
0.28316674 -0.061682194 0.020020861 -0.092313096 0.14622508 0.22223443 0.06925089 0.29016715
0.37459898 -0.14037669 0.058435675 -0.0865876 0.20262131 0.1019624 0.51435584 0.22085176
0.014898464 0.35194984 0.17190818 0.026823848 0.019007904 0.161754 0.18348199 0.31847507
0.043526597 0.078545995 -0.13513805 0.16673551 0.1159354 0.16004 -0.020002 -0.06408253
-0.090505764 0.035663426 -0.019239007 0.06446677 -0.058615804 0.030719917 0.1244327 0.027758019
0.03638706 -0.18401323 -0.113560356 -0.06728919 -0.11446874 0.021901876 -0.10134989 -0.049544252
-0.19835497 -0.005601726 -0.15751575 0.02832434 -0.03171176 -0.14518595 0.26898167 -0.1408721
0.031781014 -0.10200385 -0.10001951 0.031032113 -0.09672054 0.07464869 0.103962235 -0.18846989
0.09732108 -0.087308176 0.040612176 -0.17372288 0.16257691 0.05897165 -0.14762226 0.025039176
-0.031413935 -0.063492544 0.09382308 0.0758193 -0.16015273 0.03008772 -0.1656075 -0.12906514
-0.0053630127 0.10393491 0.035356488 0.062327728 -0.056743547 -0.027309107 -0.18081455 0.060057208
-0.0210326 -0.017369188 -0.08600069 0.043346655 -0.07911446 0.08460037 0.09938656 0.01290848
-0.0023018196 0.068102755 0.1108429 -0.12882088 0.12664236 0.117811 0.10143436 -0.005042382
-0.030926228 -0.051486462 -0.032714877 0.13969615 -0.04993968 0.060310263 0.15157852 -0.08770531
0.010820024 0.0061220145 -0.041839868 0.05991674 -0.05607583 0.12573972 -0.045996252 -0.002954184
0.01525737 -0.047513455 -0.010878994 -0.11472226 -0.044008896 -0.035247937 -0.113901526 0.0037485254
-0.024692757 -0.09658163 -0.054178584 0.111072324 -0.015649036 -0.08904161 -0.100664735 -0.043680593
-0.073797196 -0.030220784 -0.14685549 -0.009418226 0.029577442 -0.07899824 0.014989582 0.21571767
0.04331823 0.015796162 0.05037273 -0.06855014 0.014741794 -0.031097114 -0.11913551 -0.19047853
00000000: a397 a93e 147e 093e 58c6 59bd 2907 aa3e
00000010: e082 653d 8f99 493d 9329 06bd 8bd6 613d
00000020: bc40 043d f7f3 c53d bc98 b8bd 8a52 393e
00000030: 22e3 933e c23a 373d 9c1d 193d 6261 283e
00000040: be3c c43d 9bcd 463e b629 853e a3f1 803d
00000050: 2a78 1dbd 3456 503d c662 953e fc98 663d
00000060: e3cc 6e3e 40c5 883e cd3b a43d 1871 a6bd
00000070: bc26 90bd 3667 4a3d 8495 a13d ce0f 3a3d
00000080: 60e1 ad3d a604 453e e5bb 2a3e 3c30 3d3e
00000090: edb3 803e 4408 933b abe6 c1bb adcd d63c
000000a0: 07ab 8b3e 65ea f53d 30bf 2f3e 653c 50bd
000000b0: 2be7 113e 25e6 443e d0ef 52bd 1d8e 9f3e
000000c0: 33ea 843e 9673 20bd cb22 453e 6627 313e
000000d0: 5dfc 3e3e d6db 4c3e 61b4 413e 4994 773e
000000e0: 2878 183e 84f3 ae3d 0724 593e 6a5a 543e
000000f0: d61e 653e 7f2b fc3d 1443 583e ae07 723e
00000100: eee0 a13e 7841 2c3d 6b80 49be 8433 6f3e
00000110: bb0c 30bb 0da7 473d 9606 aa3d 3eac d73c
00000120: 08bc 403c cb15 543e e377 21bd 8df0 bb3d
00000130: 89db bb3e 2aa3 9e3d 55ba af3d 4e89 853e
00000140: 69f8 043e 3edf c33d ef54 363e 3f77 273e
00000150: 82c2 90bc e130 703e 6c23 aa3e ad36 403d
00000160: 976b b93e 7f55 ac3e 0a16 70bd 06f0 29bd
00000170: bba4 ce3d 5a3f 453e dca5 f03d 793a e03c
00000180: 45b9 443c 3c6b 2c3e 6458 843e 5c94 ba3e
00000190: 07b5 113e b842 a8bd c71f 35bd 4bb1 5dbd
000001a0: 3bfb 903e 78a6 7cbd ca02 a43c a60e bdbd
000001b0: 07bc 153e 6c91 633e 69d3 8d3d ca90 943e
000001c0: 70cb bf3e e8be 0fbe 3f5a 6f3d d754 b1bd
000001d0: f67b 4f3e aad1 d03d d3ac 033f f726 623e
000001e0: b018 743c c532 b43e b308 303e b0bd db3c
000001f0: 77b6 9b3c d7a2 253e b4e2 3b3e 2a0f a33e
00000200: f248 323d b9dc a03d a161 0abe b7bc 2a3e
00000210: 8a6f ed3d 87e1 233e 3cdb a3bc b43d 83bd
00000220: 165b b9bd d013 123d 1f9b 9dbc 2707 843d
00000230: 2017 70bd 56a8 fb3c 92d6 fe3d c964 e33c
00000240: 990a 153d f76d 3cbe 5592 e8bd eace 89bd
00000250: 966e eabd 906b b33c 8890 cfbd eaee 4abd
00000260: 911d 4bbe af8e b7bb cf4b 21be 7208 e83c
00000270: 31e4 01bd a0ab 14be f7b7 893e c740 10be
00000280: cf2c 023d 65e7 d0bd 07d7 ccbd 0f37 fe3c
00000290: 6b15 c6bd 6ae1 983d 27ea d43d 40fe 40be
000002a0: 4650 c73d a1ce b2bd f458 263d 69e4 31be
000002b0: 907a 263e 428c 713d 4a2a 17be f51e cd3c
000002c0: e6ab 00bd 6108 82bd 5126 c03d 2647 9b3d
000002d0: 14ff 23be 867a f63c 0395 29be a729 04be
000002e0: 36bc afbb d3db d43d f7d1 103d 5c4b 7f3d
000002f0: ec6b 68bd 59b7 dfbc 7327 39be 8cfe 753d
00000300: 8f4c acbc d449 8ebc 2121 b0bd 438c 313d
00000310: c306 a2bd f542 ad3d 2e8b cb3d 177e 533c
00000320: 20da 16bb 7579 8b3d 9a01 e33d 9fe9 03be
00000330: 89ae 013e e546 f13d d1bc cf3d 913a a5bb
00000340: 0059 fdbc 78e3 52bd 0900 06bd 820c 0f3e
00000350: 8d8d 4cbd e507 773d 6637 1b3e d79e b3bd
00000360: 7846 313c 2e9b c83b 4860 2bbd 416b 753d
00000370: c5af 65bd eac1 003e 9166 3cbd fc9a 41bb
00000380: 0cfa 793c 789d 42bd cf3d 32bc 81f3 eabd
00000390: ac42 34bd 2460 10bd 3445 e9bd d2a9 753b
000003a0: 7748 cabc 97cc c5bd 5dea 5dbd e379 e33d
000003b0: 6832 80bc 735b b6bd 5029 cebd 6cea 32bd
000003c0: fc22 97bd 9491 f7bc 4961 16be e74e 1abc
000003d0: 644c f23c d4c9 a1bd dd96 753c 18e5 5c3e
000003e0: 756e 313d f466 813c a353 4e3d 0464 8cbd
000003f0: 9187 713c 60bf febc 51fd f3bd ce0c 43be

onnx::LSTM_250 f4 [1, 256, 64]
-0.31151956 0.2004235 -0.1691148 0.26639488 0.028446846 0.05980932 -0.0150301205 -0.034260258
-0.039069477 -0.23708314 0.07324684 0.20182097 0.2866784 0.09577153 -0.12975968 -0.3702114
0.06343451 0.031245083 -0.34965152 0.09653662 0.26975593 -0.0019302467 0.04034441 -0.27083603
0.091899514 0.4310005 0.049852837 0.043002684 0.31111968 0.41952437 -0.0133557655 0.12222089
-0.32166138 0.2544082 -0.11686396 0.079012625 -0.082471766 -0.024869304 0.20677091 0.0033153086
-0.6485644 0.020920828 -0.055348884 0.018473972 -0.15816122 -0.16968219 0.05291458 0.49631506
0.40804803 -0.046169523 -0.030788872 -0.101442054 0.13580039 0.005229405 -0.24759737 0.056123868
0.094289504 0.05835346 -0.044019893 -0.1563483 -0.02599837 -0.15424663 -0.12730218 -0.3516024
-0.16826448 0.17440322 0.11953916 0.3182668 0.027941542 -0.016599063 0.043877568 -0.052580927
-0.02187599 -0.24008772 0.16947432 0.0951192 0.17081782 -0.11621848 -0.11495874 -0.24735507
-0.06779013 0.16608474 -0.17463239 -0.051166877 0.14518915 -0.071983136 0.013533179 -0.05495307
0.103127226 0.067266405 0.15089194 -0.0965293 0.15284339 0.16518676 -0.13404319 0.19981469
-0.151444 0.026332645 -0.22109705 0.04550291 -0.09368967 -0.13302524 0.21760531 -0.13282032
-0.1697667 0.02920904 -0.051508114 -0.062858395 -0.10100357 -0.11014214 -0.013535738 0.047080398
0.20330435 -0.09562492 0.10305368 -0.13419376 0.11144125 -0.094180524 -0.07212431 0.036510516
0.16709134 0.00056520203 -0.20156017 0.06369243 0.1710895 -0.14639078 0.058302466 0.057173245
-0.35849255 -0.0866218 -0.081912175 0.4006434 0.10810657 -0.05527506 -0.093056075 0.2873523
-0.1959947 -0.20974068 0.0150899645 0.22870666 0.21233302 0.16353996 0.0039545326 -0.45333967
-0.08759485 0.19739392 -0.5198858 0.26341438 0.3048859 0.027047096 -0.36689064 -0.18054157
0.028733062 0.0786021 0.0009868385 -0.1668719 0.39377546 0.66829735 -0.16303156 0.25466615
0.112188205 0.3096173 0.21345155 -0.16142656 -0.03396081 0.13515589 0.16830012 0.07704897
-0.61556673 0.233539 -0.07433953 -0.03343019 0.031775724 -0.06547709 0.08771211 0.2748385
0.3815177 0.19280937 0.087972306 -0.22801782 0.07653859 -0.03518762 -0.22314827 0.21007378
-0.024073344 -0.033691075 -0.08156255 -0.29336065 -0.19342268 -0.021587087 -0.20371078 -0.37781405
-0.35612014 0.41076192 0.24492922 0.20042041 -0.012058384 0.17695987 -0.14087091 -0.06415006
-0.16111213 -0.3254158 0.16871013 0.24596147 0.27863103 -0.021825394 -0.19328415 -0.4319105
-0.1870213 -0.18000597 -0.0668885 -0.039912116 0.24677813 -0.2569472 0.287937 -0.16098472
0.25078624 0.11604535 0.091435 -0.10117629 -0.037152175 0.08573539 -0.33866137 0.14009438
-0.096586645 0.12910357 -0.13549213 0.06755796 0.044005744 -0.002559001 -0.03930118 0.1014791
-0.23353373 0.18308885 -0.40065092 0.04672085 -0.24588889 -0.07274733 -0.09626569 0.06825185
0.25923222 0.039477125 -0.18108237 -0.061496418 0.11919021 0.20517269 -0.0003821426 -0.045704763
0.24636084 0.23408265 -0.03149019 0.013637282 0.08994676 -0.3304491 -0.04953513 -0.099942476
00000000: 7e7f 9fbe d13b 4d3e 6e2c 2dbe e964 883e
00000010: 5c09 e93c 9efa 743d e540 76bc 7c54 0cbd
00000020: 5107 20bd ecc5 72be 7002 963d 28aa 4e3e
00000030: 83c7 923e dd23 c43d b9df 04be 598c bdbe
00000040: f4e9 813d b0f5 ff3c 8605 b3be feb4 c53d
00000050: 731d 8a3e 5500 fdba 2e40 253d 05ab 8abe
00000060: d035 bc3d 19ac dc3e 7d32 4c3d 9523 303d
00000070: 144b 9f3e e6cb d63e 24d2 5abc f24e fa3d
00000080: cdb0 a4be cb41 823e 5f56 efbd 5fd1 a13d
00000090: f5e6 a8bd b6ba cbbc c1bb 533e a645 593b
000000a0: 5108 26bf 2862 ab3c 83b5 62bd ba56 973c
000000b0: 04f5 21be 2bc1 2dbe f5bc 583d 021d fe3e
000000c0: aceb d03e 411c 3dbd f238 fcbc dac0 cfbd
000000d0: 420f 0b3e 6e5b ab3b 2a8a 7dbe 24e2 653d
000000e0: db1a c13d 0a04 6f3d 344e 34bd c519 20be
000000f0: 89fa d4bc d4f2 1dbe 815b 02be 3b05 b4be
00000100: 864d 2cbe c296 323e f2d0 f43d def3 a23e
00000110: a9e5 e43c c2fa 87bc f7b8 333d 195f 57bd
00000120: 4735 b3bc 8ed9 75be ad8a 2d3e dbcd c23d
00000130: deea 2e3e f403 eebd 7d6f ebbd a64a 7dbe
00000140: 8dd5 8abd 1e12 2a3e d5d2 32be 5c94 51bd
00000150: 77ac 143e e56b 93bd 44ba 5d3c 7816 61bd
00000160: 5e34 d33d f8c2 893d 6b83 1a3e 27b1 c5bd
00000170: fa82 1c3e b826 293e 9e42 09be 399c 4c3e
00000180: 2314 1bbe 8fb7 d73c 4467 62be 4261 3a3d
00000190: 5fe0 bfbd c537 08be edd3 5e3e 0d02 08be
000001a0: 52d7 2dbe cc47 ef3c 2cfa 52bd e7bb 80bd
000001b0: f6da cebd 3492 e1bd 00c5 5dbc 60d7 403d
000001c0: 042f 503e 00d7 c3bd cf0d d33d 176a 09be
000001d0: 4f3b e43d b8e1 c0bd e9b5 93bd 0d8c 153d
000001e0: fe19 2b3e 112a 143a ca65 4ebe 2d71 823d
000001f0: 1632 2f3e 77e7 15be 91ce 6e3d 7e2e 6a3d
00000200: 568c b7be c566 b1bd 92c1 a7bd 2221 cd3e
00000210: fa66 dd3d 1a68 62bd 2f94 bebd d71f 933e
00000220: d6b2 48be 43c6 56be e63b 773c 1432 6a3e
00000230: d46d 593e 0577 273e 0695 813b 231c e8be
00000240: ee64 b3bd a221 4a3e 3c17 05bf 40de 863e
00000250: 011a 9c3e df91 dd3c 17d9 bbbe e4df 38be
00000260: 9961 eb3c 23fa a03d ce58 813a 78e0 2abe
00000270: f09c c93e 8915 2b3f bff1 26be 9a63 823e
00000280: eec2 e53d 2986 9e3e 0b93 5a3e 014d 25be
00000290: 7e1a 0bbd 4e66 0a3e de56 2c3e dacb 9d3d
000002a0: c895 1dbf d924 6f3e 533f 98bd 18ee 08bd
000002b0: 4327 023d da18 86bd 68a2 b33d a2b7 8c3e
000002c0: 4a56 c33e d26f 453e d32a b43d 817d 69be
000002d0: 44c0 9c3d e520 10bd fb80 64be 951d 573e
000002e0: 7635 c5bc a7ff 09bd 440a a7bd 5e33 96be
000002f0: 9810 46be 67d7 b0bc 8f99 50be d870 c1be
00000300: 6155 b6be 634f d23e bace 7a3e 023b 4d3e
00000310: 8790 45bc f834 353e 7740 10be 1b61 83bd
00000320: 94fa 24be e69c a6be 59c2 2c3e 53dd 7b3e
00000330: baa8 8e3e 2bcb b2bc 48ec 45be 6023 ddbe
00000340: 8382 3fbe 7c53 38be d6fc 88bd e37a 23bd
00000350: 68b3 7c3e 958e 83be 7a6c 933e 2ed9 24be
00000360: 0e67 803e 2fa9 ed3d 4642 bb3d 8435 cfbd
00000370: e12c 18bd 0996 af3d 0665 adbe e774 0f3e
00000380: 38cf c5bd ba33 043e 73be 0abe d45b 8a3d
00000390: 5e3f 343d eab4 27bb 46fa 20bd 46d4 cf3d
000003a0: 7723 6fbe a57b 3b3e 1e22 cdbe 5d5e 3f3d
000003b0: 4cca 7bbe 8dfc 94bd f226 c5bd a0c7 8b3d
000003c0: 16ba 843e c4b2 213d a86d 39be abe3 7bbd
000003d0: ff19 f43d ca18 523e 505a c8b9 eb34 3bbd
000003e0: 0446 7c3e 5db3 6f3e dcfb 00bd e86e 5f3c
000003f0: 0236 b83d a030 a9be 59e5 4abd a4ae ccbd

onnx::LSTM_251 f4 [1, 256, 64]
-0.080041476 0.16672413 -0.039640434 -0.08422202 -0.15083288 0.04171491 -0.095610194 -0.038652156
0.24489212 0.2174389 -0.11656273 -0.047846265 0.0103111025 0.3302717 0.042460687 0.13143156
-0.0351949 0.4966002 0.006768016 0.18340254 -0.0061141467 -0.1512991 -0.04654374 0.1297635
0.14275192 0.25346908 -0.28951776 -0.12033713 -0.10481105 0.05727919 0.04783062 -0.2364531
-0.02458834 0.036401786 -0.11860275 0.08798501 -0.011662784 -0.05964728 -0.14780276 -0.035686344
-0.08262946 -0.115220785 -0.16434015 0.03546148 -0.040103074 -0.25601795 0.2547845 0.003269671
-0.06277044 0.25646728 0.037833028 -0.045293752 -0.032138903 0.05885694 -0.15321729 0.16063675
-0.0034278242 -0.09805663 0.34539843 0.017763186 -0.111854725 0.00052778097 -0.010874612 0.08732042
0.17195296 0.072016045 0.11046994 -0.1258013 0.016954897 -0.07296062 -0.017165229 -0.14273271
0.097559206 -0.009038989 -0.17493124 -0.09154755 0.084857576 0.21337028 -0.105306305 -0.063960716
-0.2213279 0.49162653 0.13047601 0.10559751 -0.053366527 -0.14959717 -0.043734375 0.033393484
0.17346647 -0.042629506 -0.2119818 -0.19730887 0.08786419 0.35844067 -0.07081673 0.0043323427
0.10741747 -0.04448289 0.063560076 -0.010973963 0.011482657 -0.0786124 0.0150906835 0.051515613
-0.08933383 0.056694154 0.06326815 0.07311816 -0.015767781 0.0026809291 0.10363959 0.038907237
0.0067938888 0.016255518 -0.092880465 -0.050323132 -0.08875251 -0.006669954 -0.08058738 0.077091336
0.12481141 0.0163657 0.026864734 -0.13005947 -0.06451817 -0.26926193 -0.017284777 0.07413459
-0.0056347954 0.10998786 0.05047701 -0.09541636 0.1085625 0.10789862 0.08467623 -0.12451634
0.10400783 -0.116712056 -0.24402837 0.0031508124 -0.07545673 0.2511767 -0.09914611 -0.04963623
-0.16194522 0.23944184 -0.13004506 -0.033992298 0.11574307 -0.05127094 -0.048706286 -0.038226698
-0.014215385 0.092603594 0.27273053 -0.084950544 -0.06851242 0.13971257 0.06296633 -0.1144112
-0.14146505 -0.09973526 -0.13394855 0.1082209 -0.016064743 -0.16321486 -0.16458078 -0.06432622
-0.09703967 -0.011632657 -0.20470566 0.0024241698 0.21900743 -0.03375938 0.28401944 -0.011959951
-0.22110929 -0.0064267414 0.047794987 0.14944324 0.037986785 -0.11302434 -0.24045092 0.16147353
0.052417584 -0.08474228 0.31142282 -0.0389018 -0.087977044 -0.23556489 0.18962274 0.057398446
-0.059465654 0.012390847 0.023639504 0.005653853 -0.09964996 0.026859697 0.046738453 -0.09838339
0.13605528 -0.1871889 -0.14999007 -0.091963015 0.16782191 0.023129955 -0.109921 0.147181
0.17668329 0.10222368 -0.16646369 -0.1507424 0.09882255 0.03384343 0.42334253 -0.24874769
0.18783373 0.09860868 0.32698712 -0.1560155 0.24729992 -0.21992505 0.2394962 -0.41116577
-0.24291028 -0.18350385 0.078424 -0.14117584 -0.05401246 -0.18696478 -0.06547783 0.19854178
-0.22697985 0.018273538 -0.14635272 0.18644893 -0.03518734 0.23515102 0.25203878 0.017020842
-0.14144519 -0.2751817 -0.08047338 0.05879207 -0.07108108 -0.15263468 -0.413816 -0.053563938
0.079392046 0.3203746 -0.27290902 -0.06600095 -0.03879707 0.15185712 0.028083194 0.045763936
00000000: c9ec a3bd bbb9 2a3e 025e 22bd 987c acbd
00000010: ef73 1abe 41dd 2a3d 47cf c3bd b951 1ebd
00000020: 00c5 7a3e 4ea8 5e3e 71b8 eebd 72fa 43bd
00000030: e6ef 283c 5f19 a93e 42eb 2d3d ff95 063e
00000040: 8728 10bd 6242 fe3e 3cc6 dd3b e0cd 3b3e
00000050: 2e59 c8bb 27ee 1abe a6a4 3ebd b9e0 043e
00000060: 8f2d 123e b3c6 813e ac3b 94be 5073 f6bd
00000070: 2da7 d6bd 959d 6a3d 0aea 433d c320 72be
00000080: 7d6d c9bc 0a1a 153d 00e6 f2bd 7c31 b43d
00000090: 4315 3fbc b550 74bd 9b59 17be d82b 12bd
000000a0: a239 a9bd e0f8 ebbd c948 28be 0f40 113d
000000b0: 1f43 24bd c914 83be 1d73 823e fa47 563b
000000c0: ca8d 80bd ae4f 833e cef6 1a3d f185 39bd
000000d0: 15a4 03bd fa13 713d fee4 1cbe f67d 243e
000000e0: 59a5 60bb ead1 c8bd 10d8 b03e 1a84 913c
000000f0: 1714 e5bd c85a 0a3a 6e2b 32bc 0cd5 b23d
00000100: 7014 303e 267d 933d 103e e23d 0ed2 00be
00000110: ffe4 8a3c 616c 95bd 189e 8cbc 8628 12be
00000120: 1fcd c73d 4518 14bc 2d21 33be 487d bbbd
00000130: cfc9 ad3d bd7d 5a3e d5aa d7bd d6fd 82bd
00000140: c8a3 62be 79b6 fb3e 819b 053e 8243 d83d
00000150: dc96 5abd 0030 19be d122 33bd 9bc7 083d
00000160: 32a1 313e 479c 2ebd c211 59be 560b 4abe
00000170: 24f2 b33d 8985 b73e 5d08 91bd 53f6 8d3b
00000180: b1fd db3d b133 36bd c92b 823d 23cc 33bc
00000190: c121 3c3c 8aff a0bd ea3e 773c 0902 533d
000001a0: a8f4 b6bd 2138 683d bb92 813d f9be 953d
000001b0: 6f2b 81bc 87b2 2f3b fe40 d43d 325d 1f3d
000001c0: 459f de3b 4b2a 853c 1d38 bebd a11f 4ebd
000001d0: e0c3 b5bd a18f dabb ff0a a5bd 10e2 9d3d
000001e0: 209d ff3d 5c11 863c 6e13 dc3c 4f2e 05be
000001f0: 1a22 84bd b3dc 89be ce98 8dbc e0d3 973d
00000200: 17a4 b8bb 5141 e13d fbc0 4e3d a769 c3bd
00000210: 0456 de3d f4f9 dc3d bb6a ad3d 6c02 ffbd
00000220: 0f02 d53d bb06 efbd 93e2 79be dc7d 4e3b
00000230: 0f89 9abd 3c9a 803e 1e0d cbbd 5c4f 4bbd
00000240: f8d4 25be 3e30 753e 882a 05be 823b 0bbd
00000250: b40a ed3d 7a01 52bd 3e80 47bd 9993 1cbd
00000260: a5e7 68bc f4a6 bd3d 56a3 8b3e 8dfa adbd
00000270: 3d50 8cbd d010 0f3e 7ef4 803d 6b50 eabd
00000280: 37dc 10be 0042 ccbd cf29 09be eba2 dd3d
00000290: 359a 83bc cc21 27be dd87 28be 77bd 83bd
000002a0: bcbc c6bd e696 3ebc 5c9e 51be d2de 1e3b
000002b0: 7c43 603e 4747 0abd ff6a 913e acf3 43bc
000002c0: 796a 62be 6a97 d2bb adc4 433d a607 193e
000002d0: 0898 1b3d 4e79 e7bd c438 76be 5159 253e
000002e0: d2b3 563d 5c8d adbd d072 9f3e 7e57 1fbd
000002f0: 4f2d b4bd ec37 71be 772c 423e a21a 6b3d
00000300: 4292 73bd fb02 4b3c a2a7 c13c f543 b93b
00000310: 4715 ccbd de08 dc3c d270 3f3d 3b7d c9bd
00000320: 1352 0b3e 72ae 3fbe ff96 19be 1b57 bcbd
00000330: 82d9 2b3e 087b bd3c 431e e1bd 9eb6 163e
00000340: 77ec 343e a65a d13d 7575 2abe 375c 1abe
00000350: 7a63 ca3d 699f 0a3d 5ac0 d83e b7b7 7ebe
00000360: 7c57 403e 59f3 c93d db6a a73e 87c2 1fbe
00000370: 313c 7d3e 0834 61be 7e3e 753e 5284 d2be
00000380: 79bd 78be 6fe8 3bbe c39c a03d 6690 10be
00000390: 2b3c 5dbd b273 3fbe 3e19 86bd 894e 4b3e
000003a0: 686d 68be 63b2 953c 7ddd 15be 78ec 3e3e
000003b0: 9a20 10bd 6ecb 703e 3a0b 813e 4b6f 8b3c
000003c0: 02d7 10be 9ee4 8cbe 3acf a4bd f4cf 703d
000003d0: f592 91bd 444c 1cbe b1df d3be dc65 5bbd
000003e0: 4c98 a23d 2408 a43e bbba 8bbe 822b 87bd
000003f0: ade9 1ebd 6f80 1b3e ba0e e63c f772 3b3d

onnx::LSTM_252 f4 [1, 512]
-0.059709515 -0.19861789 -0.15989296 -0.10347059 -0.1763409 -0.16311015 0.038341295 -0.23650098
-0.0005509688 -0.0011408019 -0.08300719 -0.028667616 0.1087735 -0.17296351 -0.104412735 -0.10498218
0.005529795 -0.001648266 -0.12592503 -0.13157779 -0.14431874 -0.24331237 -0.20629467 -0.07561161
-0.23458906 -0.0801436 -0.0868218 -0.18277557 -0.16305716 -0.11227939 -0.026511457 -0.1302658
0.051240403 -0.27122125 -0.008679201 -0.2027769 -0.02142477 -0.12193552 -0.054601416 -0.086462766
0.0137744825 0.021844232 -0.04073954 -0.08146741 -0.029844929 -0.09942548 -0.020811783 -0.11028669
-0.20501232 -0.20652395 -0.18471663 -0.16923417 -0.16685997 -0.008955389 -0.19228275 -0.1222157
-0.06391171 -0.093259886 -0.2178019 -0.10740551 -0.024854945 -0.039213423 -0.055481162 -0.0819045
-0.07399529 -0.10712566 -0.12238908 -0.124476984 -0.0017047536 -0.25211385 -0.06390188 -0.050811805
-0.21221279 -0.038711675 -0.043953285 -0.07563885 -0.06529902 -0.15586123 -0.03366107 -0.1719653
-0.023851134 -0.09906998 0.017790707 -0.15020846 -0.03785063 -0.15822671 -0.07684185 0.022173824
-0.098761 -0.28038162 -0.14003247 0.03037505 -0.2233951 -0.076444134 -0.024757076 -0.020711048
-0.11418722 -0.086491354 -0.220886 -0.1513836 -0.0721594 -0.12041001 -0.13075437 -0.15454409
-0.2175686 -0.1878055 -0.019651316 -0.15479328 -0.09795865 0.042821165 -0.061122116 0.033618543
-0.051510144 -0.08968484 -0.13693859 -0.1392293 -0.14202628 0.04355404 -0.09769317 -0.080140024
-0.1685857 -0.11545288 -0.12727784 -0.06337211 -0.083466455 0.039402768 -0.100270785 -0.11607337
-0.052942377 0.018376783 -0.02710845 -0.027570814 -0.044475928 -0.06336277 -0.11895203 -0.012784498
-0.21903247 -0.14682518 -0.07357073 -0.030390063 -0.15670942 -0.05756212 -0.047711387 -0.227001
-0.1606042 -0.3830993 -0.064030096 -0.14412127 -0.11052065 -0.22925533 -0.34682825 0.003182399
-0.107346356 -0.1862026 -0.17395316 -0.2094566 -0.13315982 -0.043841697 -0.038311705 -0.09293026
-0.1918017 -0.29834175 -0.026248213 -0.09266209 -0.09748924 -0.15736325 0.033937547 -0.044878826
-0.25426203 -0.08988582 -0.18724488 -0.008647551 -0.02323921 -0.23146267 -0.099914186 -0.071246535
-0.048660867 -0.01565129 0.003093324 -0.12503287 -0.06651745 -0.058985412 -0.1906546 0.01983042
-0.14682756 -0.059301786 -0.326211 -0.13342229 -0.08096632 -0.09767032 -0.15481174 -0.1888645
-0.03234955 0.09961378 -0.017293476 0.008832892 -0.021219077 -0.05333575 0.06188713 -0.027306123
-0.0881913 0.08372075 -0.07868607 0.03565951 0.10749692 0.004613351 0.019230992 0.048074123
-0.040213846 0.022572368 -0.031169554 0.055260036 0.056533564 -0.013056813 -0.03066641 -0.11004406
0.021220297 0.02378947 -0.11106583 0.0026210125 -0.024102934 0.07276553 0.057337716 0.026941208
0.07588989 -0.027938183 -0.13621154 0.02971544 0.0015364344 -0.09512462 0.0025292982 0.017356006
-0.019298531 -0.025206853 0.051822186 -0.07710746 0.017005496 -0.031626806 -0.012646721 -0.05762332
0.027477833 -0.0023633293 -0.029348733 -0.022929592 0.03159689 -0.10839156 -0.1137939 -0.050618723
-0.05370566 -0.045427788 0.12500148 0.029999577 -0.030286495 -0.06474578 0.10660523 0.054327205
00000000: f791 74bd 7d62 4bbe fbba 23be 64e8 d3bd
00000010: b592 34be 5906 27be c30b 1d3d 502d 72be
00000020: e46e 10ba f686 95ba acff a9bd 59d8 eabc
00000030: a4c4 de3d 591d 31be 58d6 d5bd e600 d7bd
00000040: 4833 b53b a10a d8ba 7ef2 00be 54bc 06be
00000050: 4bc8 13be e126 79be e93e 53be 43da 9abd
00000060: 1d38 70be 5422 a4bd a1cf b1bd 8529 3bbe
00000070: 75f8 26be bdf2 e5bd 8e2e d9bc 6664 05be
00000080: 75e1 513d 83dd 8abe 3533 0ebc bfa4 4fbe
00000090: 0083 afbc 54b9 f9bd bca5 5fbd 6413 b1bd
000000a0: 5eae 613c adf2 b23c 81de 26bd 63d8 a6bd
000000b0: 5a7d f4bc 969f cbbd 797d aabc fddd e1bd
000000c0: c0ee 51be 047b 53be 5b26 3dbe b94b 2dbe
000000d0: 57dd 2abe a0b9 12bc c5e5 44be 3a4c fabd
000000e0: 25e4 82bd 0aff bebd 7607 5fbe 6cf7 dbbd
000000f0: 999c cbbc 419e 20bd 3740 63bd 8cbd a7bd
00000100: d88a 97bd b364 dbbd 20a7 fabd caed febd
00000110: 0a72 dfba 1115 81be fdde 82bd 0a20 50bd
00000120: 4f4e 59be 2290 1ebd 5c08 34bd 8be8 9abd
00000130: 7ebb 85bd 169a 1fbe 31e0 09bd ac17 30be
00000140: 7463 c3bc 34e5 cabd d1bd 913c 3fd0 19be
00000150: 4309 1bbd 2f06 22be 435f 9dbd e1a5 b53c
00000160: 3543 cabd 2e8e 8fbe ac64 0fbe 19d5 f83c
00000170: afc1 64be be8e 9cbd 5acf cabc 37aa a9bc
00000180: fdda e9bd 6122 b1bd f12f 62be 4d04 1bbe
00000190: 4fc8 93bd 8699 f6bd 79e4 05be ce40 1ebe
000001a0: 4eca 5ebe 1650 40be ccfb a0bc 2182 1ebe
000001b0: 8b9e c8bd 3f65 2f3d 2f5b 7abd 99b3 093d
000001c0: 4dfc 52bd afac b7bd a139 0cbe 2092 0ebe
000001d0: 566f 11be b965 323d 5b13 c8bd 7420 a4bd
000001e0: bba1 2cbe 8f72 ecbd 1f55 02be 3dc9 81bd
000001f0: 76f0 aabd cc64 213d c55a cdbd e0b7 edbd
00000200: 1bda 58bd e88a 963c 8a12 debc 30dc e1bc
00000210: 642c 36bd 57c4 81bd 1f9d f3bd 1276 51bc
00000220: 0c4a 60be 5759 16be 40ac 96bd 95f4 f8bc
00000230: 6f78 20be 42c6 6bbd 046d 43bd f372 68be
00000240: 6d75 24be 9725 c4be 3622 83bd 8794 13be
00000250: a758 e2bd e9c1 6abe 7993 b1be cc8f 503b
00000260: 68d8 dbbd e5ab 3ebe c720 32be ca7b 56be
00000270: 0c5b 08be 5a93 33bd bcec 1cbd 3852 bebd
00000280: aa67 44be 40c0 98be 7e06 d7bc 9fc5 bdbd
00000290: 70a8 c7bd d523 21be 1902 0b3d dcd2 37bd
000002a0: a22e 82be 0f16 b8bd 1fbd 3fbe 75ae 0dbc
000002b0: 2860 bebc 8d04 6dbe cf9f ccbd b4e9 91bd
000002c0: 9e50 47bd 2237 80bc 5db9 4a3b 9e08 00be
000002d0: 4d3a 88bd b09a 71bd f63a 43be 6873 a23c
000002e0: f759 16be 6ee6 72bd 2105 a7be da9f 08be
000002f0: acd1 a5bd 6007 c8bd f886 1ebe b265 41be
00000300: f680 04bd 4f02 cc3d 0cab 8dbc d6b7 103c
00000310: a1d3 adbc 9676 5abd 5c7d 7d3d 17b1 dfbc
00000320: a49d b4bd c975 ab3d 2a26 a1bd b50f 123d
00000330: 5827 dc3d 982b 973b 508a 9d3c 5fe9 443d
00000340: 46b7 24bd b0e9 b83c 4b57 ffbc 5958 623d
00000350: bd8f 673d 3eec 55bc 2038 fbbc c85e e1bd
00000360: 30d6 ad3c 22e2 c23c 7b76 e3bd 4bc5 2b3b
00000370: 8473 c5bc 1806 953d f4da 6a3d cfb3 dc3c
00000380: 296c 9b3d 9ede e4bc 0a7b 0bbe cb6d f33c
00000390: 2f62 c93a b2d0 c2bd 95c2 253b 2f2e 8e3c
000003a0: f417 9ebc 9a7e cebc 8043 543d 84ea 9dbd
000003b0: 1c4f 8b3c 1c8b 01bd 3134 4fbc 6e06 6cbd
000003c0: 3119 e13c 16e2 1abb c16c f0bc d7d6 bbbc
000003d0: be6b 013d 65fc ddbd c70c e9bd 9455 4fbd
000003e0: 77fa 5bbd 7d12 3abd 6300 003e acc1 f53c
000003f0: 621b f8bc 6f99 84bd d853 da3d 3486 5e3d
