notebook/checkpoints/univariate-checkpoints/epoch=20-val_loss=0.00-other_metric=0.00.ckpt (torch, 633920 bytes, 33 tensors)

lstm.weight_ih_l0 f4 [256, 1]
0	0xbe55957d	-0.20857807
1	0x3e6c8b49	0.23100008
2	0xbe4a90a2	-0.19781736
3	0x3beb4bd1	0.007180669
4	0x3d18f228	0.037340313
5	0x3e703c04	0.23460394
6	0x3e43b231	0.19110943
7	0x3c12a71c	0.008950975
8	0x3e430136	0.1904343
9	0xbe7f37c9	-0.24923624
10	0x3e63f7c7	0.22262488
11	0x3e70c8ef	0.2351415
12	0xbebdb1be	-0.3704967
13	0x3e723f59	0.23656978
14	0xbebb21a8	-0.36549115
15	0x3e7b7ca5	0.24559267
16	0x3e98a4ce	0.29813236
17	0x3e806c8a	0.2508281
18	0x3e7196b3	0.23592643
19	0x3e897465	0.26846614
20	0x3e33e416	0.17567477
21	0x3ee12a01	0.4397736
22	0x3e96a113	0.29419765
23	0x3ed198ac	0.40936792
24	0xbb953eb2	-0.004554593
25	0x3ec69996	0.38789052
26	0x3ec061ec	0.37574708
27	0x3d0753dc	0.03303896
28	0x3ea654d3	0.3248659
29	0x3c3c0fce	0.0114783775
30	0xbe294030	-0.16528392
31	0x3ebf2f28	0.37340665
32	0x3e523dec	0.20531434
33	0xbed74645	-0.420458
34	0x3ec46f50	0.38366175
35	0x3eb63151	0.355845
36	0xbef8b763	-0.48577413
37	0xbd954521	-0.07288576
38	0x3eaa556e	0.33268303
39	0x3e620cb9	0.22075166
40	0x3ea3a0c6	0.31958598
41	0xbe9ddd90	-0.308331
42	0x3e677f07	0.22607051
43	0x3e8e5d20	0.27805424
44	0xbdb22fe9	-0.087005444
45	0x3ed1c027	0.40966913
46	0x3e97606d	0.29565755
47	0xbe1a6552	-0.15077713
48	0x3dc694af	0.09696328
49	0xbdcd1cba	-0.10015245
50	0x3e3cc254	0.18433505
51	0xbe940769	-0.28911904
52	0x3e940813	0.2891241
53	0x3e4eb101	0.20184709
54	0x3ed025c7	0.40653822
55	0x3e6f0be2	0.23344377
56	0x3ea214cf	0.316565
57	0x3d99296d	0.074786045
58	0x3de63732	0.112409964
59	0xbe854d57	-0.26035568
60	0xbe07161c	-0.13192028
61	0xbedc942d	-0.430818
62	0x3d9694a2	0.07352568
63	0x3ea17e5b	0.31541714
64	0xbda112e6	-0.07864933
65	0xbe4302b0	-0.19043994
66	0xbd5c1543	-0.053731214
67	0xbe795ee7	-0.24352609
68	0xbdb1e8b3	-0.08686962
69	0xbe9cab5a	-0.3059948
70	0x3dd6e181	0.1049223
71	0xbdc43841	-0.09581042
72	0xbea51882	-0.3224526
73	0x3c80af0b	0.015708467
74	0xbe9ccb05	-0.30623642
75	0xbe1c63ad	-0.15272398
76	0xbe520e1b	-0.20513193
77	0xbd956852	-0.07295288
78	0xbe48eeae	-0.19622299
79	0xbd961900	-0.07328987
80	0xbe81f010	-0.25378466
81	0xbd9f2b00	-0.077718735
82	0xbd9cf85a	-0.07664557
83	0xbe9a3ca2	-0.30124384
84	0x3ac621fe	0.0015116332
85	0xbf004b37	-0.5011477
86	0xbee881cb	-0.45411524
87	0xbe21a005	-0.15783699
88	0xbe8cb86c	-0.27484453
89	0xbf19f005	-0.60131866
90	0xbe2147d4	-0.15750057
91	0xbe997031	-0.29968408
92	0xbf12c0bb	-0.57325333
93	0x3ab1e110	0.0013571102
94	0xbe11e39a	-0.1424698
95	0x3c99b0c9	0.018761056
96	0xbe3f70be	-0.18695351
97	0xbe254fa8	-0.16143668
98	0xbe6b140d	-0.22956868
99	0xbefd3e97	-0.49461815
100	0xbdc71d45	-0.097223796
101	0xbebc74bf	-0.3680782
102	0xbf09aff9	-0.5378414
103	0xbd84db83	-0.06487181
104	0xbea32c44	-0.3186971
105	0xbe5fcbbe	-0.21855065
106	0xbed72eef	-0.42027995
107	0xbe3bc4f0	-0.18336844
108	0xbdff7d49	-0.12475068
109	0xbf2daeb4	-0.678447
110	0xbe845cd5	-0.25852075
111	0xbe639c5f	-0.2222762
112	0x3d78d345	0.060748357
113	0x3d6f5ce6	0.058438204
114	0xbdfef838	-0.12449688
115	0xbdfd0323	-0.12354114
116	0xbe6bd384	-0.23029906
117	0xbdfe7dc9	-0.12426335
118	0xbee23253	-0.4417902
119	0xbe182ff7	-0.14862047
120	0xbe84c34d	-0.25930253
121	0x3b28c4e9	0.0025752133
122	0x3dae17e3	0.0850065
123	0xbd5ad998	-0.05343017
124	0x3d38ca3c	0.04511474
125	0xbe22e55f	-0.1590781
126	0xbd72b15a	-0.059251167
127	0xbebaa6ad	-0.3645529
128	0xbdf91b05	-0.12163357
129	0xbe25f734	-0.16207582
130	0x3de1ba30	0.110218406
131	0xbe22598f	-0.15854476
132	0x3e0f8cd1	0.14018561
133	0xbdb7c9a5	-0.089740075
134	0x3d7be2f3	0.061495733
135	0xbd95823b	-0.0730023
136	0xbe32dacf	-0.17466281
137	0xbddd52be	-0.108067974
138	0xbe19cbde	-0.15019175
139	0x3dff558b	0.12467488
140	0x3e2da6d5	0.16958173
141	0xbddb86ce	-0.10719071
142	0x3e06acf6	0.13151917
143	0xbdecbe47	-0.1155973
144	0x3e1102d0	0.14161229
145	0x3e3e5743	0.18587975
146	0xbd918f24	-0.0710738
147	0xbe00458e	-0.12526533
148	0xbe230905	-0.1592141
149	0x3e6f8f31	0.23394467
150	0x3dc3856b	0.09546932
151	0xbe370622	-0.17873433
152	0x3e02ded3	0.12780313
153	0x3e572d76	0.21013436
154	0x3e55a1d9	0.20862521
155	0xbd14ce21	-0.036329392
156	0xbe51e49d	-0.20497365
157	0x3deb91f8	0.11502451
158	0x3dcbe8af	0.0995649
159	0xbe59cc91	-0.21269442
160	0x3e2f20d9	0.17102374
161	0x3e308f6e	0.17242214
162	0x3e4de89d	0.20108266
163	0x3e35def7	0.17760836
164	0xbe82c142	-0.2553807
165	0xbd746b25	-0.059672493
166	0x3e38f1b9	0.1806096
167	0xbdc03a73	-0.09386148
168	0x3e4237c7	0.1896659
169	0x3e046036	0.12927327
170	0x3dfde5b4	0.12397328
171	0x3e1d310d	0.15350743
172	0xbdab3dbf	-0.083613865
173	0xbe5c6353	-0.21522264
174	0xbe333bc6	-0.1750327
175	0xbe39080e	-0.18069479
176	0x3e082297	0.13294445
177	0xbd37c252	-0.044863053
178	0x3e1e2177	0.15442453
179	0x3e100518	0.14064443
180	0xbe48a406	-0.1959382
181	0xbe21154a	-0.15730777
182	0xbe4a9fe7	-0.1978756
183	0x3de99d15	0.11406914
184	0x3e458e6b	0.1929261
185	0x3ce70e0c	0.02820494
186	0x3d5d4645	0.054022092
187	0x3ea79909	0.32733944
188	0xbb87b985	-0.0041419887
189	0x3dc4d606	0.09611134
190	0x3c6d7622	0.014493497
191	0xbe3d9d18	-0.18516958
192	0xbe04d834	-0.129731
193	0x3ea6873c	0.3252505
194	0xbe66ac9d	-0.22526784
195	0x3e3a396c	0.18185967
196	0x3d9a0d3a	0.07522054
197	0x3e16e03b	0.14733975
198	0x3e4e852b	0.20167987
199	0x3dc950f0	0.09829891
200	0x3e7c1593	0.24617605
201	0x3da38cff	0.07985877
202	0x3e46033a	0.19337168
203	0x3ea2a965	0.31769863
204	0xbe77037b	-0.24122421
205	0x3eaa0442	0.33206373
206	0xbed29e63	-0.41136464
207	0x3e6f4d00	0.23369217
208	0x3e451b02	0.19248584
209	0x3e8ea0e5	0.27857128
210	0x3ddea678	0.10871595
211	0x3da99142	0.08279659
212	0x3e47ccf9	0.19511785
213	0x3e61b50f	0.22041725
214	0x3dfd52d7	0.12369316
215	0x3e7a3e42	0.24437812
216	0x3e2ead2c	0.17058247
217	0x3e710dec	0.23540467
218	0x3eb8cd36	0.36094064
219	0xbd1ae6fd	-0.037817944
220	0x3e91ff34	0.28515017
221	0x3e28fa8e	0.16501829
222	0xbe93f5c0	-0.2889843
223	0x3ed9e1f0	0.4255519
224	0x3e2052e4	0.1565662
225	0xbea1041a	-0.31448442
226	0x3e6a80f9	0.22900762
227	0x3e2d5056	0.16925177
228	0xbe9a8039	-0.3017595
229	0xbd0c406c	-0.034241125
230	0x3e6075d0	0.21919942
231	0x3e5aaf02	0.21355823
232	0x3ea699b3	0.32539138
233	0xbd412452	-0.04715378
234	0x3dfd8c71	0.12380303
235	0x3e8f6daa	0.28013355
236	0xbd697f0c	-0.057005927
237	0x3eb09e60	0.3449583
238	0x3e5ccf4e	0.21563455
239	0xbe887864	-0.2665435
240	0x3db7c776	0.08973591
241	0x3c902567	0.01759596
242	0x3e6033b4	0.21894723
243	0xbe2e6975	-0.17032416
244	0x3e8c4d6d	0.2740282
245	0x3e5ef4c3	0.21773057
246	0x3e10902a	0.14117494
247	0x3e6e8f07	0.23296748
248	0x3e5f58ea	0.21811262
249	0xbda7ded0	-0.08196795
250	0x3e1257f1	0.1429136
251	0xbe71f0b2	-0.23626974
252	0xbddeceb5	-0.1087927
253	0xbe1b917f	-0.15192221
254	0x3d0621cc	0.032747075
255	0x3e475533	0.19466095

lstm.weight_hh_l0 f4 [256, 64]
0	0xbd815324	-0.06314686
1	0x3e8d2c8d	0.27573052
2	0xbbc8f9b9	-0.006133285
3	0x3aabda8d	0.0013111398
4	0xbddd0512	-0.10791983
5	0x3afde3fb	0.0019370312
6	0xbd767298	-0.06016788
7	0xbe031de8	-0.12804377
8	0x3e1b5a1b	0.15171091
9	0x3ce70e41	0.028205039
10	0x3e29f6ce	0.16598055
11	0xbde535fb	-0.111919366
12	0x3d17b143	0.037034284
13	0x3e22dfd9	0.15905704
14	0xbd4856b3	-0.048910808
15	0x3db936e8	0.09043676
16	0xbe3c7985	-0.18405731
17	0xbe59120e	-0.21198294
18	0x3e3a9c51	0.18223692
19	0xbcf1c118	-0.02951102
20	0x3e08116b	0.13287894
21	0xbe6c50d8	-0.23077714
22	0xbda06f33	-0.078337096
23	0x3e2e9d2f	0.17052148
24	0xbd8922b2	-0.06696071
25	0xbe89fabb	-0.26949105
26	0xbe7161be	-0.23572442
27	0x3de72c0d	0.11287699
28	0x3dd7c1c8	0.10535008
29	0xbdc9b427	-0.098488145
30	0xbc053940	-0.008131325
31	0x3e6a0a0d	0.22855397
32	0xbe238406	-0.15968332
33	0xbd8f1760	-0.0698688
34	0xbe9b2a4b	-0.30305704
35	0xbe57898f	-0.21048568
36	0xbccc294c	-0.024922036
37	0xbdb329f2	-0.08748235
38	0xbe90d49f	-0.28287217
39	0x3e004aeb	0.12528579
40	0xbe6cd275	-0.23127158
41	0x3de36eb1	0.11105097
42	0xbe297bf2	-0.16551188
43	0xbe5a3d74	-0.21312505
44	0x3d9d908e	0.07693587
45	0x3e1bd1de	0.15216777
46	0x3d275aed	0.040858198
47	0xbc609f29	-0.013709822
48	0xbe1ae208	-0.15125287
49	0x3c91be02	0.017790798
50	0xbe15e1d1	-0.14636923
51	0x3d9494c4	0.07254937
52	0x3e8164b9	0.25272158
53	0x3d38a72d	0.045081306
54	0x3ebbd57b	0.3668631
55	0xbe8333d4	-0.2562548
56	0xbe26cd01	-0.1628914
57	0xbe177e11	-0.14794184
58	0xbda370f6	-0.0798053
59	0x3cc558e3	0.024090236
60	0xbd03bbe9	-0.032161627
61	0xbd61d557	-0.055135097
62	0xbdcb07f2	-0.09913625
63	0x3e673864	0.22580105
64	0xbc877648	-0.016535893
65	0x3e9e234f	0.30886313
66	0x3e3f1b08	0.18662655
67	0x3e53e372	0.20692232
68	0xbe18ca83	-0.14921002
69	0x3df78a3d	0.12086914
70	0xbd87d112	-0.06631674
71	0x3cde8587	0.02716328
72	0x3ec39ad6	0.38204068
73	0xbc5554fd	-0.013020751
74	0x3e7f068f	0.24904846
75	0xbe53e3e6	-0.20692405
76	0xbaf7dab4	-0.0018909783
77	0x3d81b0b1	0.06332529
78	0x3defcaca	0.11708601
79	0x3db46b70	0.088095546
80	0xbe2e9c70	-0.17051864
81	0xbe1eb9df	-0.15500592
82	0x3d409779	0.047019456
83	0x3ede6e8d	0.4344372
84	0x3eb84c04	0.35995495
85	0xbec1fc1b	-0.37887654
86	0xbe9de16d	-0.3083605
87	0x3e66a57b	0.22524063
88	0xbe910a22	-0.28328043
89	0xbf19b5dd	-0.60043126
90	0xbd21d57d	-0.03951024
91	0x3e20747f	0.1566944
92	0x3f19e46d	0.60114175
93	0xbe6cea52	-0.23136261
94	0x3e7c09ed	0.24613161
95	0x3d80a7ba	0.06281991
96	0xbeae3498	-0.340245
97	0x3de05c36	0.10955088
98	0xbe81ea38	-0.25374007
99	0xbed26d92	-0.4109922
100	0xbeaccb72	-0.33748966
101	0x3e3707bb	0.17874043
102	0xbed96259	-0.42457846
103	0xbc18c859	-0.00932511
104	0xbeab602b	-0.33471808
105	0xbd5c9b81	-0.053859238
106	0xbe9cd733	-0.30632934
107	0xbebc4e99	-0.36778715
108	0x3da81100	0.082063675
109	0x3f236a6b	0.63834256
110	0x3eae9572	0.34098393
111	0x3d9ae68a	0.07563503
112	0xbea8df05	-0.3298265
113	0x3dbe0ea0	0.09280133
114	0xbdd958bd	-0.106126286
115	0x39918598	0.0002775609
116	0x3e34f172	0.17670229
117	0xbd860760	-0.065443754
118	0x3eb0c478	0.34524894
119	0xbe559e78	-0.20861232
120	0xbe6ea43e	-0.23304841
121	0x3e059c2b	0.13047855
122	0xbbfc22a3	-0.0076945587
123	0x3dae1ad7	0.08501213
124	0xbde69be1	-0.112602
125	0x3e83648a	0.25662643
126	0xbc4eeddf	-0.012629955
127	0x3f0fd851	0.5618945
128	0x3dc08cea	0.09401877
129	0xbdcb38ce	-0.09922944
130	0xbe198a6f	-0.14994214
131	0xbe696479	-0.22792234
132	0x3d019da8	0.031644493
133	0x3bab5faf	0.005229912
134	0xbc36349b	-0.011120941
135	0xbab6677c	-0.0013916339
136	0xbe8e694c	-0.2781471
137	0x3e2a31f3	0.16620617
138	0xbe24601f	-0.16052292
139	0x3d87e0f7	0.066347055
140	0xbe864363	-0.26223287
141	0xbdb7db1e	-0.0897734
142	0xbe8bd82a	-0.27313358
143	0xbd615905	-0.055016536
144	0x3e3be817	0.18350254
145	0x3e5bcb0e	0.21464178
146	0x3d7b7da7	0.06139913
147	0xbe838a29	-0.25691345
148	0xbe3b5150	-0.18292737
149	0x3e0abc9b	0.1354851
150	0x3e1b7eae	0.15185043
151	0xbc1cb378	-0.009564273
152	0x3de150aa	0.110017136
153	0x3eb1e4c6	0.34744853
154	0x3e74ec6b	0.23918311
155	0x3be3bdfc	0.006950138
156	0xbe01faa9	-0.12693276
157	0xbd1be66f	-0.038061555
158	0xbe067f9f	-0.13134621
159	0xbe2a865d	-0.16652818
160	0x3df4d080	0.11953831
161	0xbe5a1850	-0.21298337
162	0x3e217748	0.15768158
163	0x3e3f45ed	0.18679018
164	0x3e90207b	0.2814978
165	0xbe0748bf	-0.13211344
166	0x3ea0061b	0.31254658
167	0xba4c9072	-0.00078035065
168	0x3e9057f8	0.28192115
169	0xbe56082b	-0.20901553
170	0x3df8d49c	0.12149927
171	0x3e5632c9	0.2091781
172	0x3e84a476	0.25906724
173	0xbe903878	-0.28168082
174	0xbdce48ba	-0.10072465
175	0x3e8c6593	0.27421245
176	0x3dfaca53	0.122456215
177	0xbdcde5a4	-0.10053566
178	0x3d101a32	0.03518123
179	0xbe98f878	-0.29877067
180	0xbce93171	-0.028465958
181	0xbdf240c2	-0.11828758
182	0xbdaae013	-0.0834352
183	0x3d0be9ca	0.034158505
184	0x3d81f545	0.063456096
185	0x3e80b93b	0.2514132
186	0x3d44cd8c	0.048047587
187	0xbe8253a7	-0.25454447
188	0xbe885d43	-0.26633653
189	0x3dfe6760	0.12422061
190	0x3d1a655d	0.037694324
191	0xbdfdf6c0	-0.124005795
192	0xbce01de4	-0.027358003
193	0x3ddaaea9	0.10677845
194	0xbcaa1e2f	-0.020766346
195	0x3d9b450b	0.07581528
196	0xbe40820d	-0.1879961
197	0x3db591df	0.08865713
198	0xbcfc7b6c	-0.03082057
199	0xbcc2a340	-0.023759484
200	0x3e36b585	0.17842682
201	0xbe19960c	-0.14998645
202	0x3d1e454e	0.038640313
203	0xbe318792	-0.17336872
204	0x3dd672d2	0.10471119
205	0x3e4647ff	0.19363402
206	0x3cf781e1	0.030213298
207	0x3e07a411	0.1324618
208	0xbe150fec	-0.14556855
209	0xbd7c476d	-0.061591554
210	0xbd256998	-0.040383905
211	0x3ddd20f4	0.10797301
212	0xbb229b3e	-0.002481177
213	0xbe53a4ae	-0.20668289
214	0xbc957932	-0.018246267
215	0x3e28d396	0.16486964
216	0xbd8f4bdc	-0.06996891
217	0xbe66ef65	-0.2255226
218	0xbe38dd9b	-0.18053286
219	0xbd0bc681	-0.034124855
220	0x3e452726	0.19253215
221	0x3d3ab240	0.04558015
222	0x3d87c0d5	0.06628577
223	0x3c1ad70e	0.009450687
224	0xbe81f8a9	-0.25385025
225	0x3d909b7a	0.07060905
226	0xbde8536b	-0.11344036
227	0xbe5809ef	-0.2109754
228	0x3d94d69f	0.07267498
229	0xbdd0ccb9	-0.10195298
230	0xbb17c273	-0.0023156672
231	0x3e166216	0.14685854
232	0xbe65bf8a	-0.22436348
233	0xbcb5d4ef	-0.022196261
234	0xbe80708f	-0.25085875
235	0xbdb4502c	-0.08804354
236	0x3b1f838e	0.0024339887
237	0x3df9d866	0.12199478
238	0x3c2c150b	0.010503064
239	0x3d348815	0.04407509
240	0xbd9f47a9	-0.0777734
241	0xbe0196cf	-0.12655185
242	0x3d49f613	0.04930694
243	0xbdc2724e	-0.09494458
244	0x3e03f38f	0.12885879
245	0x3e316db0	0.17326999
246	0x3d290a06	0.041269325
247	0xbd83bbe2	-0.0643232
248	0xbe9747fe	-0.29547113
249	0xbdde46a5	-0.10853318
250	0xbdb8b626	-0.09019117
251	0x3d601ef6	0.054717027
252	0x3d0caa5b	0.03434215
253	0x3e842a9c	0.25813758
254	0xbde2a525	-0.11066655
255	0x3e3bc677	0.18337427

lstm.bias_ih_l0 f4 [256]
0	0x3cf31288	0.029671922
1	0xbd9e665b	-0.077343665
2	0x3dcd793e	0.10032891
3	0x3e4e7704	0.20162588
4	0x3e07727c	0.13227266
5	0x3b0de048	0.0021648575
6	0x3ca62982	0.020283464
7	0xbdacca0e	-0.084369764
8	0xbc99dcb6	-0.018782001
9	0x3e0909e3	0.13382678
10	0xbe2df8af	-0.16989397
11	0xbbcfe43a	-0.0063443454
12	0x3d96af58	0.07357663
13	0xbe281a43	-0.16416268
14	0x3dacf9de	0.08446096
15	0xbd961131	-0.07327498
16	0xbdb6644d	-0.089058496
17	0xbd80ee30	-0.06295431
18	0xbd4a20f9	-0.04934785
19	0xbb91768c	-0.0044391807
20	0x3d77cae3	0.060496222
21	0xbd892aae	-0.06697594
22	0xbe3eb4b2	-0.18623617
23	0xbe20f292	-0.15717533
24	0x3dd50335	0.10401002
25	0xbdb9a41d	-0.09064505
26	0x3d219e86	0.03945782
27	0x3d7b38f2	0.061333604
28	0x3d33ad82	0.04386664
29	0xbcb6b98f	-0.022305278
30	0xbd9e5dd8	-0.07732743
31	0x3dbc8b69	0.09206278
32	0x3d72158e	0.059102587
33	0x3d4c8aac	0.049936935
34	0xbdf04d0a	-0.11733444
35	0xbe52a099	-0.20569076
36	0xbd451eee	-0.0481252
37	0xbe445c0d	-0.1917574
38	0x3d84e294	0.06488529
39	0xbb348178	-0.002754299
40	0xbd529086	-0.05140736
41	0xbaa59911	-0.0012634118
42	0xbe52d998	-0.20590818
43	0xbc669a20	-0.014074832
44	0x3d3ba5ba	0.045812346
45	0x3d674041	0.05645776
46	0xbdb8116d	-0.08987699
47	0xbccf2e7a	-0.025290716
48	0x3d925c57	0.07146519
49	0x3c648688	0.01394809
50	0x3cba449a	0.02273779
51	0xbdc5b13c	-0.096529454
52	0xbcc1c228	-0.023652151
53	0x3d9fd0e6	0.07803516
54	0xbe0669e4	-0.13126332
55	0xbdcf1684	-0.101117164
56	0x3de7f46d	0.113259174
57	0xbd294e4f	-0.041334447
58	0xbdc041ba	-0.09387536
59	0x3da2864e	0.07935773
60	0x3de16569	0.110056706
61	0xbe0968a4	-0.13418823
62	0xbe2ac4fa	-0.16676703
63	0xbb8d480d	-0.0043115676
64	0xbd929e94	-0.071591526
65	0x3e0533c5	0.1300803
66	0xbe23f3d2	-0.16010979
67	0xbdbec2b3	-0.0931448
68	0x3c3219ac	0.010870378
69	0xbd805219	-0.06265659
70	0xba3ead10	-0.0007273713
71	0xbd5873e9	-0.052844916
72	0xbe263d93	-0.16234426
73	0x3d8fafc3	0.07015946
74	0x3d3aecbc	0.045635924
75	0x3d56d8ca	0.05245284
76	0x3d969636	0.07352869
77	0x3dbe9bb3	0.09307041
78	0xbe011e38	-0.12609184
79	0x3dda26e0	0.10651946
80	0x3dd021db	0.101627074
81	0x3db78ca0	0.08962369
82	0xbd2dc515	-0.04242428
83	0xbd6e14e5	-0.058125395
84	0xbe18b0b2	-0.14911154
85	0xbdad7a77	-0.08470624
86	0xbd6f2153	-0.05838139
87	0xbddf277e	-0.108962044
88	0xbc18e0e0	-0.009330958
89	0x3b006b80	0.0019595325
90	0xbcb32df3	-0.021872496
91	0xbd903ece	-0.07043229
92	0xbd9a2944	-0.07527402
93	0xbcf4435f	-0.029817281
94	0xbde3ca26	-0.11122541
95	0xbd0cef70	-0.034408033
96	0xbe5a76d3	-0.2133439
97	0xbe0f3da8	-0.13988364
98	0xbdb7fec2	-0.08984138
99	0xbb348ab4	-0.0027548494
100	0xbe883591	-0.26603368
101	0xbe300840	-0.17190647
102	0x3da6e04e	0.081482515
103	0xbd78f822	-0.060783513
104	0xbd638d6e	-0.0555548
105	0x3dca7fa3	0.09887626
106	0x3d151eba	0.036406256
107	0xbca5c5ef	-0.020235984
108	0x3b63f35c	0.0034782505
109	0xbdabb1f4	-0.08383551
110	0xbd355ee6	-0.044279955
111	0xbd815b0c	-0.06316194
112	0xbd95119e	-0.07278751
113	0xbd07233b	-0.032992583
114	0x3cae0f99	0.021247672
115	0xbd5890b5	-0.05287238
116	0x3d0c649f	0.034275647
117	0x3d919a0e	0.07109462
118	0xbda85b99	-0.08220596
119	0x3daf2d6e	0.08553587
120	0xbdd21c0c	-0.10259256
121	0x3d3fc671	0.046820108
122	0x3d9a174b	0.07523974
123	0xbe2f339f	-0.17109536
124	0xbc229623	-0.009923491
125	0xbd86cbf3	-0.06581869
126	0x3d9d39e0	0.076770544
127	0xbd96c76a	-0.07362254
128	0xbc50b751	-0.012739019
129	0x3d339d42	0.043851145
130	0x3d634d02	0.055493362
131	0x3c4203e6	0.01184175
132	0xbd57740d	-0.05260091
133	0xbc952f92	-0.01821116
134	0xbd3d01c2	-0.046144255
135	0x3c54725b	0.012966718
136	0xbd806d6e	-0.06270872
137	0xbc786e42	-0.015163006
138	0xbdaed794	-0.08537212
139	0xbdf22224	-0.11822918
140	0x3dfbef53	0.12301507
141	0xbca17223	-0.019707745
142	0xbe238cb5	-0.15971644
143	0xbcd53d68	-0.026030257
144	0xbe03346c	-0.12812966
145	0xbd1154f8	-0.035481423
146	0x3d808935	0.0627617
147	0xbd93901f	-0.07205223
148	0x3d3b3715	0.045706827
149	0xbdbfdc19	-0.09368152
150	0xbd8dd832	-0.069260016
151	0x3d6f0cec	0.058361933
152	0x3d5e2bb9	0.054240916
153	0xbd22a1d2	-0.039705105
154	0xbdb42b54	-0.08797327
155	0xbdc4a961	-0.09602619
156	0xbd3d96c8	-0.046286374
157	0x3b87443b	0.0041280068
158	0xbcee4073	-0.029083466
159	0x3d8252f0	0.06363475
160	0xbe1974f1	-0.14986016
161	0xbce5734d	-0.028009081
162	0xbde07041	-0.10958911
163	0xbca120f5	-0.019669035
164	0x3c142004	0.009040836
165	0xbd2e3a9c	-0.042536363
166	0xbd3e46b8	-0.04645416
167	0xbcbf8823	-0.023380345
168	0xbda20fc7	-0.079131655
169	0x3da80d59	0.08205671
170	0x3c51cd6d	0.012805325
171	0xbdb9ed63	-0.09078481
172	0xbd89b721	-0.06724382
173	0x3e155f43	0.1458712
174	0x3d4a4f0c	0.04939179
175	0xbd808ee6	-0.06277256
176	0xbd762c13	-0.060100626
177	0x3d0bcda6	0.03413167
178	0xbd30f5df	-0.04320323
179	0xbe094b13	-0.13407545
180	0x3dce7c11	0.100822575
181	0x3df1e08b	0.11810406
182	0x3d721022	0.059097417
183	0xbd230bdd	-0.039806236
184	0xbd91146b	-0.070839725
185	0xbdcee654	-0.10102525
186	0xbd727e36	-0.059202395
187	0x3d13593a	0.035973765
188	0x3d4daf86	0.05021622
189	0x3d677928	0.056512028
190	0x3d941847	0.07231193
191	0xbd26f12e	-0.04075735
192	0x3deb9077	0.11502164
193	0x3cebdb08	0.028790966
194	0x3cc66cdb	0.024221828
195	0x3dfb8e3f	0.12282991
196	0x3e0b9e39	0.13634576
197	0xbd7d0589	-0.061772857
198	0xbe1de980	-0.15421104
199	0xbcbd542c	-0.023111425
200	0x3d0a0c23	0.03370298
201	0x3df8d9ad	0.12150893
202	0x3c7d0ebc	0.0154454075
203	0xbd2a5dc1	-0.041593317
204	0xbd758e58	-0.059950203
205	0xbd604d67	-0.054761317
206	0x3e035d0a	0.1282846
207	0xbe1e034b	-0.15430944
208	0xbd4d0c66	-0.050060652
209	0xbd6f44ad	-0.058415104
210	0xbe2430a0	-0.16034174
211	0xbc3ab969	-0.011396744
212	0x3d5545c9	0.052068505
213	0x3e56f232	0.20990828
214	0xbdcac353	-0.099005364
215	0xbda5be02	-0.08092882
216	0xbd9a5dd0	-0.075374246
217	0x3de222ad	0.1104177
218	0xbd0e53aa	-0.034747757
219	0xbe11711a	-0.14203301
220	0x3e41d8ef	0.1893041
221	0xbddddc87	-0.10833078
222	0xbdef906e	-0.1169747
223	0x3dd75b27	0.10515433
224	0x3e14636c	0.14491051
225	0x3cf6e6b5	0.030139307
226	0x3ca1408e	0.019684102
227	0x3df9caaf	0.12196862
228	0xbd0237ae	-0.03179138
229	0xbe5f9dcd	-0.2183754
230	0xbd8cf90b	-0.06883439
231	0xbe2fe0d8	-0.17175615
232	0x3da6ffee	0.081542835
233	0x3decab18	0.11556071
234	0xbd8f90ab	-0.07010015
235	0xbd868e32	-0.0657009
236	0xbc84ca19	-0.016209649
237	0x3dd8bea8	0.1058324
238	0x3c616ef5	0.013759364
239	0x3d7d17b4	0.061790183
240	0x3e078c95	0.13237222
241	0xbe5d0af9	-0.21586217
242	0xbdb9df0d	-0.09075747
243	0xbd9f522d	-0.07779346
244	0x3bd9d58f	0.0066477726
245	0xbdbb8aa9	-0.09157307
246	0xbbbe401f	-0.0058059837
247	0xbdffe709	-0.12495238
248	0xbc82f8ab	-0.015987715
249	0xbe00b3a8	-0.12568533
250	0x3d5f7539	0.05455515
251	0x3e11ab02	0.1422539
252	0x3d8ebc00	0.06969452
253	0xbe2c9343	-0.16853051
254	0x3d889561	0.06669117
255	0xbd2b51d8	-0.0418261

lstm.bias_hh_l0 f4 [256]
0	0xbba07bd0	-0.004897572
1	0xbdf41082	-0.11917211
2	0x3d57b008	0.05265811
3	0x3e5dfac0	0.21677685
4	0x3e2c98bf	0.16855143
5	0xbd86924f	-0.06570875
6	0xbd976497	-0.07392233
7	0xbe053f8f	-0.13012527
8	0x3d37b62d	0.04485147
9	0xbd97f6e6	-0.07420139
10	0xbe40854b	-0.18800847
11	0xbe09a920	-0.13443422
12	0x3d0c0af4	0.034190133
13	0x3b9f546a	0.004862358
14	0x3e21db2f	0.15806268
15	0xbe149e0e	-0.14513418
16	0xbe167f72	-0.14697054
17	0x3d7e1586	0.062032245
18	0xbde47fc2	-0.1115718
19	0x3cb23161	0.021752061
20	0xbd3f2874	-0.04666944
21	0x3bccf196	0.006254385
22	0xbdf7a25c	-0.120915145
23	0xbd6d747a	-0.05797241
24	0x3dd06bee	0.10176836
25	0xbde1f744	-0.1103349
26	0xbd665cca	-0.056240834
27	0xbe038b05	-0.12846
28	0x3e3933b0	0.18086123
29	0x3d10a58b	0.035314124
30	0xbcf92ca4	-0.030416794
31	0xbd9e6d37	-0.07735675
32	0x3e515608	0.20442975
33	0x3d0adba3	0.03390087
34	0xbdf21296	-0.11819951
35	0xbcadc56b	-0.0212123
36	0x3e160488	0.14650166
37	0xbe8012a6	-0.25014228
38	0xbd884e4c	-0.06655559
39	0xbe1db483	-0.15400891
40	0xbdd6aaa4	-0.10481766
41	0xbd89ce02	-0.06728746
42	0xbcb278f9	-0.0217862
43	0xbdfe5586	-0.12418656
44	0x3de37a9e	0.11107372
45	0x3e6f15de	0.23348185
46	0xbe076090	-0.1322043
47	0x3d55787f	0.052116867
48	0x3e735091	0.23761202
49	0xbe084887	-0.13308917
50	0xbaa603fa	-0.001266598
51	0x3d3be7fc	0.045875534
52	0xbd864bc1	-0.06557418
53	0xbde7c019	-0.113159366
54	0x3d34b189	0.044114623
55	0xbdedef04	-0.11617854
56	0xbce4bf46	-0.027923238
57	0x3c77b581	0.0151189575
58	0xbe09af54	-0.13445789
59	0xbd96e461	-0.073677786
60	0x3da0419b	0.07825013
61	0xbe29fef2	-0.1660116
62	0x3cae901c	0.021308951
63	0xbd80cf3f	-0.06289529
64	0xbdf73607	-0.12070852
65	0x3a0ddc37	0.0005411538
66	0xbe271edc	-0.16320366
67	0xbe7ee96f	-0.24893735
68	0xbe3194ba	-0.17341891
69	0xbe1717ac	-0.14755124
70	0x3dbcfa0d	0.09227381
71	0x3d34853f	0.044072386
72	0x3d827cb1	0.06371439
73	0xbdffce4c	-0.1249052
74	0x3cf2e298	0.029649064
75	0x3e0ad2e7	0.13557015
76	0x3d6b28c4	0.057411924
77	0xbdba2019	-0.090881534
78	0xbe07ecb5	-0.1327389
79	0xbd97ec97	-0.07418173
80	0xbdd53634	-0.10410729
81	0x3dcd625d	0.10028527
82	0xbdb3294a	-0.0874811
83	0xbcaf0779	-0.021365868
84	0xbe5b5007	-0.21417247
85	0xbceec5a4	-0.029146977
86	0x3cfa0ce0	0.030523717
87	0x3dcdbbda	0.100455955
88	0xbdcae272	-0.09906472
89	0xbe243140	-0.16034412
90	0x3d98d6f5	0.07462875
91	0xbd7ec22d	-0.0621969
92	0xbd029ef2	-0.031889863
93	0xbe2c8855	-0.16848882
94	0xbe26fb5c	-0.16306823
95	0x3d75cd1a	0.060010053
96	0xbe4b35cc	-0.1984474
97	0x3d31ac32	0.04337711
98	0x3dcbfe2e	0.0996059
99	0x3c6800fe	0.014160393
100	0xbe5822de	-0.21107051
101	0x3be8b947	0.007102165
102	0x3c2d7ef2	0.010589348
103	0xbd81cac8	-0.063375056
104	0xbb9464e2	-0.0045286277
105	0xbd83688a	-0.064164236
106	0xbde05954	-0.10954538
107	0xbd71bbe5	-0.05901708
108	0xbe2bf30e	-0.16791937
109	0xbe3424c9	-0.17592157
110	0x3d6efaf9	0.058344815
111	0x3d8826ba	0.066480115
112	0xbe2d13ab	-0.16902034
113	0x3c9f1c5c	0.019422702
114	0xbdc30339	-0.09522099
115	0xbb93bff8	-0.0045089684
116	0x3d887f18	0.06664866
117	0xbd1b8e19	-0.03797731
118	0x3ce8c56f	0.028414456
119	0xbd6c3975	-0.057671983
120	0xbdefdcf2	-0.11712064
121	0x3c868c36	0.01642428
122	0xbd37e8fd	-0.04489993
123	0xbd1b928c	-0.037981555
124	0x3dcc6ddb	0.09981891
125	0xbe3c4bd0	-0.18388295
126	0xbd5b9f9e	-0.05361902
127	0xbda7fc84	-0.082024604
128	0x3d3b3600	0.045705795
129	0x3d30a195	0.043122847
130	0xbd2962db	-0.04135404
131	0x3de2294d	0.11043034
132	0xbd952453	-0.07282319
133	0xbbded40b	-0.00680018
134	0x3cc0c63c	0.023532026
135	0xbc90f183	-0.017693287
136	0x3df90aa3	0.12160232
137	0xbd8e5913	-0.06950583
138	0x3dcbc3d9	0.09949464
139	0x3d4263a4	0.047458306
140	0xbc1e738f	-0.009671106
141	0x3cc04e10	0.023474723
142	0x3bcd415c	0.006263895
143	0x3dec4e18	0.11538333
144	0x3db82f42	0.08993389
145	0xbda87cb6	-0.08226912
146	0x3db1fd12	0.086908475
147	0xbc65cd8b	-0.014026056
148	0x3d533985	0.051568527
149	0xbd980605	-0.07423023
150	0x3dae3846	0.08506827
151	0x3d09ebec	0.03367226
152	0xbdf7d023	-0.12100246
153	0xbceb69fe	-0.028737064
154	0xbdf081a3	-0.11743476
155	0x3d8f3b9c	0.069937915
156	0x3e0fc899	0.14041366
157	0xbdcd82d3	-0.10034718
158	0xbd2a1aca	-0.041529454
159	0x3e0fc693	0.14040594
160	0x3b39100c	0.0028238324
161	0x39a07e04	0.00030611467
162	0xbd22270d	-0.039588023
163	0xbd249caf	-0.040188488
164	0x3dc2bb38	0.095083654
165	0xbc615351	-0.013752774
166	0xbcd1b090	-0.025596887
167	0x3d2684c5	0.040653963
168	0x3d389d99	0.04507217
169	0x3d185d31	0.03719825
170	0xbd8b0603	-0.06788256
171	0x3d125f6c	0.035735533
172	0x3dccd938	0.10002369
173	0xbd20ad6e	-0.039227895
174	0x3d0280ab	0.03186099
175	0xbdb1f8fe	-0.086900696
176	0xbdabf3f0	-0.08396137
177	0xbcdd6483	-0.027025467
178	0xbd5e648a	-0.0542951
179	0x3dc2553c	0.094889134
180	0x3ca9d7b8	0.020732746
181	0x3d780082	0.06054736
182	0x3cc17fb2	0.02362046
183	0xbb4ad778	-0.0030951183
184	0xbda242f2	-0.07922925
185	0xbcfe6174	-0.031052329
186	0xbcae0bba	-0.021245826
187	0x3d652513	0.05594356
188	0x3dbc03b4	0.09180394
189	0xbdbf2d1c	-0.09334776
190	0xbd9a7aea	-0.07542975
191	0x3da31b4f	0.07964193
192	0x3d8f73e4	0.07004526
193	0xbd840ded	-0.06447969
194	0xbd45b197	-0.048265066
195	0x3e31ec18	0.17375219
196	0x3dddfae0	0.10838866
197	0x3d882cdd	0.06649182
198	0x3c2d5bae	0.01058094
199	0xbd4a2e5b	-0.049360614
200	0xbdd51bfb	-0.104057275
201	0x3d7546ad	0.059881855
202	0xbdb89bb9	-0.09014077
203	0xbd50a3c8	-0.050937444
204	0x3b366c46	0.0027835532
205	0xbc83d07c	-0.016090624
206	0x3d1081c5	0.035280008
207	0xbd981115	-0.07425133
208	0x3db11626	0.086468026
209	0x3c9ce9fd	0.019154543
210	0x3a82e39b	0.0009986045
211	0xbb2d48e4	-0.0026441151
212	0x3b0227b3	0.0019860088
213	0x3d3aa340	0.045565844
214	0xbd300c43	-0.042980444
215	0x3db33df9	0.08752055
216	0x3dabed0d	0.08394823
217	0x3e0cf983	0.13767056
218	0xbd60ab26	-0.05485072
219	0xbcff8785	-0.03119255
220	0x3d8cdf74	0.06878558
221	0xbdb50372	-0.08838548
222	0xbcd2d842	-0.025737885
223	0xbd1c7e6a	-0.038206495
224	0x3cc88f30	0.02448234
225	0x3dc0670c	0.09394655
226	0xbd559f8f	-0.05215412
227	0xbdaf7486	-0.08567147
228	0x3d48c555	0.049016315
229	0xbd651edc	-0.055937633
230	0xbd492743	-0.04910971
231	0xbdf6f340	-0.12058115
232	0xbcf5ad4b	-0.02998986
233	0x3c9aaaf3	0.018880343
234	0xbd775543	-0.060384046
235	0x3dd9f460	0.10642314
236	0x3d715956	0.058923088
237	0xbd3548c7	-0.04425886
238	0x3cb96edd	0.022635872
239	0xbdcaa52e	-0.09894787
240	0x3e5032b1	0.20331837
241	0x3c6fa112	0.0146258045
242	0x3d3957b9	0.045249674
243	0xbcfd7b05	-0.03094245
244	0x3db220d9	0.086976714
245	0x3d55427a	0.05206535
246	0x3c18f211	0.009335057
247	0x3cb153f0	0.02164647
248	0x3daf1e51	0.08550704
249	0xbd8d606f	-0.06903159
250	0xbd0f5459	-0.03499255
251	0x3c12a80e	0.0089512
252	0x3dd87a8f	0.10570251
253	0xbe513231	-0.20429303
254	0xbe228f49	-0.15874971
255	0x3cfc4193	0.030792987

lstm.weight_ih_l1 f4 [256, 64]
0	0xbeb3dd2f	-0.35129687
1	0xbcf6e998	-0.030140683
2	0xbd3608a1	-0.044441823
3	0x3d8d4edb	0.06899806
4	0xbdf2a58d	-0.118479826
5	0x3e252301	0.16126634
6	0xbdb9dea1	-0.09075666
7	0xbe0038af	-0.12521623
8	0x3caf3940	0.021389604
9	0xbdc8213f	-0.09771966
10	0xbd43305a	-0.047653534
11	0xbda985c0	-0.08277464
12	0xbd6e53d6	-0.05818542
13	0x3df9c89d	0.12196467
14	0xbca9c538	-0.020723924
15	0x3db55937	0.08854907
16	0x3dffe156	0.12494151
17	0xbdb2ca34	-0.087299734
18	0x3bda95ed	0.0066707046
19	0xbd467b51	-0.048457447
20	0xbd88ede6	-0.066860005
21	0xbd63a3eb	-0.055576246
22	0x3d78275e	0.06058442
23	0xbd682633	-0.056677055
24	0x3dfaa2c8	0.12238079
25	0xbd51c48e	-0.05121284
26	0x3d5cacd0	0.053875744
27	0x3cae91b9	0.02130972
28	0x3d3b5f20	0.045745015
29	0x3d295e7e	0.04134988
30	0x3e6641fa	0.22486106
31	0x3c4eb11e	0.01261547
32	0xbd0b371b	-0.0339881
33	0xbd7386e6	-0.05945482
34	0x3d0fe1b0	0.03512734
35	0x3ca89737	0.020579917
36	0xbe05516d	-0.13019343
37	0xbd0d7356	-0.03453382
38	0xbdd132d6	-0.10214774
39	0x3ddad0e0	0.10684371
40	0xbd88ccb0	-0.06679666
41	0x3dd02fec	0.1016539
42	0xbcd38b90	-0.025823385
43	0x3da11e3c	0.07867095
44	0xbe20d039	-0.1570443
45	0xbcbd3ea1	-0.023101153
46	0x3bed3f9c	0.007240249
47	0xbc3dcc86	-0.011584407
48	0x3cd98dd9	0.026556896
49	0xbe5427ac	-0.20718259
50	0x3d09722e	0.033556156
51	0x3ce38626	0.027773928
52	0xbc133d47	-0.008986778
53	0xbe17941b	-0.14802592
54	0x3e40e026	0.18835506
55	0xbcd9afba	-0.02657305
56	0xbd5f337f	-0.05449247
57	0x3d149d23	0.03628267
58	0xbce9c9a4	-0.028538533
59	0x3d252709	0.04032043
60	0xbcf55524	-0.029947825
61	0x3e0b9973	0.13632755
62	0x3dc435d1	0.09580577
63	0x3db5d974	0.088793665
64	0xbca2a18a	-0.019852418
65	0xbd703585	-0.05864479
66	0x3e3d1dba	0.18468371
67	0xbc089dcb	-0.008338402
68	0x3d974c3b	0.07387587
69	0x3d8a8563	0.06763723
70	0x3da6682d	0.08125339
71	0x3e520578	0.20509899
72	0x3d1c747f	0.038197037
73	0xbdb2308f	-0.08700668
74	0x3db38a57	0.087666206
75	0x3da16c19	0.07881946
76	0x3e0078bc	0.12546057
77	0xbdee9f5a	-0.11651488
78	0x3e8e989d	0.2785081
79	0xbe33b3bf	-0.17549036
80	0xbe04f235	-0.1298302
81	0xbcd7bd81	-0.02633548
82	0xbe13be20	-0.14427996
83	0x3e32c6b1	0.17458607
84	0xbd8a2d21	-0.06746889
85	0xbdf8cfce	-0.121490106
86	0xbe03b13e	-0.12860581
87	0x3dacb81a	0.08433552
88	0xbd48f0ac	-0.049057648
89	0xbdc745f3	-0.09730139
90	0x3e02738a	0.12739387
91	0xbcb8e133	-0.02256832
92	0x3e20a96f	0.15689634
93	0x3da08fee	0.078399524
94	0x3ea32d6b	0.3187059
95	0xbe5a5688	-0.21322072
96	0xbe058916	-0.13040575
97	0x3e314670	0.17312026
98	0xbc6ad536	-0.01433306
99	0xbd1ac13e	-0.037781946
100	0xbe62003c	-0.22070402
101	0x3d739bd2	0.059474774
102	0xbe65c818	-0.22439611
103	0x3dbab8dc	0.091172904
104	0xbe861852	-0.2619043
105	0xbdd5a258	-0.10431355
106	0xbdc71d57	-0.09722393
107	0xbe454cbc	-0.19267553
108	0xbe25a204	-0.16175085
109	0x3e48d345	0.19611843
110	0x3e2db64d	0.16964073
111	0x3cf7712a	0.030205328
112	0x3c78cdd6	0.015185794
113	0x3df9348d	0.121682264
114	0xbdda9efb	-0.10674854
115	0x3d091e90	0.033476412
116	0xbddc1c58	-0.10747594
117	0xbe27dacd	-0.1639206
118	0x3dc25962	0.09489705
119	0x3d5d3e40	0.054014444
120	0xbe17809e	-0.14795157
121	0x3d472e78	0.0486283
122	0x3e381210	0.1797564
123	0x3c59a5d1	0.013284163
124	0xbbb07f61	-0.0053862785
125	0xbd913f79	-0.070921846
126	0xbdd0ea1a	-0.10200901
127	0x3e1fc56e	0.15602657
128	0xbd82286c	-0.06355366
129	0xbd2b948d	-0.041889716
130	0x3d22fe33	0.039793205
131	0xbda64541	-0.08118678
132	0x3e113f49	0.14184298
133	0x3e4733f5	0.19453414
134	0xbcfaad9a	-0.030600358
135	0x3df57ac4	0.11986306
136	0x3e346555	0.1761678
137	0xbe083e6d	-0.13305064
138	0x3c905232	0.017617319
139	0xbccbeaa6	-0.024892163
140	0x3dc2bfd2	0.09509243
141	0x3dc27e51	0.09496749
142	0x3e910ed2	0.2833162
143	0xbbbb0085	-0.005706849
144	0xbdbf38f0	-0.09337032
145	0x3be33c75	0.0069346973
146	0xbe0dff97	-0.13867031
147	0x3d792b04	0.06083204
148	0x3da501c2	0.08056976
149	0xbdb89f45	-0.09014753
150	0xbd80feea	-0.06298621
151	0xbc80b2b0	-0.015710205
152	0xbd4a5683	-0.04939891
153	0xbcff5f9b	-0.031173518
154	0x3e0402be	0.12891671
155	0x3d9f3b32	0.077749625
156	0xbba0ea14	-0.004910717
157	0x3e57c6a2	0.21071866
158	0x3e7e7ad3	0.24851541
159	0xbd4c5f46	-0.049895547
160	0x3d444d93	0.047925543
161	0x3e66506e	0.22491619
162	0xbd340ec0	-0.04395938
163	0xbdcb6573	-0.09931459
164	0xbdc0ec57	-0.09420078
165	0x3e66b6d9	0.22530688
166	0xbd626dc2	-0.055280454
167	0x3e256904	0.16153342
168	0xbd9a2f55	-0.07528559
169	0x3e014d56	0.12627158
170	0xbdb56790	-0.088576436
171	0xbe2b423b	-0.16724484
172	0xbdaf8f4d	-0.08572254
173	0xbd024a41	-0.031809095
174	0x3e3a7a15	0.18210633
175	0xbd975a1e	-0.07390235
176	0x3e52f558	0.20601404
177	0x3d18e4ea	0.037327684
178	0xbe062ec0	-0.13103771
179	0x3d8faecb	0.07015761
180	0x3cc0a321	0.023515286
181	0x3d8c9579	0.06864447
182	0x3db7a354	0.08966699
183	0xbdd8b3cc	-0.105811685
184	0xbc1f7259	-0.009731852
185	0xbccb1c10	-0.024793655
186	0x3d3c68b8	0.045998305
187	0xbd6b2677	-0.05740973
188	0xbcb1b9d0	-0.021695048
189	0x3c9bf714	0.019038714
190	0xbd44d2aa	-0.048052467
191	0x3e76e626	0.24111232
192	0xbd13f0db	-0.03611837
193	0x3e0d6068	0.13806307
194	0xba9f4700	-0.0012151897
195	0xbdd95dcd	-0.10613594
196	0x3dca27cd	0.09870873
197	0x3cd0f224	0.025506087
198	0xbe109e64	-0.14122921
199	0x3d1fe29c	0.03903447
200	0x3e596463	0.212297
201	0xbe131543	-0.1436358
202	0x3e02a38a	0.12757698
203	0xbd86a129	-0.065737076
204	0xbd87ff27	-0.06640463
205	0x3e260adc	0.1621508
206	0x3e46250d	0.19350071
207	0xbd81d640	-0.06339693
208	0x3d31186c	0.04323618
209	0xbdbf3780	-0.09336758
210	0xbdc1dd38	-0.09466022
211	0x3e18961b	0.1490101
212	0xbdf85ba6	-0.121268556
213	0xbde82983	-0.11336043
214	0x3aa05f5c	0.001223545
215	0xba8694bc	-0.0010267715
216	0x3d17fe53	0.037107777
217	0xbd6c7f6b	-0.057738703
218	0x3b8b59a3	0.004252629
219	0xbd1f9d41	-0.03896833
220	0x3e69d5f6	0.22835526
221	0x3d2d7deb	0.042356413
222	0x3e4e840c	0.2016756
223	0xbdc991b7	-0.09842246
224	0xbd85d16a	-0.06534083
225	0x3d5a5ce8	0.05331126
226	0xbe00d777	-0.12582193
227	0xbdd793ee	-0.10526262
228	0xbdd392ea	-0.10330756
229	0x3c3e4af2	0.011614548
230	0xbd990581	-0.07471753
231	0xbd74ef8b	-0.05979876
232	0xbe33ad1c	-0.17546505
233	0x3e03af43	0.12859826
234	0xbe04e210	-0.12976861
235	0xbc4e006e	-0.012573345
236	0xbdac1895	-0.08403126
237	0x3d45a657	0.048254337
238	0x3ddc5417	0.10758226
239	0x3c83d937	0.016094787
240	0xbdadd77e	-0.084883675
241	0x3c0094f5	0.007848014
242	0xbe0247a9	-0.12722649
243	0x3df41a5a	0.11919089
244	0xbd933e9e	-0.07189678
245	0x3d662cb3	0.056194972
246	0x3e3dcf26	0.18536052
247	0xbe02aeb4	-0.12761956
248	0xbe22f4fe	-0.1591377
249	0xbd7e180c	-0.06203465
250	0xbdf51d24	-0.11968449
251	0x3d2b023e	0.041750185
252	0x3da06a88	0.07832819
253	0x3da1d9c3	0.07902863
254	0xbd079ec1	-0.033110384
255	0x3c8ca457	0.017168207

lstm.weight_hh_l1 f4 [256, 64]
0	0xbd042191	-0.032258574
1	0x3c7a561d	0.01527932
2	0xbcc94a57	-0.02457158
3	0x3e25e7d8	0.16201723
4	0x3d3d5767	0.04622593
5	0xbcadf66e	-0.02123567
6	0x3dc66071	0.096863635
7	0x3dcdb067	0.10043412
8	0x3cd19a6a	0.025586326
9	0x3cadeede	0.021232065
10	0xbda310ac	-0.07962164
11	0x3c26288a	0.010141501
12	0x3e04e3eb	0.12977569
13	0x3cf21be4	0.029554315
14	0x3dc66f86	0.0968924
15	0xbe0e0663	-0.13869624
16	0xbdc8b27f	-0.097996704
17	0xbd2d320b	-0.042284053
18	0xbe41690c	-0.18887728
19	0xbe5c3158	-0.21503198
20	0x3e2e315c	0.17011017
21	0xbdfdbb6f	-0.12389266
22	0x3d3d0bec	0.046153948
23	0xbe39fab5	-0.18162043
24	0x3e0dd272	0.1384981
25	0xbc632cbe	-0.013865648
26	0xbe2cb164	-0.16864544
27	0xbd082269	-0.03323594
28	0xbdb6f4e5	-0.08933429
29	0x3e16c972	0.14725283
30	0x3dc2d910	0.09514058
31	0x3d73796e	0.059441976
32	0x3e26df49	0.16296114
33	0x3d3194b0	0.04335469
34	0xbd10c506	-0.035344146
35	0xbd8d4b09	-0.068990774
36	0x3e093387	0.13398562
37	0x3d8516de	0.06498502
38	0x3dc1df4c	0.094664186
39	0xbd057fd0	-0.032592595
40	0xbc0219a2	-0.007940682
41	0xbae9c96f	-0.0017836521
42	0x3c6e3757	0.014539561
43	0xbe23bf8f	-0.15991043
44	0xbddf3cd3	-0.10900273
45	0xbdb17b72	-0.086661234
46	0x3c974870	0.018467158
47	0x3e1671c0	0.1469183
48	0xbdd0deae	-0.10198723
49	0xbe033be4	-0.12815815
50	0xbc12fdd5	-0.008971651
51	0x3d2ae7ea	0.041725077
52	0xbe0144da	-0.12623921
53	0xbe034215	-0.12818177
54	0x3dde50cc	0.108552545
55	0x3cbfe9d9	0.023426937
56	0xbda93a6a	-0.08263095
57	0xbdb59bac	-0.08867583
58	0xbd5d73ef	-0.05406564
59	0x3cd2778a	0.025691766
60	0x3cd1a888	0.025593057
61	0xbe0f297d	-0.1398067
62	0xbd38717d	-0.045030106
63	0xbdd93226	-0.10605268
64	0xbdcb16f7	-0.099164896
65	0x3cc6a769	0.02424975
66	0x3e2751e7	0.16339837
67	0x3e541a1c	0.20713085
68	0x3e1f3f8d	0.15551586
69	0x3ac9b3ad	0.001538863
70	0xbdc88710	-0.09791386
71	0x3e5a0b2c	0.21293324
72	0xbd129b09	-0.035792384
73	0xbd746f9b	-0.059676748
74	0xbe20b7bf	-0.15695094
75	0x3df7eed6	0.12106101
76	0x3d4a23c4	0.049350515
77	0x3d70abab	0.058757465
78	0x3e1004d8	0.14064348
79	0xbe075bb1	-0.13218571
80	0xbda00c57	-0.07814854
81	0x3e8c0a4e	0.27351612
82	0xbe0d9bfb	-0.13829033
83	0x3d238858	0.03992495
84	0xbd4e536b	-0.050372522
85	0xbd13ce45	-0.036085386
86	0xbd00731d	-0.03135978
87	0xbd9f007b	-0.077637635
88	0x3dcc0ab6	0.099629804
89	0x3e5a9eef	0.21349691
90	0xbe9445e3	-0.2895957
91	0xbd06253c	-0.032750353
92	0xbb9fd360	-0.004877493
93	0x3d828552	0.06373085
94	0x3d11a133	0.035554122
95	0xbda06e6c	-0.07833561
96	0x3e11075f	0.14162968
97	0x3e6081e2	0.21924546
98	0xbc00c064	-0.0078583695
99	0xbdae33e2	-0.085059896
100	0xbd8295f1	-0.06376255
101	0x3e58c932	0.211705
102	0x3e019b1a	0.12656823
103	0x3e43396e	0.19064876
104	0xbe01882f	-0.12649606
105	0xbe2409ff	-0.16019438
106	0xbd0dfbac	-0.03466384
107	0xbe2c2d85	-0.1681424
108	0xbd06bdda	-0.0328959
109	0xbdcff970	-0.10154998
110	0x3ddd2fff	0.1080017
111	0x3dac2136	0.08404772
112	0xbc9cc3b9	-0.019136297
113	0xbd6f9cb1	-0.058499042
114	0x3e38ff81	0.18066217
115	0x3e096585	0.13417633
116	0xbdd03767	-0.10166817
117	0xbcc0656f	-0.023485867
118	0x3d4b1740	0.04958272
119	0xbc427414	-0.0118684955
120	0xbd73eb08	-0.059550315
121	0x3ddc84cc	0.107675165
122	0x3e150a84	0.14554793
123	0xbcb6c181	-0.022309067
124	0xbd0a8006	-0.0338135
125	0xbdebd885	-0.11515907
126	0xbe1d61e7	-0.15369378
127	0xbc84b86f	-0.016201226
128	0xbe61d71e	-0.22054717
129	0xbdf7abe1	-0.1209333
130	0x3d0e8483	0.03479434
131	0x3e2655f5	0.16243728
132	0x3d737fd6	0.059448086
133	0x3d82b801	0.06382752
134	0xbdfdd64e	-0.12394391
135	0x3de19d35	0.11016313
136	0x3d2d6049	0.042328153
137	0x3cb180d5	0.021667877
138	0x3dd398ac	0.10331854
139	0xbd15205e	-0.03640782
140	0xbd25aa1b	-0.04044543
141	0x3e0ecd7e	0.13945577
142	0xbd813a8d	-0.06309996
143	0xbe3eb194	-0.18622428
144	0xbdac9a46	-0.08427863
145	0x3e5b0ca3	0.2139154
146	0x3c8a957b	0.016916981
147	0xbd044175	-0.032288987
148	0x3ce485af	0.027895777
149	0xbe2e0b5a	-0.16996518
150	0x3db22d89	0.087000914
151	0xbe01c6b6	-0.12673458
152	0xbc8b4f00	-0.017005444
153	0x3da917e2	0.082565084
154	0xbe34d5f7	-0.17659746
155	0xbd451385	-0.04811432
156	0xbd92c12a	-0.07165749
157	0xbdca55c0	-0.09879637
158	0xbdcc3f6e	-0.09973036
159	0xbdcbcc69	-0.099510975
160	0x3e01f25f	0.12690113
161	0x3de182af	0.11011254
162	0x3c6d9cdf	0.014502733
163	0x3dbc2285	0.091862716
164	0x3dd61eba	0.104550794
165	0x3e466ed1	0.1937821
166	0x3d3930c2	0.045212515
167	0x3e174e53	0.14775972
168	0xbd813dde	-0.06310628
169	0xbdafff58	-0.08593625
170	0xbe3f1750	-0.18661237
171	0xbb6be060	-0.0035991892
172	0x3ce5e392	0.028062616
173	0x3c44ce0b	0.012012015
174	0xbda34712	-0.0797254
175	0xbdfa6fca	-0.12228353
176	0xbda6dff2	-0.08148183
177	0xbd46533b	-0.04841922
178	0xbd47807d	-0.04870652
179	0x3e3fc265	0.187265
180	0xbe226631	-0.15859295
181	0x3d2f5e59	0.042814586
182	0xbbf2259c	-0.0073897373
183	0x3d23170d	0.039816905
184	0xbdc368ff	-0.09541511
185	0x3e28a162	0.16467813
186	0x3cb651fe	0.022255894
187	0xbdc394c3	-0.095498584
188	0x3db65e51	0.08904708
189	0xba81f96a	-0.000991625
190	0xbc6433cb	-0.013928364
191	0xbd9de088	-0.077088416
192	0xbcddbbe8	-0.02706714
193	0x3d9bb222	0.076023355
194	0x3cde6d6d	0.027151788
195	0x3d8f72a7	0.0700429
196	0xbceb2e3f	-0.028708575
197	0xbd83c47b	-0.0643396
198	0xbdba677c	-0.09101769
199	0x3dae1ea6	0.085019395
200	0xbcd932ba	-0.026513446
201	0x3d9130f6	0.07089417
202	0xbc4b5d93	-0.012412447
203	0x3c02d6ef	0.0079858145
204	0x3c666249	0.014061519
205	0xbc061c2e	-0.0081854295
206	0xba8bda6c	-0.0010669953
207	0x3bf58cca	0.00749359
208	0x3dccbde2	0.09997155
209	0x3d7854c4	0.060627714
210	0xbc97142b	-0.018442234
211	0xbdd06b62	-0.10176732
212	0x3db5b787	0.08872896
213	0xbe09210e	-0.13391516
214	0xbd398a05	-0.04529764
215	0xbb89f932	-0.0042106146
216	0x3e2c1791	0.16805865
217	0x3dd0bbbf	0.1019206
218	0xbe0b862f	-0.13625406
219	0xbdc6a3a9	-0.096991844
220	0xbe0a3f7c	-0.1350078
221	0x3cfa99ef	0.03059098
222	0xbdbe96be	-0.093060955
223	0xbdc5e8d3	-0.09663548
224	0x3e2c6d47	0.16838561
225	0x3c0ae1b6	0.008476665
226	0xbe088972	-0.13333681
227	0xbdf8a929	-0.1214164
228	0x3cd552ca	0.026040453
229	0x3e055be2	0.13023332
230	0x3dac7d80	0.08422375
231	0x3dd190d2	0.102327004
232	0xbd290f2f	-0.041274246
233	0xbd8c7d76	-0.06859867
234	0xbcaeabde	-0.021322187
235	0xbe4758c0	-0.19467449
236	0xbdcfa402	-0.10138704
237	0x3d8d59c4	0.06901887
238	0x3c6fc1c7	0.014633602
239	0x3df319bf	0.11870145
240	0xbd84c1a9	-0.0648225
241	0xbc7c74d4	-0.015408713
242	0x3d81b7eb	0.06333908
243	0xbd10ffb8	-0.035400122
244	0xbd0da5c6	-0.034581922
245	0xbd185da2	-0.03719867
246	0x3db1adfc	0.08675763
247	0x3d923195	0.07138363
248	0xbd4d1401	-0.050067905
249	0xbddc3a95	-0.10753361
250	0xbcaacf92	-0.02085093
251	0xbd9159b5	-0.070971884
252	0xbb854bbd	-0.0040678666
253	0x3d027e32	0.03185863
254	0xbe085900	-0.13315201
255	0xbd94ed47	-0.072718196

lstm.bias_ih_l1 f4 [256]
0	0xbd9983e4	-0.07495859
1	0xbe707586	-0.23482332
2	0xbdce6c33	-0.10079231
3	0x3cf6aab2	0.03011069
4	0xbe5a8f4a	-0.21343723
5	0xbd8bce65	-0.06826476
6	0xbdde5a73	-0.108570956
7	0xbe3602d5	-0.17774518
8	0xbe3c3bf1	-0.18382241
9	0xbe51594f	-0.20444225
10	0xbdd15291	-0.102208264
11	0xbe63c843	-0.22244363
12	0xbd60a07e	-0.054840557
13	0xbe4b0b65	-0.19828565
14	0xbe8f8e16	-0.2803809
15	0xbdf33817	-0.11875933
16	0xbe24408a	-0.16040245
17	0xbe15eaba	-0.14640322
18	0xbe235a13	-0.1595233
19	0xbe859cc7	-0.26096174
20	0xbe31eabe	-0.17374703
21	0xbde96e0a	-0.113979414
22	0x3bd9c802	0.0066461572
23	0xbc0a2b6e	-0.008433206
24	0xbdf3c53d	-0.119028546
25	0xbd650504	-0.055912986
26	0x3c9e526e	0.019326415
27	0xbe18664c	-0.14882773
28	0xbe01c54d	-0.1267292
29	0xbdc17018	-0.09445208
30	0xbe145ad6	-0.14487776
31	0x3d38570c	0.04500489
32	0xbe4bf5b9	-0.19917955
33	0xbd454c71	-0.048168603
34	0xbc94cc46	-0.018163811
35	0xbeb30830	-0.34967184
36	0xbdf063b5	-0.117377676
37	0x3d907537	0.07053607
38	0xbe4be596	-0.19911799
39	0xbda0ae8a	-0.07845791
40	0xbdfc45bf	-0.123179905
41	0xbe3f9340	-0.18708515
42	0x3d4bcd73	0.04975648
43	0xbe4eac2e	-0.20182869
44	0xbe970308	-0.294945
45	0xbda65029	-0.08120758
46	0xbe35e9d9	-0.17764987
47	0xbe6b6028	-0.229859
48	0xbdb9e299	-0.09076423
49	0x3c2751eb	0.010212402
50	0xbdffafe8	-0.12484723
51	0x3cf3d5dc	0.029765062
52	0xbe19d2c6	-0.1502181
53	0xbe1c42ff	-0.15259932
54	0x3d2d654f	0.042332944
55	0xbdca5717	-0.09879892
56	0xbe92d743	-0.28679857
57	0xbe31bc9e	-0.17357108
58	0x3d5a8100	0.05334568
59	0xbe11dd04	-0.14244467
60	0x3cf3d1f9	0.029763209
61	0xbe290472	-0.16505602
62	0xbd0bd471	-0.034138147
63	0xbe07f47f	-0.13276862
64	0xbe10addb	-0.1412882
65	0xbe691d8f	-0.22765182
66	0xbe08c773	-0.13357334
67	0x3daa3131	0.08310164
68	0xbe96ce4a	-0.2945426
69	0xbddc09ce	-0.107440576
70	0x3dacd67c	0.08439347
71	0xbe65fb22	-0.22459081
72	0x3d888454	0.066658646
73	0xbc0fa030	-0.008766219
74	0xbd87a02d	-0.06622348
75	0xbda43d3f	-0.08019494
76	0xbd30bc65	-0.043148417
77	0xbc3edf72	-0.011649953
78	0xbdbc5acd	-0.091970064
79	0xbe2e02bf	-0.16993235
80	0xbdef7374	-0.11691943
81	0xbe27b381	-0.16377069
82	0x3d7748e0	0.060372233
83	0xbd8e1c4c	-0.06938991
84	0xbe53ea17	-0.20694767
85	0xbd96376c	-0.0733479
86	0x3c3251c3	0.010883751
87	0x3ce1b95e	0.02755421
88	0xbe564dde	-0.20928141
89	0xbdc444ea	-0.09583457
90	0xbd8de051	-0.069275506
91	0xbe006d8d	-0.1254179
92	0xbde6c8b2	-0.11268748
93	0xbd79900e	-0.060928397
94	0xbddc5faf	-0.10760438
95	0xbdc6143f	-0.096718304
96	0xbe070868	-0.131868
97	0xbb4e8702	-0.0031513576
98	0xbdb57ebd	-0.08862064
99	0xbe7543ba	-0.23951617
100	0xbdcec02e	-0.10095249
101	0xbdb784d0	-0.08960879
102	0xbe4403e8	-0.19142115
103	0x3d49a064	0.049225226
104	0xbe588c87	-0.21147357
105	0x3d8f6989	0.07002551
106	0xbdea926c	-0.11453709
107	0xbe3fe895	-0.18741067
108	0xbe2e5f13	-0.17028455
109	0x3d30c689	0.043158088
110	0x3bbcc3af	0.005760632
111	0xbdba937a	-0.0911016
112	0xbe198c37	-0.14994894
113	0xbe227d4e	-0.15868112
114	0x3d44a79d	0.04801141
115	0xbdc39ffd	-0.09552
116	0x3d8c1fb4	0.068419844
117	0xbdb9940d	-0.090614416
118	0xbdb84721	-0.08997942
119	0xbe1ac19a	-0.15112916
120	0xbdc93975	-0.09825412
121	0xbcf50a86	-0.029912245
122	0x3d4aa9a5	0.049478192
123	0xbe9eefae	-0.31042236
124	0x3cea0274	0.028565623
125	0x3d688dca	0.056775846
126	0xbe96d1f4	-0.29457057
127	0xbe297581	-0.1654873
128	0x3dd66998	0.10469359
129	0xbd25ef03	-0.040511142
130	0xbd5ec919	-0.054391
131	0xbdc3fbac	-0.09569487
132	0xbd024a41	-0.031809095
133	0x3cbe3467	0.023218347
134	0xbd19b913	-0.037530016
135	0x3d0ca6db	0.034338813
136	0xbda9f7f5	-0.08299247
137	0x3dd2bc78	0.10289854
138	0xbd35826e	-0.04431384
139	0x3b509f58	0.0031833258
140	0x3c41796e	0.011808736
141	0x3d33e2d5	0.043917496
142	0xbd855910	-0.06511128
143	0x3db22ae8	0.0869959
144	0x3c92cf2e	0.017921057
145	0xbdebe5d2	-0.11518444
146	0xbcbedd4c	-0.023298882
147	0x3d774a76	0.060373746
148	0x3cad424d	0.021149779
149	0x3c3c898e	0.011507405
150	0xbcfddfa6	-0.030990433
151	0xbcb092b1	-0.021554323
152	0xbdc08e0c	-0.09402093
153	0xbe06cc42	-0.13163856
154	0x3db307dd	0.08741734
155	0x3d53fb65	0.05175342
156	0x3dd19c5a	0.102349
157	0x3d691e47	0.05691364
158	0x3c30b547	0.010785407
159	0x3d92ab03	0.07161524
160	0xbd1ab4f1	-0.037770215
161	0x3d12c21e	0.035829656
162	0x3d6bd374	0.057574704
163	0x3cda4088	0.026642099
164	0xbc5e9490	-0.013585225
165	0xbd75ea58	-0.06003794
166	0xbc943d97	-0.018095775
167	0x3cb37fbd	0.021911496
168	0x3d1fd3b9	0.039020274
169	0x3da7f0d1	0.08200229
170	0x3cadd5de	0.021220144
171	0xbd1ec1f0	-0.038759172
172	0x3dceeca9	0.10103733
173	0x3d1b3e7d	0.03790139
174	0xbd49e0d6	-0.049286686
175	0x3d9a148f	0.075234525
176	0xbdc0c9b5	-0.094134726
177	0x3dfe043b	0.12403151
178	0xbd3f241b	-0.046665292
179	0x3dc4f01c	0.0961611
180	0x3d962c5a	0.07332678
181	0xbd810c4e	-0.06301175
182	0xbdb1ef91	-0.08688272
183	0xbd2db41e	-0.0424081
184	0xbd16ee16	-0.03684815
185	0xbd97c0c7	-0.07409816
186	0xbc248821	-0.010042221
187	0x3d352780	0.044227123
188	0xbde51a73	-0.111866854
189	0x3d6ded39	0.05808756
190	0x3e0bfd03	0.13670735
191	0x3ce05e1d	0.027388627
192	0xbe09690d	-0.1341898
193	0xbe76a8f2	-0.24087885
194	0xbe5c5300	-0.21516037
195	0xbe13f214	-0.14447814
196	0xbe871ce2	-0.26389223
197	0xbe159995	-0.14609368
198	0xbe1528cb	-0.14566343
199	0xbdf4b708	-0.11948973
200	0x3d4021e6	0.046907328
201	0xbe51f0ef	-0.20502065
202	0xbdf65a5c	-0.120289534
203	0xbda7852b	-0.08179697
204	0xbe55554b	-0.20833318
205	0x3cbff0f0	0.023430318
206	0xbe082123	-0.1329389
207	0xbccf7eea	-0.025329072
208	0xbe168c79	-0.14702024
209	0xbda47645	-0.080303706
210	0xbaad5ce6	-0.0013226538
211	0xbe2d17d6	-0.16903624
212	0xbe9004ec	-0.28128755
213	0xbdfd6459	-0.123726554
214	0x3d44ed89	0.048078094
215	0x3da6a830	0.08137548
216	0xbdd76085	-0.105164565
217	0xbd002400	-0.031284332
218	0xbd091392	-0.03346593
219	0xbe6bdeb0	-0.23034167
220	0x3d81f3eb	0.06345352
221	0x39c8a89d	0.000382726
222	0xbcc7232c	-0.024308763
223	0x3d9cf59d	0.076640345
224	0xbe3ee056	-0.18640265
225	0xbdd328ef	-0.10310542
226	0xbdb7aa1e	-0.08967994
227	0xbe998c94	-0.29990065
228	0xbe1a9e4b	-0.15099446
229	0x3d98ecdc	0.07467052
230	0xbe6702b2	-0.22559622
231	0xbe2b6179	-0.16736402
232	0xbeb60794	-0.35552657
233	0xbbd340bc	-0.006446926
234	0xbe155d19	-0.14586295
235	0xbda300d9	-0.07959146
236	0xbe42b6cb	-0.19015042
237	0xbe2cd200	-0.16876984
238	0xbdf502f7	-0.11963456
239	0xbeb0162f	-0.34391925
240	0xbe83e6df	-0.25762078
241	0x3db32eee	0.087491855
242	0xbe181214	-0.14850646
243	0xbd08af77	-0.03337046
244	0xbcc55273	-0.024087166
245	0x3c890dda	0.016730238
246	0xbdd17e86	-0.102292106
247	0xbe8cf32b	-0.27529272
248	0xbe9a25f7	-0.3010709
249	0xbe9d9393	-0.30776653
250	0xbc91bf5d	-0.017791444
251	0xbe24409d	-0.16040273
252	0xbc41d63d	-0.011830864
253	0xbe1bc88d	-0.15213223
254	0xbe34a919	-0.1764263
255	0xbe27cc40	-0.16386509
