notebook/models/lstm_12_step_Ia.onnx (onnx, 61795 bytes, 9 tensors)

fc1.weight f4 [16, 32]
0	0x3cb59475	0.022165516
1	0xbcef9045	-0.029243598
2	0x3df20d77	0.118189745
3	0xbd23f028	-0.040023953
4	0x3cb9d1f2	0.022683118
5	0x3c7c43d4	0.015397031
6	0xbd71f32c	-0.059069797
7	0x3d4985d0	0.04919988
8	0x3cc3864c	0.023867749
9	0x3b0fab3f	0.002192214
10	0x3d41bc10	0.04729849
11	0x3dcdfc63	0.100579046
12	0x3dd5f89c	0.10447809
13	0x3e56f4f8	0.20991886
14	0xbc2a1dad	-0.010383052
15	0x3d1cc0fa	0.038269974
16	0x3d449a0d	0.047998477
17	0xbdf9d608	-0.12199026
18	0x3e4c13e9	0.1992947
19	0x3d299621	0.04140294
20	0x3c3fd716	0.011708995
21	0xbd39ba64	-0.04534377
22	0xbd808b76	-0.062766
23	0xbc331012	-0.010929124
24	0x3db82dc4	0.08993104
25	0xbe3763ef	-0.17909215
26	0x3da08d54	0.07839456
27	0xbd3863d0	-0.045017064
28	0x3cbe0082	0.023193602
29	0x3d306297	0.043062773
30	0xbb6bcd96	-0.0035980693
31	0x3e0132b6	0.12617001
32	0x3e2548d3	0.16141061
33	0xbe52c7a2	-0.20583966
34	0xbd12d907	-0.035851505
35	0xbdd534f9	-0.10410494
36	0xbd8b2f18	-0.06796092
37	0x3dcd0d6c	0.10012326
38	0xbdf21f9f	-0.118224375
39	0x3ccd7ffa	0.025085438
40	0x3cfc7a4e	0.030820038
41	0x3b1e55df	0.002416007
42	0xbcb78276	-0.022401076
43	0x3e48ce8e	0.19610044
44	0x3e79ff67	0.24413835
45	0xbdb1d96b	-0.08684047
46	0xbd820ccd	-0.06350098
47	0xbe337b2f	-0.1752746
48	0x3d3cf924	0.046136037
49	0xbdced68f	-0.100995176
50	0xbe30cacd	-0.17264862
51	0xbd9188be	-0.071061596
52	0x3c060223	0.00817922
53	0x3e67aaf7	0.22623812
54	0xbdbffdf3	-0.09374609
55	0x3e33d79f	0.17562722
56	0xbcc0660f	-0.023486165
57	0x3d6ff16f	0.05857986
58	0x3e11a57d	0.14223285
59	0x3e18b73e	0.14913651
60	0xbe6e1cdf	-0.23253201
61	0x3dcb9506	0.09940533
62	0xbdea3bae	-0.11437164
63	0xbe3dfde6	-0.18553886
64	0xbd445ebb	-0.047941905
65	0x3d27bd4f	0.040952023
66	0x3d24027d	0.040041436
67	0xbac40c54	-0.0014957287
68	0xbc929eec	-0.017898045
69	0x3d801477	0.06253903
70	0x3c9f4ff7	0.01944731
71	0xbe6bb7ad	-0.23019286
72	0xbd8d44a6	-0.06897859
73	0xbd87d263	-0.06631925
74	0xbb359cfe	-0.0027711983
75	0x3ddee853	0.10884156
76	0xbc029f58	-0.007972561
77	0xbdd61523	-0.1045325
78	0xbd8968b7	-0.06709426
79	0x3d50ae5b	0.05094753
80	0x3ae54d52	0.0017494357
81	0x3e47aedd	0.19500299
82	0x3d16bf7f	0.03680372
83	0x3c0791a6	0.008274471
84	0x3d878062	0.06616284
85	0xbd0319d8	-0.03200707
86	0x3b10f5da	0.0022119195
87	0xbe1b9990	-0.15195298
88	0xbc3d75cb	-0.011563729
89	0x3d6c28c2	0.057656057
90	0xbdc654d8	-0.096841514
91	0xbce21b54	-0.027600922
92	0xbc3dfb44	-0.011595551
93	0xbdb8eba9	-0.090293236
94	0x3d156bb7	0.036479678
95	0x3d3fbaec	0.046809122
96	0xbbde672f	-0.006787203
97	0xbd493a2c	-0.049127743
98	0x3ddefc64	0.108879834
99	0xbd02b0ea	-0.031907
100	0x3da0b957	0.07847851
101	0x3e19e2c9	0.15027918
102	0xbe04ee46	-0.12981519
103	0xbe3e88ab	-0.18606822
104	0xbcdd5bc2	-0.027021293
105	0xbe2cc769	-0.16872944
106	0x3d8ed450	0.06974089
107	0x3d87dc16	0.06633775
108	0x3e3b3af0	0.18284202
109	0xbda1a096	-0.078919575
110	0xbcfecedc	-0.031104498
111	0x3e80645d	0.2507657
112	0xbdadcbf6	-0.08486168
113	0x3ba6853c	0.0050818007
114	0xbd82a526	-0.06379156
115	0xbdb41b7a	-0.08794303
116	0x3e1b6d5e	0.15178439
117	0x3cbb9daa	0.022902329
118	0x3c01bfb9	0.007919245
119	0xbd04970a	-0.032370605
120	0x3d09df38	0.033660144
121	0x3d4f0dad	0.05055015
122	0xbd67c22b	-0.056581657
123	0x396932b4	0.000222395
124	0xbd4d1f80	-0.05007887
125	0x3e48d47d	0.19612308
126	0xbd0efefd	-0.034911145
127	0x3e2bb98a	0.16769996
128	0xbd91430a	-0.07092865
129	0xbdafc202	-0.08581926
130	0x3d359d76	0.04433962
131	0xbe37a854	-0.17935306
132	0xbe1d2998	-0.15347898
133	0x3e13d520	0.1443677
134	0x3d865c2c	0.06560549
135	0xbe7ab4d4	-0.24483043
136	0x3d012230	0.031526744
137	0xbe735ca0	-0.23765802
138	0x3dc3bc13	0.09557357
139	0x3e0666c0	0.13125134
140	0x3e24518a	0.1604673
141	0x3d42f558	0.04759726
142	0x3df2a905	0.11848644
143	0xbd9f8ff5	-0.077911295
144	0x3bfe4a87	0.007760349
145	0xbd01d6ec	-0.031699106
146	0xbd204dbb	-0.03913663
147	0x3d9a509c	0.07534906
148	0x3d75a4b0	0.05997151
149	0xbd0fa246	-0.035066865
150	0xbe066938	-0.13126075
151	0xbc9db0eb	-0.0192494
152	0x3d742181	0.059602264
153	0x3e1aae47	0.15105544
154	0x3e29e183	0.16589932
155	0xbdc911c9	-0.098178454
156	0xb959bd6c	-0.00020765298
157	0x3e2698c6	0.16269216
158	0xbd4f8558	-0.050664276
159	0xbe62140a	-0.22077957
160	0x3b46ec45	0.003035323
161	0xbdd2a039	-0.10284466
162	0x3c31cf6a	0.010852674
163	0xbced5d8e	-0.028975274
164	0xbd487aa5	-0.048945088
165	0x3de17108	0.11007887
166	0x3ba924ec	0.005161872
167	0x3e3ad3a1	0.18244793
168	0x3dd658ae	0.10466133
169	0x3c407011	0.011745469
170	0x3d697248	0.056993753
171	0xbd169eb7	-0.036772456
172	0x3db21671	0.086956866
173	0x3e01a9fe	0.12662503
174	0x3dec80c9	0.11548001
175	0xbd9af058	-0.07565373
176	0xbce837da	-0.028346945
177	0x3d537ed3	0.05163462
178	0xbd098f25	-0.03358378
179	0x3d99e639	0.075146146
180	0xbdac2d50	-0.0840708
181	0xbc10405b	-0.008804406
182	0xba476217	-0.0007605864
183	0x3d886d4f	0.06661474
184	0x3cde84cd	0.027162934
185	0xbcd3e8fd	-0.025867933
186	0xbe1d244d	-0.15345879
187	0x3e1169a1	0.1420045
188	0x3d08c805	0.03339388
189	0xbc19e092	-0.009391921
190	0xbdf68cc4	-0.12038568
191	0x3e0d3681	0.13790323
192	0x3ccc7eba	0.024962772
193	0xbc21bc4d	-0.009871555
194	0xbd47f7b6	-0.04882022
195	0x3d88d767	0.0668171
196	0x3e4a786e	0.19772503
197	0x3e7687ca	0.24075237
198	0x3e4106a7	0.18850194
199	0x3dbd4cd5	0.0924317
200	0xbe539303	-0.2066155
201	0x3de513ed	0.11185441
202	0xbc851063	-0.016243165
203	0xbe2b27a7	-0.16714345
204	0xbe4a084d	-0.19729729
205	0x3d5b52c2	0.05354572
206	0x3e64da7f	0.22348975
207	0x3e17b093	0.14813451
208	0xbe784ef6	-0.24248871
209	0x3e35e41d	0.177628
210	0xbd3c6f41	-0.046004537
211	0xbe713188	-0.23554051
212	0x3e2ddd90	0.1697905
213	0x3c976551	0.018480929
214	0x3d90f3dd	0.07077763
215	0xbe1a5dd1	-0.1507485
216	0xbe10cdaa	-0.14140955
217	0x3ac7572c	0.0015208474
218	0xbe0dbf76	-0.13842568
219	0xbe4c308a	-0.19940391
220	0x3e1bd613	0.15218382
221	0x3e1c239f	0.15247963
222	0x3d00ff3c	0.03149341
223	0x3db7b217	0.08969515
224	0x3d8f8403	0.07007601
225	0x3c583004	0.013195042
226	0x3d131061	0.035904292
227	0x3e1cc99b	0.15311281
228	0xbce57c1e	-0.028013285
229	0xbd4f84af	-0.050663646
230	0x3e4309ad	0.1904666
231	0xbd9acfd5	-0.07559172
232	0xbe258cf1	-0.16167046
233	0x3e218053	0.15771608
234	0xbddfac8c	-0.109215826
235	0xbe07855e	-0.1323447
236	0xbe5a32b2	-0.21308401
237	0xbd6d96e3	-0.058005225
238	0xbc5e2611	-0.01355888
239	0xbcd3433a	-0.025788892
240	0xbdd664a1	-0.10468412
241	0x3d44f26e	0.04808276
242	0xbd062861	-0.032753352
243	0x3e10be52	0.14135101
244	0xbd757896	-0.059929453
245	0x3e8019c8	0.2501967
246	0x3ca7e116	0.020493072
247	0xbdbd8a1b	-0.09254857
248	0xbac75f64	-0.0015210924
249	0x3d2276a0	0.03966391
250	0x3e092cb9	0.13395967
251	0x3db6a6dc	0.08918545
252	0xbc8fc1a0	-0.017548382
253	0x3ce65a54	0.028119244
254	0x3dcb3146	0.099215075
255	0x3bb151a1	0.0054113423

fc1.bias f4 [16]
0	0x3c88933a	0.016671766
1	0x3e6920eb	0.22766463
2	0xbbf6004e	-0.0075073605
3	0xbbd6f69a	-0.006560159
4	0x3dc53267	0.09628754
5	0x3c46f90d	0.012144339
6	0xbe40fc4e	-0.18846247
7	0xbab3552a	-0.0013681997
8	0xbe618e77	-0.22027002
9	0xbcb2f066	-0.021843147
10	0x3dcfe8c5	0.10151819
11	0xbbeda412	-0.0072522247
12	0xbc049744	-0.008092705
13	0xbdb0f51d	-0.08640502
14	0x3cabb725	0.020961354
15	0x3b8b1a25	0.00424506

fc2.weight f4 [1, 16]
0	0x3c2efc62	0.01068029
1	0x3e418061	0.18896629
2	0xbc31015a	-0.010803545
3	0xbc0bf410	-0.008542076
4	0x3d2128e1	0.039345626
5	0x3c8e6d59	0.017386125
6	0xbe4d7e12	-0.20067623
7	0xbc36110d	-0.011112464
8	0xbe17e7e6	-0.14834556
9	0xbb9e12a2	-0.0048239985
10	0x3d3a5d35	0.045499045
11	0xbc22a262	-0.00992641
12	0xbc4c0df3	-0.012454498
13	0xbc95d947	-0.018292082
14	0x3ca78e96	0.020453732
15	0xbc292e0c	-0.01032592

onnx::LSTM_226 f4 [1, 128, 5]
0	0x3f532b3f	0.82487863
1	0x3f2b7067	0.6696839
2	0x3f1111a7	0.5666756
3	0x3f17d28b	0.5930564
4	0x3f564e84	0.83713555
5	0xbe4d692a	-0.20059648
6	0xbea64ce7	-0.32480547
7	0xbdf5a31c	-0.11994001
8	0x3c989861	0.018627347
9	0x3d202334	0.039096072
10	0xbcdbe652	-0.026843224
11	0xbe2815b2	-0.16414526
12	0xbda976dd	-0.082746245
13	0xbe3fecfb	-0.18742745
14	0xbddc7722	-0.1076491
15	0xbed2b407	-0.41152975
16	0xbf1e4ab0	-0.61832714
17	0xbdbfb1af	-0.09360062
18	0x3c0b9c4b	0.00852115
19	0xbd127988	-0.035760432
20	0xbea775d7	-0.32707092
21	0xbe0924bc	-0.1339292
22	0x3e5236c2	0.20528701
23	0x3e6175a0	0.22017527
24	0x3d848109	0.06469924
25	0xbe289546	-0.16463193
26	0xbee1aad1	-0.44075635
27	0xbd1391f0	-0.03602785
28	0x3e672711	0.22573496
29	0x3e472f35	0.19451602
30	0xbf5a4a18	-0.8526931
31	0xbf401448	-0.75030947
32	0x3e8972ed	0.26845494
33	0x3d2fd9a8	0.042932183
34	0x3d63b090	0.055588305
35	0xbe298504	-0.16554648
36	0xbcd8d754	-0.026469864
37	0xbddaf355	-0.10690943
38	0x3c8ade51	0.016951712
39	0x3e2da9a8	0.1695925
40	0x3f326e0d	0.69699174
41	0x3f4cc871	0.7999335
42	0x3e0d17d8	0.13778627
43	0xbd3cbbb6	-0.046077453
44	0xbc8910c0	-0.01673162
45	0x3e81cbd7	0.2535083
46	0x3d9dc84c	0.07704219
47	0xbef2f8d9	-0.4745548
48	0xbebb6efc	-0.36608112
49	0xbe765610	-0.24056268
50	0x3eeb6ecb	0.45982966
51	0x3ecc11e7	0.39857408
52	0x3d0685bc	0.032842383
53	0xbe51e5b8	-0.20497787
54	0x3db3d365	0.08780555
55	0xbf5f4613	-0.872163
56	0xbf729056	-0.9475149
57	0xbf0edb6a	-0.5580355
58	0xbed1ae4e	-0.40953296
59	0xbf05a44b	-0.52203816
60	0x400402a5	2.0626614
61	0x40024c2b	2.035899
62	0x3e6a2c44	0.22868448
63	0xbd109b9b	-0.035304647
64	0x3e6e26cf	0.23256992
65	0x3dfb5201	0.122715004
66	0xbc18a8b8	-0.009317569
67	0x3dab975b	0.08378478
68	0x3e0b5c46	0.13609418
69	0x3e71ef1c	0.23626369
70	0xbdfdb581	-0.12388135
71	0xbebe619b	-0.37183842
72	0x3db10e11	0.08645261
73	0xbe0fd677	-0.14046656
74	0x3d47f86c	0.048820898
75	0xbf00b19d	-0.50271016
76	0xbf0f38df	-0.55946153
77	0x3e0040bf	0.12524699
78	0xbe222b45	-0.15836819
79	0xbd68196c	-0.05666487
80	0xbed465a8	-0.41483808
81	0xbedbed91	-0.42954686
82	0x3d121db4	0.03567286
83	0x3e4990da	0.19684163
84	0x3e393181	0.1808529
85	0xbda53255	-0.08066241
86	0x3e0abdfa	0.13549033
87	0x3edba975	0.42902723
88	0x3ea2154c	0.31656873
89	0x3e9b617b	0.3034781
90	0xbe17d583	-0.14827542
91	0xbeab35d4	-0.33439505
92	0x3df991ca	0.1218601
93	0xbe050bda	-0.12992802
94	0x3dd542f3	0.1041316
95	0x3e38ee94	0.1805976
96	0x3d4bf50f	0.049794253
97	0x3e416618	0.18886602
98	0x3db140bf	0.086549275
99	0x3d3f4c26	0.04670348
100	0x3efe0274	0.49611247
101	0x3eac85d3	0.3369585
102	0xbe2546fd	-0.16140361
103	0xbe09bcf8	-0.13450992
104	0xbdc7cfba	-0.097564176
105	0xbed589d8	-0.4170673
106	0xbe90d1d3	-0.28285083
107	0x3ec70125	0.3886806
108	0x3ec9b7be	0.39397997
109	0x3ec80787	0.39068243
110	0x3ebfabc4	0.37435734
111	0x3e5d5fe7	0.21618615
112	0x3e86d8e2	0.26337343
113	0x3cc18f61	0.023627939
114	0x3e564fb7	0.20928846
115	0x3f85e6fe	1.0461118
116	0x3f5f5108	0.8723302
117	0x3f0a66c4	0.5406306
118	0x3f0a63fe	0.54058826
119	0x3e8803ae	0.26565307
120	0x3eab43e7	0.33450243
121	0x3c522b5c	0.0128277205
122	0xbe052987	-0.13004123
123	0xbd36183f	-0.044456717
124	0xbdf5f2f9	-0.12009234
125	0xbfa6500e	-1.2993181
126	0xbf9b9ffd	-1.21582
127	0xbdf8b2a7	-0.1214345
128	0xbdf0b382	-0.117529884
129	0x3d1b8cbd	0.037976015
130	0x3f20ee7d	0.62863904
131	0x3f26c374	0.6514199
132	0x3ef81a48	0.4845755
133	0x3ef2685e	0.4734525
134	0x3ebdeb08	0.37093377
135	0xbd0d8b60	-0.034556746
136	0xbe72e92e	-0.23721763
137	0xbeb12257	-0.34596512
138	0xbeba8dc5	-0.36436287
139	0xbeb407c8	-0.35162187
140	0x3ea2c3e6	0.31790084
141	0x3e937708	0.2880175
142	0x3cd82098	0.02638273
143	0xbe8bb429	-0.2728589
144	0xbe0f7cd5	-0.14012463
145	0xbf0bf25f	-0.54666704
146	0xbf0b5554	-0.54427075
147	0x3e5902c5	0.21192463
148	0x3c88b615	0.016688386
149	0x3e8cebeb	0.2752374
150	0x3df0c839	0.117569394
151	0xbde86f84	-0.11349395
152	0xbd39df55	-0.045379
153	0x3e01e9ec	0.1268689
154	0x3e30d996	0.17270502
155	0xbe74caa4	-0.23905426
156	0xbe39c83b	-0.18142788
157	0x3eab5a89	0.3346751
158	0x3e492052	0.19641235
159	0x3d8ddc64	0.06926802
160	0x3f3455ed	0.7044361
161	0x3f17e374	0.5933144
162	0x3f585d56	0.8451742
163	0x3f2fb35f	0.68633074
164	0x3f289626	0.6585411
165	0xbe36fa4d	-0.1786892
166	0xbe0473db	-0.1293482
167	0x3d5d9d79	0.054105256
168	0x3dfe83c1	0.12427474
169	0x3db4676d	0.088087894
170	0xbdff1683	-0.12455466
171	0xbe29ed55	-0.16594441
172	0xbd788ccb	-0.060681146
173	0x3c7c9afb	0.01541781
174	0x3d4f53cd	0.050617028
175	0xbddb146e	-0.10697256
176	0xbe5fb607	-0.21846782
177	0xbe07cf78	-0.13262737
178	0xbdaef082	-0.08541967
179	0xbe7605a9	-0.24025597
180	0xbe572679	-0.2101077
181	0xbeae8b60	-0.3409071
182	0x3ea4d766	0.32195586
183	0x3e7febf8	0.24992359
184	0x3d503b44	0.05083777
185	0xbe15c36c	-0.14625329
186	0xbe926471	-0.28592256
187	0x3ea14d90	0.31504488
188	0x3e94a8a6	0.2903492
189	0x3e27bff0	0.16381812
190	0xbfcf7813	-1.6208519
191	0xbfcc2c7c	-1.5951076
192	0xbb181fd8	-0.002321234
193	0xbe6a6ed9	-0.22893848
194	0xbcfaa933	-0.030598259
195	0x3ef1f668	0.47258306
196	0x3f26f594	0.6521847
197	0xbbe738c5	-0.007056328
198	0x3e837dd7	0.25681946
199	0x3e2d2503	0.1690865
200	0x3f0c8fcc	0.54906917
201	0x3f47728c	0.7790916
202	0x3e865efe	0.26244348
203	0x3f01c398	0.5068908
204	0x3efcd3e5	0.49380413
205	0xbe772ee5	-0.24138983
206	0xbe93e9e0	-0.2888937
207	0xbf274b48	-0.65349245
208	0xbf15d446	-0.5852703
209	0xbf22ca51	-0.6358996
210	0x3f0a12a7	0.5393471
211	0x3f15f394	0.58574796
212	0x3de9e0fe	0.11419867
213	0xbcd3aa28	-0.025837973
214	0x3e3a3647	0.18184768
215	0xbf649930	-0.89296246
216	0xbf6b40f1	-0.9189597
217	0x3d1651db	0.036699157
218	0xbe8e8c7e	-0.27841562
219	0x3b34e79c	0.002760387
220	0x3f5a876e	0.853629
221	0x3f270bfb	0.65252656
222	0x3efa3cf1	0.4887462
223	0x3eb24dee	0.3482508
224	0x3f0de317	0.55424637
225	0x3da9f7fd	0.08299253
226	0xbd569810	-0.05239111
227	0x3e8eea7e	0.27913278
228	0x3ce2e219	0.027695702
229	0x3d984706	0.07435422
230	0xbe8b87ef	-0.27252147
231	0xbed28beb	-0.41122374
232	0x3e04e3bd	0.129775
233	0xbc868135	-0.016419033
234	0xbd234077	-0.0398564
235	0x3f1d1e82	0.61374676
236	0x3f1ee466	0.6206726
237	0x3e29b21c	0.1657185
238	0x3e24bad6	0.16086897
239	0xbc52de08	-0.012870319
240	0xbf507ade	-0.8143748
241	0xbf4c339a	-0.7976624
242	0x3e47c572	0.19508913
243	0x3e34f01a	0.17669716
244	0x3ee1b172	0.44080693
245	0xbe08ef54	-0.13372546
246	0xbebe3cb2	-0.37155682
247	0x3db69253	0.08914628
248	0x3e09544d	0.13411064
249	0xbc02493b	-0.00795203
250	0xbe1d6036	-0.15368733
251	0xbe3fde03	-0.18737034
252	0x3d533c3a	0.05157111
253	0x3e661f09	0.22472776
254	0x3dfce608	0.123485625
255	0x3d977eb1	0.07397211

onnx::LSTM_227 f4 [1, 128, 32]
0	0xbe1dc4c7	-0.15407096
1	0x3c957b15	0.018247167
2	0xbe7943ab	-0.2434222
3	0x3e5f563b	0.21810238
4	0xbdaecc81	-0.085351
5	0xba0468cd	-0.0005051017
6	0x3de9373c	0.11387488
7	0xbe78d960	-0.24301672
8	0xbec98561	-0.39359573
9	0x3d13f5a2	0.036122926
10	0xbebab86d	-0.3646883
11	0xbe9f43e5	-0.31106487
12	0x3da4c064	0.08044508
13	0x3e642121	0.22278263
14	0xbe6f21d7	-0.23352753
15	0x3da406da	0.08009119
16	0x3e4a6acb	0.19767301
17	0xbde6e5db	-0.1127431
18	0x3ef399ff	0.47578427
19	0x3ece0b44	0.4024297
20	0xbebe1aac	-0.37129724
21	0xbe212d24	-0.15739876
22	0xbe886628	-0.2664044
23	0xbeec76b2	-0.46184307
24	0x3f14fb69	0.5819612
25	0xbe3d3fbc	-0.18481344
26	0xbe89b4e2	-0.26895815
27	0xbe622ea4	-0.22088104
28	0xbe1e1731	-0.15438534
29	0x3ccf5b08	0.025311962
30	0xbcf20c18	-0.029546782
31	0xbf1acfbc	-0.6047323
32	0x3edd5984	0.43232358
33	0xbf2c1888	-0.6722493
34	0x3e9b8b84	0.3037988
35	0xbe42aa44	-0.19010264
36	0x3e9c1e8e	0.3049206
37	0xbec5792a	-0.38569003
38	0x3e8f863e	0.28032106
39	0xbee0e2e6	-0.4392311
40	0x3e432183	0.19055752
41	0xbc48fcc7	-0.012267298
42	0x3e2cc624	0.1687246
43	0x3efdcbe2	0.49569613
44	0x3dd23bb3	0.10265293
45	0xbde1dff0	-0.11029041
46	0xbe6d77e7	-0.2319027
47	0x3e7259fe	0.23667142
48	0xbe4611d4	-0.19342738
49	0xbeafa41d	-0.34304896
50	0x3e1b9633	0.15194015
51	0xbee3b764	-0.44475853
52	0x3eb35a01	0.35029605
53	0x3eaac5bc	0.33353984
54	0xbe37118d	-0.17877789
55	0x3e817cef	0.2529063
56	0xbe8df2cd	-0.27724305
57	0xbe383cd2	-0.17991951
58	0xba82e49c	-0.0009986344
59	0xbec9387f	-0.39300916
60	0xbee33a05	-0.44380203
61	0xbe095023	-0.13409476
62	0xbf00b7ab	-0.50280255
63	0xbe880f91	-0.26574376
64	0xbeaf6428	-0.342561
65	0xbe2dca1e	-0.16971633
66	0x3de21155	0.11038462
67	0x3df65282	0.12027456
68	0x3efabea0	0.4897356
69	0x3ed92f8b	0.42419085
70	0x3d9c4f9d	0.076323725
71	0x3ae1b5f0	0.0017220359
72	0xbe2a7114	-0.16644698
73	0xbec24540	-0.3794346
74	0xbea6cbbd	-0.32577315
75	0xbf130384	-0.5742724
76	0x3fa8df4f	1.3193148
77	0x3ec95227	0.3932049
78	0xbe805002	-0.2506104
79	0xbc6e906d	-0.014560801
80	0x3eeee657	0.4666011
81	0xbe426bef	-0.18986486
82	0xbe45aeaf	-0.19304918
83	0x3d31e57e	0.04343175
84	0xbeb89822	-0.36053568
85	0xbe924edd	-0.28575793
86	0xbe18b692	-0.14913395
87	0xbf558848	-0.83411074
88	0x3c93bc34	0.018034078
89	0x3ebe0db0	0.37119818
90	0x3e465a75	0.19370444
91	0x3e64f2a6	0.22358188
92	0xbea3ba6a	-0.3197816
93	0x3dc41aee	0.09575449
94	0x3ea713ec	0.32632387
95	0x3e5561b7	0.20838057
96	0x3e919799	0.28435972
97	0xbed4c79a	-0.41558534
98	0xbe011b88	-0.12608159
99	0xbe2452a6	-0.16047153
100	0x3e64b0d1	0.22333075
101	0xbd93490a	-0.071916655
102	0xbe611408	-0.21980298
103	0xbeb1f02d	-0.34753552
104	0xbdac02f5	-0.083990015
105	0x3eb99fa5	0.36254612
106	0x3e3a9ddd	0.18224283
107	0x3ba407c7	0.00500581
108	0xbecd88b7	-0.40143368
109	0x3e5bd8c5	0.2146941
110	0xbdfb915c	-0.122835845
111	0xbe890cdf	-0.26767632
112	0x3d1b1f6c	0.037871763
113	0xbedd699f	-0.43244645
114	0x3ec04a4a	0.37556678
115	0xbe93bf6f	-0.2885699
116	0x3e8a54af	0.27017733
117	0x3e880c70	0.2657199
118	0x3edc6bb9	0.43050936
119	0x3dda13d1	0.10648311
120	0xbdfc6373	-0.12323656
121	0x3d352843	0.04422785
122	0x3edf30d8	0.43591952
123	0xbdefe9a0	-0.11714482
124	0xbe625df4	-0.22106153
125	0xbe5e098a	-0.21683326
126	0xbf033816	-0.51257455
127	0x3d0289d5	0.031869728
128	0x3eb1d28b	0.34730944
129	0x3e392d29	0.18083633
130	0x3f3803b0	0.71880627
131	0x3dbd11ec	0.09231934
132	0xbd5ddeec	-0.054167673
133	0xbf3ea37d	-0.74468213
134	0x3f44e795	0.76915866
135	0x3e6e9c52	0.23301819
136	0xbeb688db	-0.35651287
137	0xbf22ae09	-0.63546807
138	0xbf11fd70	-0.5702734
139	0xbe3ea8ed	-0.18619128
140	0xbd89fc42	-0.067375675
141	0xbf295cff	-0.66157526
142	0x3f58ebce	0.8473481
143	0x3f897685	1.0739294
144	0xbe49f0d3	-0.19720773
145	0x3efeaa32	0.49739224
146	0xbeefc563	-0.46830282
147	0x3e4a3810	0.19747949
148	0xbf0339cc	-0.51260066
149	0x3f4c251e	0.79744136
150	0xbf0d7d22	-0.5526906
151	0x3ef3913d	0.47571746
152	0x3fa48d0f	1.2855548
153	0xbf514158	-0.8174033
154	0xbee80818	-0.45318675
155	0x3eaf1c47	0.3420126
156	0xbe9ac5d1	-0.30229047
157	0xbe6a1ca9	-0.22862495
158	0x3ef0aedf	0.47008416
159	0xbf3c9f74	-0.73680806
160	0x3e349e54	0.17638522
161	0xbef4760f	-0.47746322
162	0x3d8e8c34	0.069603354
163	0xbe06d88b	-0.13168542
164	0x3e147b39	0.1450013
165	0x3e2fb97a	0.17160597
166	0x3e1a7fd2	0.15087822
167	0x3b950ad9	0.0045484123
168	0x3e1e5983	0.15463834
169	0xbe2076be	-0.15670297
170	0x3f00a949	0.5025831
171	0x3e7d4330	0.24732661
172	0x3f89d4d2	1.0768073
173	0x3ef30e05	0.47471634
174	0xbf18e269	-0.59720474
175	0xbdbc5f0f	-0.091978185
176	0xbe0c90a3	-0.1372705
177	0xbe6af5a7	-0.22945271
178	0xbe774f4a	-0.2415134
179	0x3e5cc035	0.21557696
180	0x3edffd6f	0.43748042
181	0xbe9574c6	-0.29190654
182	0x3e24e6de	0.16103694
183	0x3edf031b	0.43557057
184	0xbefae34d	-0.49001542
185	0xbf078b57	-0.5294699
186	0x3e263787	0.1623212
187	0xbefd68e4	-0.49494088
188	0xbe0a1190	-0.13483262
189	0x3ea5d4f0	0.3238902
190	0x3e13c45d	0.14430375
191	0x3e6c9287	0.23102771
192	0x3eeba4a1	0.4602404
193	0xbe8ee86a	-0.27911693
194	0x3eec71fe	0.4618072
195	0xbb14e896	-0.002272164
196	0x3d5cb3fc	0.053882584
197	0xbeebf309	-0.4608386
198	0x3e5c916c	0.21539849
199	0x3e929790	0.28631258
200	0xbe9e765e	-0.30949682
201	0xbea6473f	-0.3247623
202	0xbe8ac8e3	-0.2710639
203	0x3f391c2f	0.7230863
204	0x3ee3b26f	0.44472072
205	0x3d89c0a9	0.067262
206	0x3e8ce436	0.2751786
207	0x3e8a658e	0.27030605
208	0x3ed20beb	0.41024718
209	0x3e504b73	0.20341282
210	0xbf15d0f0	-0.5852194
211	0xbdae2653	-0.085034035
212	0xbe3647f9	-0.17800893
213	0x3ee992f2	0.45619923
214	0xbf0924d8	-0.53571844
215	0x3def70ee	0.116914615
216	0x3e42b4c0	0.19014263
217	0xbca3435e	-0.019929584
218	0xbde92e3f	-0.11385774
219	0xbe82281d	-0.2542123
220	0xbe7d97de	-0.24764964
221	0x3e07b308	0.13251889
222	0x3e8f2aaa	0.27962238
223	0xbdc9d468	-0.098549664
224	0xbeb5c0d0	-0.35498667
225	0xbe07f322	-0.13276342
226	0xbe9806b9	-0.2969263
227	0x3ead5451	0.3385339
228	0xbf09cabd	-0.5382498
229	0x3d95795e	0.072985396
230	0xbe892acf	-0.26790473
231	0xbef6dc14	-0.4821478
232	0xbe195258	-0.14972818
233	0x3e912591	0.28348973
234	0xbedfd48c	-0.43716848
235	0xbee802a7	-0.45314524
236	0xbe6f694b	-0.2338001
237	0x3f4cb2ca	0.7996031
238	0xbf222308	-0.63334703
239	0x3e330919	0.17483939
240	0x3fa24737	1.2677983
241	0xbef17446	-0.47159022
242	0x3d406fff	0.046981808
243	0x3e9de400	0.30838013
244	0x3cb0cbe4	0.021581598
245	0xbf257842	-0.64636624
246	0xbea8438f	-0.32864043
247	0x3e432c68	0.19059908
248	0x3d1218e8	0.035668284
249	0x3f5f0cd3	0.87128943
250	0x3f014dc3	0.5050928
251	0xbea0b015	-0.3138434
252	0xbe6b4807	-0.22976695
253	0x3ec72cb1	0.38901284
254	0xbe185e5a	-0.14879742
255	0x3d2989c6	0.041391157

onnx::LSTM_228 f4 [1, 256]
0	0x3eca37b4	0.39495623
1	0x3e97fa72	0.29683262
2	0xbd93080a	-0.07179268
3	0x3d91af90	0.07113564
4	0x3dad4370	0.08460128
5	0x3d805e38	0.06267971
6	0x3e81643c	0.25271785
7	0x3d120169	0.035645876
8	0x3eb7250e	0.35770458
9	0x3ea23dc8	0.3168776
10	0xbe03d723	-0.12875037
11	0x3eb69d9f	0.3566713
12	0x3e0cfde1	0.13768722
13	0x3cea63d5	0.028612057
14	0xbdcba669	-0.099438496
15	0xbdd31065	-0.103058614
16	0x3b9822f4	0.0046428386
17	0x3e7e6346	0.24842557
18	0x3ac60c6e	0.0015109906
19	0x3e8f03e7	0.27932665
20	0x3d8a73e4	0.06760386
21	0x3e2932ad	0.16523238
22	0x3dbe9bcf	0.09307062
23	0x3ea32fbb	0.31872353
24	0x3e33aa15	0.1754535
25	0x3ca16368	0.01970072
26	0x3f250f3a	0.6447636
27	0xbc181a99	-0.009283685
28	0xbdca02be	-0.09863804
29	0xbd5e1219	-0.054216478
30	0x3e3f0b37	0.18656622
31	0x3e45832a	0.19288316
32	0x3e8e11e7	0.27748033
33	0x3d1ee596	0.03879317
34	0xbdbdcdde	-0.09267782
35	0x3db2c2ae	0.087285385
36	0x3e702f7b	0.23455612
37	0x3d48df39	0.049041007
38	0xbd768b3c	-0.060191378
39	0x3ea21e9b	0.31663975
40	0x3ecfd329	0.4059079
41	0x3e29fe4b	0.16600911
42	0xbdcd62a8	-0.10028583
43	0x3eebd1cb	0.46058497
44	0x3f36ef65	0.7145904
45	0xbdb006bf	-0.08595037
46	0xbd3824ba	-0.0449569
47	0xbddfb92f	-0.10923993
48	0x3d2d1e80	0.042265415
49	0x3e57ec70	0.21086287
50	0x3e71c5f3	0.23610668
51	0x3e68c030	0.22729564
52	0x3dc91f41	0.09820414
53	0xbd05ba70	-0.032648504
54	0xbd052146	-0.032502435
55	0x3f2ab101	0.66676337
56	0xbd68da6a	-0.05684892
57	0x3d7cc0c3	0.06170727
58	0x3e94e032	0.29077297
59	0x3e182998	0.14859617
60	0x3e224049	0.15844835
61	0x3d8596e6	0.06522922
62	0x3d807bdd	0.06273625
63	0x3d3dc6ff	0.046332356
64	0xbeb43e36	-0.35203713
65	0xbe65d23a	-0.22443476
66	0xbe916f04	-0.2840501
67	0xbe76007e	-0.24023625
68	0xbe96cc48	-0.2945273
69	0x3d781f89	0.06057695
70	0xbd997ff6	-0.0749511
71	0xbe301fec	-0.17199677
72	0xbe682498	-0.2267021
73	0x3d83e25b	0.06439658
74	0x3daa0d24	0.083032876
75	0x3e916f32	0.28405148
76	0x3dd78de7	0.105251126
77	0xbe27578c	-0.1634199
78	0xb920763a	-0.00015302832
79	0x3d891810	0.06694043
80	0x3dcd2930	0.100176215
81	0xbd91c17c	-0.07116982
82	0x3e01b05d	0.12664934
83	0xbe40e3bd	-0.18836875
84	0xbea97d85	-0.33103576
85	0x3cac7784	0.021053083
86	0xbc895ab6	-0.016766887
87	0xbddbad34	-0.10726395
88	0xbea7a02d	-0.32739392
89	0xbbdcefd5	-0.0067424574
90	0x3e8142cb	0.25246271
91	0x3e1e3430	0.15449595
92	0x3e695f5e	0.22790286
93	0x3e3dd32a	0.18537584
94	0x3e6e4e6d	0.23272105
95	0xbcee0e52	-0.029059563
96	0xbe22b4ec	-0.15889329
97	0x3e60c882	0.21951488
98	0xbd59efaa	-0.053207077
99	0x3d9c4731	0.07630766
100	0xbdfd3034	-0.1236271
101	0xbe3985c1	-0.1811743
102	0x3deeb632	0.11655845
103	0xbe5e65f7	-0.21718584
104	0xbe3d085a	-0.18460217
105	0x3e60e2c5	0.21961506
106	0xbd45587b	-0.048180085
107	0xbe478b97	-0.19486843
108	0xbd1fb596	-0.038991533
109	0xbc5ac7f9	-0.013353341
110	0xbd46b6fb	-0.048514348
111	0x3d3ca13c	0.046052203
112	0x3d929309	0.07156951
113	0xbe4887a9	-0.19583
114	0x3d888a7a	0.06667037
115	0x3e2a2ee5	0.16619451
116	0xbe3f9015	-0.18707307
117	0xbd0f146f	-0.034931596
118	0xbc4a6a3e	-0.012354432
119	0xbe75976c	-0.23983544
120	0x3e74dfc4	0.23913485
121	0xbe4e8f45	-0.2017184
122	0xbd199af2	-0.037501283
123	0x3e79aaf1	0.24381615
124	0x3d7b71f6	0.06138798
125	0x3da666d4	0.08125082
126	0x3e8f1fc6	0.2795393
127	0x3dab78df	0.08372664
128	0x3ee6d4f2	0.4508434
129	0x3e21b9b3	0.15793495
130	0xbe00d827	-0.12582456
131	0xbe67a1c7	-0.22620307
132	0x3eb318cb	0.34979853
133	0xbe087b97	-0.13328396
134	0x3e804010	0.25048876
135	0x3e58c96f	0.21170591
136	0x3ea6fb6d	0.32613698
137	0x3ed00078	0.40625358
138	0xbd147b1a	-0.03625021
139	0x3df6c4a9	0.12049229
140	0x3e7bfcf6	0.24608216
141	0x3d33fdbf	0.043943163
142	0xbe1196b3	-0.14217643
143	0xbe577215	-0.21039613
144	0x3de4da71	0.11174477
145	0x3e7a6a97	0.24454723
146	0xbe7b16be	-0.24520394
147	0x3e8a455c	0.27006042
148	0x3e9ee899	0.31036833
149	0xbc9f265f	-0.019427476
150	0xbca909d6	-0.020634573
151	0x3ecd81ff	0.40138242
152	0x3e6548b6	0.22391018
153	0x3dbdeea7	0.09274035
154	0x3ed21f21	0.41039374
155	0xbe7f74d4	-0.2494691
156	0x3e0040e0	0.12524748
157	0x3e44895d	0.19193025
158	0x3e62b2ed	0.22138567
159	0x3dfc092d	0.12306438
160	0x3ea4f2cc	0.3221649
161	0x3e97cdd7	0.2964923
162	0x3cae8f1a	0.02130847
163	0x3d87ea02	0.0663643
164	0x3d0605e0	0.032720447
165	0x3e3044f0	0.17213798
166	0x3dee28cd	0.11628876
167	0x3d551ddb	0.052030426
168	0x3e120b0a	0.14262024
169	0x3ea1e1eb	0.31617674
170	0xbd6934de	-0.056935184
171	0x3f199f26	0.60008466
172	0x3f736406	0.950745
173	0x3e4ba31d	0.19886442
174	0x3daa28a0	0.0830853
175	0x3dd91d7b	0.10601326
176	0x3e02889b	0.12747423
177	0x3def20f1	0.11676205
178	0x3cb4734d	0.022027636
179	0x3e8fab11	0.280602
180	0x3d26b594	0.04070051
181	0x3e8fecde	0.28110403
182	0x3d3afecb	0.045653146
183	0x3f1d04de	0.6133555
184	0x3a9d9088	0.0012021223
185	0xbe88cba9	-0.2671788
186	0x3e88e0ca	0.26734
187	0x3c839da0	0.016066372
188	0x3dde452a	0.10853036
189	0x3e32464a	0.17409626
190	0xbd3321dd	-0.043733466
191	0x3dc4092a	0.095720604
192	0xbee9aaa1	-0.45637992
193	0xbdf7d81e	-0.12101768
194	0xbdfce9b9	-0.123492666
195	0xbd487671	-0.04894108
196	0xbdad79e0	-0.084705114
197	0x3ba8ae6a	0.005147745
198	0xbd54c0e2	-0.05194176
199	0x3e1250d0	0.1428864
200	0xbea17f38	-0.31542373
201	0xbdb65c37	-0.08904307
202	0x3e809534	0.25113833
203	0x3eb4b116	0.35291356
204	0x3d6714d8	0.056416363
205	0xbe00cbe6	-0.12577781
206	0xbdf0db20	-0.11760545
207	0x3db9ae67	0.09066468
208	0xbe0fe0f1	-0.14050652
209	0xbd0076a6	-0.031363152
210	0x3dbc3ace	0.091909036
211	0xbe7d2eb6	-0.2472485
212	0xbe6552f1	-0.22394921
213	0xbd2a0af2	-0.041514345
214	0xbd4c04b1	-0.04980916
215	0xbe7f4a1e	-0.24930617
216	0xbe542464	-0.20717007
217	0xbe5568f1	-0.20840813
218	0x3e8c4569	0.27396706
219	0xbc9da03d	-0.019241447
220	0x3e7f50f3	0.24933223
221	0x3d6356d3	0.055502724
222	0x3d41a39e	0.047275178
223	0xbd8a96bf	-0.06767034
224	0xbe09505b	-0.1340956
225	0xbd899ad7	-0.067189865
226	0x3e6be44e	0.2303631
227	0x3db66631	0.0890621
228	0x3d965f84	0.07342437
229	0x3dd1bab0	0.10240686
230	0x3e39e2dc	0.18152946
231	0x3d5eb3d3	0.054370712
232	0xbebe8b9a	-0.37215883
233	0xbd6b67bd	-0.05747198
234	0xbd1bd9f9	-0.03804967
235	0xbe2f14d6	-0.17097792
236	0x3caaf659	0.02086942
237	0xbcb218d8	-0.021740362
238	0x3e1bf95b	0.1523184
239	0xbcd9c56c	-0.026583396
240	0x3e34579a	0.17611542
241	0xbc071e1f	-0.0082469275
242	0x3d07cb65	0.033152957
243	0x3e6cfeb1	0.23144032
244	0xbdcb468f	-0.09925567
245	0x3e23a12f	0.15979455
246	0x3e05a0a5	0.13049562
247	0xbea97cf2	-0.33103138
248	0x3e46d75f	0.19418095
249	0xbbfdf08a	-0.0077496218
250	0xbe1d5b5e	-0.15366885
251	0xbc837ba3	-0.016050166
252	0xbddf99cc	-0.10918006
253	0xbe1fb92d	-0.15597983
254	0x3e15721b	0.14594309
255	0xbe778097	-0.24170147

onnx::LSTM_250 f4 [1, 128, 32]
0	0xbf97d1a5	-1.1860853
1	0x3f1efe09	0.62106377
2	0x3e560a77	0.2090243
3	0x3e007b03	0.12546925
4	0xbe00dfa1	-0.12585308
5	0x3e3cda52	0.18442658
6	0x3d324577	0.043523278
7	0xbec49872	-0.38397557
8	0xbf85370f	-1.0407428
9	0xbefbeb35	-0.49202886
10	0xbef0105d	-0.46887484
11	0xbf52fbb0	-0.82415295
12	0xbea81a1c	-0.3283242
13	0xbed47a1a	-0.41499406
14	0x3e816c7f	0.25278088
15	0x3ea1e756	0.31621808
16	0xbca75c74	-0.020429827
17	0xbec62bc5	-0.38705269
18	0xbea8794e	-0.32905048
19	0x3e37bb01	0.1794243
20	0xbebc51d5	-0.36781183
21	0x3eaa3f3a	0.33251363
22	0x3ec3bebe	0.38231462
23	0xbf8ae8f2	-1.0852339
24	0x3e0a014c	0.13477057
25	0x3e0a6a74	0.13517171
26	0xbe2b3d96	-0.16722712
27	0x3f29ac22	0.6627828
28	0xbe49ceb3	-0.19707756
29	0x3e708aba	0.2349042
30	0x3e8edcf4	0.2790295
31	0xbcc160b2	-0.023605678
32	0x3e8fe496	0.28104085
33	0x3dd6bf4d	0.104857065
34	0xbdb6ba22	-0.08922221
35	0xbeac77ae	-0.33685058
36	0x3e9cdfac	0.30639398
37	0x3e8e85b5	0.27836385
38	0xbca24937	-0.019810302
39	0xbea07335	-0.31337896
40	0xbe30718f	-0.17230819
41	0x3dd39c73	0.10332575
42	0x3e865c14	0.26242125
43	0xbd7125c0	-0.05887389
44	0xbe0ab5fa	-0.13545981
45	0x3ddd7204	0.108127624
46	0x3e093d80	0.13402367
47	0xbeb704a4	-0.35745728
48	0xbdebac40	-0.115074635
49	0x3e60de8d	0.21959896
50	0xbcf05ccd	-0.029341126
51	0xbccf7373	-0.025323605
52	0x3e91bff7	0.2846677
53	0xbcd7a44e	-0.026323464
54	0x3eb6e08e	0.35718197
55	0x3e9e3c8c	0.3090557
56	0x3dc0c62b	0.094127975
57	0x3dca7570	0.09885681
58	0xbd077dae	-0.033078842
59	0x3cfec172	0.031098101
60	0x3d8bcd32	0.06826247
61	0x3dd48d7b	0.10378548
62	0xbe9ffe32	-0.31248623
63	0x3ed79c16	0.42111272
64	0x3e69003f	0.22754
65	0xbe15b2f7	-0.14619051
66	0xbe41091d	-0.18851133
67	0xbdba5c21	-0.090996034
68	0x3f349e24	0.70553803
69	0xbe95a0cb	-0.29224238
70	0x3dbf1346	0.09329848
71	0x3c58db1f	0.013235836
72	0x3e7db857	0.24777351
73	0xbdb92817	-0.0904085
74	0x3af412e2	0.001862135
75	0xbeb356c6	-0.3502714
76	0xbde12b43	-0.1099458
77	0xbeb37885	-0.35052887
78	0x3d9af616	0.075664684
79	0xbdf7dc98	-0.12102622
80	0xbe177eb0	-0.14794421
81	0xbd584441	-0.052799467
82	0x3da82fb0	0.08212221
83	0xbea69d93	-0.32542095
84	0xbdea0624	-0.114269525
85	0x3eddcf6e	0.4332232
86	0x3d5f299c	0.05448304
87	0xbe39b5ac	-0.18135709
88	0xbd714cef	-0.05891126
89	0xbe036970	-0.1283319
90	0xbda7920d	-0.08182154
91	0x3ebee6c1	0.37285426
92	0xbe540dbb	-0.20708363
93	0xbd88ec74	-0.06685725
94	0x3d4dd03a	0.05024741
95	0x3dadbb14	0.08482948
96	0xbd587471	-0.052845422
97	0xbe35dae4	-0.17759281
98	0x3d13de8b	0.036100905
99	0x3e2bc97f	0.16776083
100	0x3f219297	0.63114303
101	0xbe4e3418	-0.2013706
102	0x3d3f6f9d	0.046737302
103	0xbeaf5ac8	-0.34248948
104	0xbd04fa6a	-0.032465376
105	0xbd5e802d	-0.054321457
106	0xbdc1350b	-0.09433945
107	0xbec1300c	-0.3773197
108	0x3f0008c6	0.5001339
109	0xbe56d05e	-0.20977923
110	0x3ea61a6d	0.32442036
111	0xbe86d14c	-0.26331556
112	0xbe307d73	-0.17235355
113	0x3dd437bc	0.10362193
114	0xbe12bbdd	-0.14329477
115	0xbf07b033	-0.53003234
116	0xbcfdde26	-0.030989718
117	0x3eb8d79a	0.3610199
118	0x3de134cf	0.109964006
119	0xbf227bf0	-0.63470364
120	0x3e5eb275	0.21747763
121	0xbeadead9	-0.33968237
122	0xbcae72cd	-0.021294976
123	0x3f1f616c	0.6225803
124	0xbe77aa55	-0.2418607
125	0x3c28ffec	0.010314923
126	0x3e0bf54c	0.13667792
127	0x3eb17ed5	0.34667078
128	0xbd8f4573	-0.06995668
129	0xbe932a1d	-0.28743067
130	0x3db2ede7	0.087367825
131	0xbc9cdac3	-0.019147282
132	0x3f3ff38a	0.74980986
133	0xbdab83c5	-0.083747424
134	0xbe2ec2d0	-0.17066503
135	0xbdfbcc20	-0.12294793
136	0x3e645834	0.22299272
137	0x3e3084d1	0.17238165
138	0xbd12fac8	-0.035883695
139	0xbe1426a4	-0.14467865
140	0x3ed34798	0.4126556
141	0xbdbdbe7e	-0.09264849
142	0x3e2b85f7	0.16750322
143	0xbdaaf02e	-0.08346592
144	0x3d7ac7e9	0.061225805
145	0x3d53e665	0.051733393
146	0xbe491810	-0.19638085
147	0xbec8ac9e	-0.39194196
148	0x3eb2b2c3	0.3490201
149	0x3e6d8c96	0.2319816
150	0xbd45a87c	-0.048256382
151	0xbf57947f	-0.8421096
152	0x3d3c5caa	0.04598681
153	0x3d4a1a5b	0.04934154
154	0xbe22bd40	-0.15892506
155	0x3e544cbb	0.20732395
156	0xbd3f57ad	-0.046714474
157	0x3d81315e	0.06308244
158	0x3e66376c	0.2248208
159	0x3d4e2d0b	0.050335925
160	0x3dc63b1b	0.09679242
161	0xbd0658d1	-0.032799546
162	0xbe8b3148	-0.27186036
163	0xbe2890bf	-0.16461466
164	0x3ec36286	0.38161105
165	0xbd9781a1	-0.073977716
166	0xbc73bfb7	-0.014877251
167	0x3caa7037	0.020805461
168	0x3d5a2caa	0.05326525
169	0xbca7a128	-0.020462587
170	0x3e0718b9	0.13193025
171	0xbeb18f32	-0.34679562
172	0x3eb9a202	0.36256415
173	0xbe60105a	-0.21881238
174	0x3e934ef8	0.28771186
175	0xbef1d211	-0.4723058
176	0xbd8b1e8c	-0.06792936
177	0x3daf7b32	0.085684195
178	0x3e011b84	0.12608153
179	0xbeb0747e	-0.34463876
180	0x3e1c1f74	0.15246373
181	0xbdfb17e1	-0.12260414
182	0x3e072246	0.13196668
183	0xbf573a92	-0.84073746
184	0x3e35fd46	0.17772397
185	0x3e2c5055	0.16827519
186	0xbe8114d8	-0.25211215
187	0x3e498b42	0.19682029
188	0x3bf0f33c	0.0073532145
189	0xbeb7d366	-0.35903472
190	0x3e0c1775	0.13680823
191	0x3e1a2c3a	0.15055934
192	0x3dcd2c64	0.100182325
193	0x3c8757f5	0.016521433
194	0x3db25c19	0.087089725
195	0x3d736899	0.059425924
196	0x3eb2c236	0.34913796
197	0x3dd8473b	0.10560461
198	0x3e529867	0.2056595
199	0xbdef9b46	-0.11699538
200	0xbebb5132	-0.36585385
201	0xbe4a6997	-0.19766842
202	0xbd9aa7c4	-0.0755153
203	0xbec4a101	-0.38404086
204	0xbc1bceec	-0.009509783
205	0xbe7530f6	-0.23944458
206	0xbdca74c4	-0.098855525
207	0x3e0ca47d	0.13734622
208	0xbd9d4b70	-0.07680404
209	0xbe17bac6	-0.14817342
210	0xbe04135d	-0.12898012
211	0x3ad30ecd	0.0016102433
212	0xbdd5e545	-0.1044412
213	0x3eef6134	0.46753848
214	0x3ea7c82b	0.32769904
215	0xbc86968c	-0.016429208
216	0x3e6b3ce7	0.22972451
217	0xbe74994e	-0.23886606
218	0xbe0ca0b2	-0.13733175
219	0x3e9b0a13	0.30281124
220	0xbe0634b5	-0.13106044
221	0x3d301d01	0.04299641
222	0x3e3403c6	0.17579564
223	0x3d01cfe0	0.031692386
224	0xbe238237	-0.15967642
225	0x3e75c6dc	0.2400164
226	0xbe601877	-0.21884333
227	0xbde4f0d2	-0.11178745
228	0x3edc7260	0.4305601
229	0xbe66afb3	-0.22527961
230	0xbec0147f	-0.37515637
231	0xbe59014d	-0.21191902
232	0x3d857bfb	0.06517788
233	0xbdf519bd	-0.119678
234	0x3d5a34f9	0.053273175
235	0x3ce039c7	0.0273713
236	0x3e2ea7b8	0.17056167
237	0xbeb5ef6a	-0.3553422
238	0xbdaf2efa	-0.08553882
239	0xbe56551c	-0.20930904
240	0xbc396173	-0.011314738
241	0x3d64a989	0.055825744
242	0xbdfeac82	-0.12435247
243	0xbf4ee343	-0.80815524
244	0x3e5d1f91	0.21594073
245	0x3ef0e297	0.47047874
246	0x3ee0ba5b	0.43892178
247	0xbeb2cbb9	-0.34921053
248	0x3dc7b89e	0.0975201
249	0xbc600029	-0.013671913
250	0xbc75ce18	-0.01500275
251	0x3eb096c7	0.34490034
252	0xbde515cb	-0.11185797
253	0xbe83c80e	-0.25738567
254	0x3e6f461c	0.23366588
255	0x3f2e83f2	0.6817008

onnx::LSTM_251 f4 [1, 128, 32]
0	0x3dc6f498	0.09714621
1	0xbdb8f368	-0.09030801
2	0xbe86588c	-0.2623943
3	0x3e12fadc	0.14353508
4	0xbe8bb197	-0.27283928
5	0xbf436630	-0.763278
6	0xbd047a20	-0.03234303
7	0xbe9a2d6f	-0.30112788
8	0x3e5a3d6c	0.21312493
9	0x39fb71e1	0.00047959297
10	0xbd3582eb	-0.044314306
11	0xbee4c6d9	-0.4468296
12	0x3d810320	0.06299424
13	0x3f23207d	0.6372145
14	0x3e7ef223	0.24897055
15	0xbe3b7824	-0.18307549
16	0xbe8157d5	-0.25262323
17	0x3e4d9108	0.20074856
18	0xbe1d89b9	-0.15384568
19	0x3d8fdd44	0.07024625
20	0x3f368255	0.7129262
21	0xbe364da7	-0.1780306
22	0xbd8a4874	-0.067521006
23	0xbe83e7a7	-0.25762674
24	0xbe72d9ad	-0.23715849
25	0xbe931a5f	-0.28731057
26	0x3e4590a0	0.19293451
27	0x3e0b15ac	0.13582486
28	0xbc572885	-0.013132219
29	0xbdec5bfd	-0.11540983
30	0x3ddea6f6	0.10871689
31	0xbcac80c1	-0.021057488
32	0x3e3aeb89	0.18253912
33	0xbe46c0b9	-0.19409455
34	0x3e247510	0.16060281
35	0xbdc0be59	-0.09411306
36	0xbd0e3e00	-0.034727097
37	0xbdf875c5	-0.12131838
38	0xbe2e382d	-0.17013617
39	0xbea3c0b3	-0.31982955
40	0x3e1ed4bf	0.15510844
41	0xbe559f84	-0.20861632
42	0x3ea86c09	0.32894924
43	0x3e48f753	0.19625597
44	0x3e645d7f	0.22301291
45	0x3e0eb927	0.13937818
46	0xbe70d507	-0.23518763
47	0xbc452bc7	-0.012034363
48	0x3de69fec	0.112609714
49	0xbec8e0c8	-0.39233994
50	0xbe7166ba	-0.23574343
51	0x3dfd09f2	0.123554125
52	0x3dcc3e8d	0.09972868
53	0x3ee0f52f	0.4393706
54	0xbe8546f3	-0.26030692
55	0x3eea79e3	0.45796117
56	0x3ec68107	0.38770315
57	0x3e7c4535	0.24635775
58	0x3d112c92	0.035442896
59	0x3cad1e0f	0.021132497
60	0xbdca4ccc	-0.09877929
61	0xbe756b6f	-0.23966764
62	0xbd80bd3f	-0.06286096
63	0xbe9f6227	-0.31129572
64	0xbed48758	-0.4150951
65	0xbce499d5	-0.027905384
66	0x3eecde46	0.4626333
67	0xbe89b07a	-0.26892453
68	0xbe1898c6	-0.14902028
69	0xbe2a1f1e	-0.16613433
70	0xbebf9c00	-0.37423706
71	0xbe0bfccd	-0.13670655
72	0x3ec33831	0.38128808
73	0xbe2c698a	-0.16837135
74	0x3f44b3b6	0.7683672
75	0xbc7dfa06	-0.015501505
76	0xbd6ea880	-0.058266163
77	0x3eabfca0	0.33591175
78	0xbf64816f	-0.8926
79	0xbe8ee89c	-0.27911842
80	0x3e102807	0.14077769
81	0x3d5c47f3	0.053779554
82	0xbcd0f2f3	-0.025506472
83	0x3dbc4b0a	0.09194
84	0x3e8f8fb9	0.2803934
85	0x3daa3e0a	0.08312614
86	0xbe74bcba	-0.23900118
87	0x3d940a75	0.07228557
88	0x3ee115ce	0.43961948
89	0x3eeb1464	0.45913994
90	0x3d3a8eb6	0.045546256
91	0x3e2ca929	0.16861404
92	0x3d4e299a	0.050332643
93	0xbeab56a4	-0.3346454
94	0x3e71632f	0.23572992
95	0xbe7fb499	-0.24971236
96	0xbe36d460	-0.17854452
97	0xbd9b1f88	-0.075743735
98	0x3ca5f193	0.020256793
99	0xbe402eb7	-0.1876782
100	0xbeb9936e	-0.36245292
101	0xbe12e29f	-0.14344262
102	0xbdd66870	-0.104691386
103	0xbd63059e	-0.05542528
104	0x3ea07ddd	0.31346026
105	0x3e8e6454	0.2781092
106	0x3ef607a3	0.480527
107	0xbdcf23cc	-0.101142496
108	0xbe2af138	-0.1669358
109	0x3f062bd9	0.52410656
110	0xbe8ee0af	-0.27905795
111	0xbe3acafa	-0.18241492
112	0x3dafa0bb	0.08575579
113	0x3ed9e4b1	0.4255729
114	0xbee04e3c	-0.43809688
115	0x3e501d5c	0.203237
116	0x3e8e112a	0.2774747
117	0xba0477cf	-0.0005053253
118	0x3de82710	0.113355756
119	0x3cf90355	0.030397097
120	0x3de95d39	0.11394734
121	0xbdc00a5e	-0.093769774
122	0xbd9abb72	-0.075552836
123	0x3e01db55	0.12681325
124	0xbe280d93	-0.16411428
125	0x3eb34c19	0.35018995
126	0x3e94350f	0.2894673
127	0xbe5935e4	-0.21211964
128	0xbeb0a9fd	-0.3450469
129	0x3d6c8b47	0.057750013
130	0x3d5ea297	0.054354277
131	0x3deccb63	0.115622304
132	0x3c58ea3b	0.013239439
133	0xbdcae88e	-0.099076375
134	0x3e7c7516	0.2465404
135	0xbe17a908	-0.14810574
136	0x3ead2093	0.33813915
137	0x3d1c4e85	0.03816082
138	0x3ec19496	0.37808675
139	0xbd95475c	-0.07289001
140	0xbe96de97	-0.29466698
141	0x3ef9e085	0.48804107
142	0xbdcf4736	-0.10121004
143	0x3e27d325	0.16389139
144	0x3d96b6fd	0.07359121
145	0x3ea9ebc1	0.33187678
146	0xbe3f4b8d	-0.18681164
147	0xbd88e5a5	-0.06684426
148	0x3f2358b5	0.6380723
149	0x3e3ffc68	0.18748629
150	0x3d64a995	0.05582579
151	0x3e74c08f	0.2390158
152	0x3deee849	0.11665399
153	0xbe634e49	-0.22197832
154	0xbdc9a2c9	-0.09845502
155	0x3cf58e61	0.029975118
156	0x3d34bab2	0.04412336
157	0xbe52b736	-0.20577702
158	0x3ef4d496	0.4781844
159	0xbe89661b	-0.26835713
160	0xbf068f4e	-0.52562416
161	0xbeadfdd6	-0.33982724
162	0xbcbfeaca	-0.023427386
163	0x3eb5eb19	0.35530928
164	0x3d88fc9c	0.066888064
165	0x3e5d2eaf	0.2159984
166	0x3dc48c49	0.0959707
167	0xbe8585f1	-0.26078752
168	0x3e22c4b0	0.15895343
169	0x3dd3b210	0.10336697
170	0x3e6bc8c8	0.2302581
171	0xbe73cb87	-0.23808108
172	0x3e850dda	0.2598713
173	0x3ecccb3e	0.3999881
174	0x3e8e84d7	0.27835724
175	0x3ecc8ea9	0.3995259
176	0x3e9e8ffc	0.30969226
177	0x3da07d7b	0.078364335
178	0xbe9a8522	-0.30179697
179	0xbd82cd3e	-0.06386803
180	0x3e9b1898	0.302922
181	0x3f2b4346	0.66899526
182	0xbd2ea325	-0.042636055
183	0x3ee4e1e4	0.4470359
184	0x3df86705	0.121290244
185	0xbe3b8ced	-0.18315478
186	0xbdec0b4b	-0.115255915
187	0xbdaa351b	-0.0831091
188	0x3e91b6a6	0.28459662
189	0xbf2e9198	-0.6819091
190	0x3ed6add3	0.41929492
191	0xbea30298	-0.31837916
192	0xbec54eda	-0.3853672
193	0xbe4a1fa3	-0.19738631
194	0x3d8e9ba6	0.06963281
195	0xbe190bf4	-0.14945966
196	0xbcb6dac5	-0.022321114
197	0xbe3b9ea4	-0.18322235
198	0xbde05bb8	-0.10954994
199	0xbe0dd9f5	-0.13852675
200	0x3e837585	0.25675598
201	0xbc3cfe82	-0.011535289
202	0x3edf926d	0.43666402
203	0x3d7220df	0.05911338
204	0xbe1387ea	-0.14407316
205	0x3ec63b61	0.38717178
206	0xbcae5844	-0.021282323
207	0xbdcb4e75	-0.09927074
208	0xbe7140c9	-0.2355987
209	0xbcf54e64	-0.029944606
210	0x3d5df8d1	0.054192368
211	0x3e42a766	0.1900917
212	0x3e65f1c1	0.22455503
213	0xbdd5717d	-0.10422037
214	0x3d635ab7	0.055506434
215	0x3e4f7835	0.20260699
216	0x3e8a1734	0.26970828
217	0x3ee71aad	0.4513754
218	0x3dff7abe	0.12474583
219	0x3e597491	0.21235873
220	0x3dcc3f55	0.09973017
221	0xbeb4997d	-0.35273352
222	0x3e79a214	0.24378234
223	0x3e03d4c6	0.12874135
224	0xbd840dde	-0.064479575
225	0xbe520dab	-0.20513026
226	0x3e75aa3f	0.23990725
227	0xbe06f3a6	-0.13178882
228	0xbe417b34	-0.18894655
229	0xbdda344a	-0.106545046
230	0xbe350159	-0.17676295
231	0xbea7aff7	-0.32751438
232	0x3e6ee0d8	0.23327959
233	0xbcc46d07	-0.02397777
234	0x3d7d0213	0.061769556
235	0xbcf0fe5b	-0.029418161
236	0x3da58702	0.08082391
237	0x3ec406b4	0.38286364
238	0xbe0fabd0	-0.14030385
239	0xbe818cf3	-0.25302848
240	0x3e0aa643	0.13539986
241	0xbdc3a65b	-0.09553214
242	0x3d0ff8d8	0.035149425
243	0x3ed1a53f	0.40946385
244	0x3b21706c	0.002463366
245	0x3c20fc3a	0.0098257605
246	0xbe9a3790	-0.30120516
247	0x3f02452e	0.5088681
248	0x3d133a43	0.035944235
249	0x3eb1e901	0.3474808
250	0xbbbfc5a9	-0.0058524203
251	0x3e294d4e	0.16533396
252	0xbe36cbe6	-0.17851219
253	0xbe0d4aa3	-0.13798003
254	0x3cdd8f4d	0.02704587
255	0xbd5ae22e	-0.053438358

onnx::LSTM_252 f4 [1, 256]
0	0x3cac1674	0.0210068
1	0xbe44b37a	-0.1920909
2	0xbe9063dc	-0.28201187
3	0x3d5f6096	0.05453547
4	0xbe223a8f	-0.15842651
5	0x3d0da0d9	0.034577224
6	0xbd5c85dd	-0.0538386
7	0xbe2a5550	-0.16634107
8	0xbe6716fb	-0.2256736
9	0xbe069e7b	-0.13146393
10	0xbddc79ab	-0.10765394
11	0xbe48ff83	-0.1962872
12	0xbea3a5a0	-0.319623
13	0x3d87743c	0.06613967
14	0x3e8e12ab	0.27748618
15	0xbe0bbaf0	-0.1364553
16	0xbe955178	-0.29163718
17	0x3a81a5d6	0.0009891342
18	0xbe239e82	-0.15978435
19	0xbd202c46	-0.039104722
20	0x3d3ab561	0.045583133
21	0xbe2f6c59	-0.17131175
22	0x3d78e347	0.060763624
23	0xbea766df	-0.32695672
24	0x3d02125b	0.031755786
25	0xbe64b648	-0.2233516
26	0xbe360154	-0.17773944
27	0xbe57a437	-0.21058737
28	0xbe4b85e0	-0.19875288
29	0xbe6084dd	-0.21925683
30	0xbdabf5ce	-0.08396493
31	0xbee466ab	-0.4460958
32	0x3e821ed1	0.25414136
33	0xbed1d6c0	-0.40984154
34	0xbe7d3140	-0.24725819
35	0xbd6639cc	-0.056207463
36	0xbe9ed16c	-0.3101915
37	0xbe90cfd4	-0.2828356
38	0xbe2b4e3d	-0.16729064
39	0xbec46a2c	-0.38362253
40	0xbe96fea9	-0.29491165
41	0xbe829858	-0.25506854
42	0x3bd448d6	0.0064784093
43	0xbe9c1894	-0.30487502
44	0xbed0a61c	-0.4075173
45	0xbd56e9ef	-0.05246919
46	0x3e0a7b21	0.13523532
47	0xbd900eb0	-0.070340514
48	0xbe87ff58	-0.26562
49	0xbe71261f	-0.23549698
50	0xbd91bc4f	-0.07115995
51	0xbe7206b9	-0.23635377
52	0x3d797deb	0.0609111
53	0x3cef89d5	0.029240528
54	0xbb246952	-0.002508719
55	0xbe7e0cf7	-0.24809633
56	0x3c397852	0.0113201905
57	0xbe988359	-0.2978771
58	0xbec99a39	-0.39375475
59	0xbe8a1657	-0.2697017
60	0xbd417ab1	-0.04723615
61	0xbd08658c	-0.033299968
62	0xbdb07c41	-0.086174496
63	0xbe70423b	-0.23462765
64	0xbee475e8	-0.44621205
65	0xbe18d77a	-0.14925948
66	0xbe52e956	-0.20596823
67	0xbe70d22d	-0.23517676
68	0xbf076057	-0.5288138
69	0xbefb20b8	-0.490484
70	0xbef53301	-0.47890475
71	0xbdf0c36b	-0.11756023
72	0xbe47cf7e	-0.19512746
73	0xbe89a5f1	-0.26884416
74	0xbd59d553	-0.053181957
75	0xbee768d6	-0.4519717
76	0xbe4627d6	-0.19351134
77	0xbea3940a	-0.31948882
78	0xbec3fd7f	-0.3827934
79	0xbf0b5424	-0.54425263
80	0xbe1d6df1	-0.1537397
81	0xbe722eb3	-0.23650627
82	0xbe3e4e98	-0.18584669
83	0xbed212e5	-0.4103004
84	0xbf1597b7	-0.58434623
85	0xbeadc8e0	-0.33942318
86	0xbeaa8c2f	-0.33310077
87	0xbe805277	-0.25062916
88	0xbe4ef3cd	-0.2021019
89	0xbebf715b	-0.3739117
90	0xbec7e1ad	-0.39039364
91	0xbe41111d	-0.18854184
92	0xbe05a270	-0.13050246
93	0xbde9bc2c	-0.11412844
94	0xbe1cc67d	-0.15310092
95	0xbd393f7b	-0.045226555
96	0xbd1aba85	-0.037775535
97	0xbd8f84ee	-0.07007776
98	0xbd4facfb	-0.050702076
99	0xbc47f74c	-0.012204956
100	0x3d80117d	0.062533356
101	0xbbb929a4	-0.005650716
102	0xbc8c4194	-0.017121114
103	0xbd62fd36	-0.055417262
104	0x3e09392c	0.13400716
105	0x3ccd4fcb	0.025062462
106	0x3de5258f	0.11188804
107	0x3d7b0c04	0.061290756
108	0x3c7b95e4	0.015355561
109	0xbd84d8d3	-0.064866684
110	0xbe523704	-0.205288
111	0xbd09fbb2	-0.0336873
112	0x3dd5146b	0.10404285
113	0xbd9340bc	-0.071900815
114	0xbdb8e3aa	-0.090277985
115	0x3b376deb	0.00279891
116	0xbc0ef463	-0.0087252585
117	0x3dc77806	0.097396895
118	0xbdeae20e	-0.11468898
119	0xbc55565f	-0.013021081
120	0xbd56dd8a	-0.05245737
121	0xbe2c8050	-0.16845822
122	0xbce984f5	-0.028505782
123	0x3d98cffd	0.074615456
124	0xbe48f042	-0.19622901
125	0xbdb20e44	-0.08694127
126	0x3c85491e	0.016270217
127	0xbe2e537d	-0.17024036
128	0x3dc08c93	0.094018124
129	0xbea6435e	-0.32473272
130	0xbdb368c1	-0.087602146
131	0xbdacb8b2	-0.08433665
132	0xbe2c468c	-0.16823786
133	0x3d81515d	0.06314347
134	0xbe861b93	-0.26192912
135	0xbed8a63b	-0.42314324
136	0xbe126c0e	-0.14299032
137	0xbec19306	-0.37807482
138	0x3db0d6f1	0.08634747
139	0xbe8b8565	-0.2725021
140	0xbe91c47c	-0.28470218
141	0x3d721347	0.059100416
142	0x3d8baa2a	0.068195656
143	0xbeaa4fd9	-0.33264044
144	0xbe2cfeeb	-0.16894118
145	0xbe929ec1	-0.28636745
146	0xbea8f3e6	-0.3299858
147	0xbe05d529	-0.13069595
148	0x3d2a2cd0	0.041546643
149	0xbdb298d4	-0.08720556
150	0xbc3aef62	-0.011409612
151	0xbe927a69	-0.28609017
152	0xbdb27b61	-0.08714939
153	0x3cc8de59	0.024520086
154	0xbebc3b94	-0.36764205
155	0xbe775a0c	-0.24155444
156	0xbdc83f57	-0.09777706
157	0xbe565ab5	-0.2093304
158	0xbe08e192	-0.13367298
159	0xbeebf329	-0.46083954
160	0xbc99112e	-0.01868495
161	0xbec518a9	-0.38495377
162	0xbeb02609	-0.3440402
163	0xbdd849bd	-0.105609395
164	0xbd9fd7c4	-0.07804826
165	0xbe8c8cd7	-0.27451202
166	0xbdad6912	-0.08467306
167	0xbee83f71	-0.45360902
168	0xbebc7ca1	-0.36813834
169	0xbec625a8	-0.38700604
170	0xbe68a47c	-0.22718996
171	0xbe40ae8d	-0.18816586
172	0xbeac9ef6	-0.33715028
173	0xbe4ac78e	-0.19802687
174	0x3e06c5c3	0.13161378
175	0xbebab678	-0.36467338
176	0xbe8573f7	-0.26065037
177	0xbea0f81c	-0.31439292
178	0xbe2e441e	-0.17018172
179	0x3cdc7ecd	0.026915932
180	0xbcba9294	-0.022774972
181	0xbe280dbf	-0.16411494
182	0xbe290291	-0.16504885
183	0xbe44cc8f	-0.19218658
184	0xbe85fd8a	-0.26169997
185	0xbde33aba	-0.110951856
186	0xbe6b85da	-0.23000279
187	0xbe319bff	-0.17344664
188	0xbeae9121	-0.340951
189	0xbe838801	-0.256897
190	0xbe7ba839	-0.2457589
191	0xbee55bb5	-0.4479653
192	0xbf1ff028	-0.62475824
193	0xbeaa75ed	-0.33293095
194	0xbeba0253	-0.36329898
195	0xbe9696c8	-0.29411912
196	0xbeecd95a	-0.46259576
197	0xbee9c945	-0.4566137
198	0xbe551d8e	-0.20812055
199	0xbe424b9f	-0.1897416
200	0xbe862f2f	-0.26207873
201	0xbeb403c3	-0.3515912
202	0xbe90f0ed	-0.28308812
203	0xbe30dfc7	-0.17272864
204	0xbe9ddb0e	-0.30831188
205	0xbe9a5360	-0.30141735
206	0xbeb086b9	-0.34477785
207	0xbe86efb8	-0.26354766
208	0xbe2bf308	-0.16791928
209	0xbe4bff90	-0.19921708
210	0xbdde8780	-0.10865688
211	0xbe9b4d25	-0.30332294
212	0xbf1114b8	-0.5667224
213	0xbdb6f4f2	-0.08933438
214	0xbe851671	-0.25993684
215	0xbdd11185	-0.1020842
216	0xbeb43b9b	-0.35201725
217	0xbebb3fcc	-0.3657211
218	0xbdf35e87	-0.11883264
219	0xbebe599a	-0.37177736
220	0xbeb39b5a	-0.3507946
221	0x3d805fec	0.06268296
222	0xbeff0f85	-0.49816528
223	0xbd6286b7	-0.055304255
224	0x3e259790	0.16171098
225	0xbc031b09	-0.008002051
226	0x3e2b2186	0.16712007
227	0xbd69ebea	-0.05710975
228	0xbdd7a72b	-0.10529932
229	0xbca96c83	-0.020681625
230	0xbda8d4d5	-0.082437195
231	0xbdd79187	-0.10525804
232	0xbbd77740	-0.006575495
233	0xbd9bf9ce	-0.07616006
234	0x3da5795c	0.08079788
235	0xbc7f43ba	-0.015580112
236	0x3e402048	0.18762314
237	0x3bdc27ca	0.0067186104
238	0x3c0dc83c	0.008653697
239	0xbcd36427	-0.025804592
240	0x3d9032b2	0.07040919
241	0xbde9d5fe	-0.11417769
242	0xbde0f30d	-0.10983858
243	0x3d0cdeff	0.034392353
244	0xbe5fecaa	-0.21867624
245	0x3d6b0649	0.05737904
246	0x3d495bb2	0.049159713
247	0x3e6a8885	0.2290364
248	0x3e336cf0	0.17522025
249	0x3e2c4c9a	0.16826096
250	0x3dcd2d37	0.1001839
251	0x3db4ce69	0.08828432
252	0x3de4a451	0.11164153
253	0xbd94ab57	-0.07259243
254	0xbe5071fe	-0.20355985
255	0x3d5adc6e	0.053432874
